assets/pretrained_DFG_TJ_RTL/model.pth (torch, 197952 bytes, 8 tensors)

layers.0.graph_conv.weight f4 [37, 200]
0.06924105 -0.019489763 -0.0038999773 -0.014759446 0.111696705 -0.018946046 -0.013125015 0.00022541435
-0.018783111 0.021185094 -0.04688925 -0.06953802 0.08769287 0.09558153 -0.087181464 0.034044087
0.11039927 0.09666829 -0.06220397 -0.022483936 0.062978245 0.07918991 0.12421719 -0.0013707187
0.12683333 0.05276132 0.11461269 0.036589913 0.049112443 0.020516632 0.07232407 0.030860145
-0.020728298 -0.017549854 -0.0058994205 -0.066600636 0.015485281 0.08419498 0.016919384 -0.032270458
0.015747448 -0.092674926 -8.133978e-05 -0.051291376 -0.056765776 0.040831782 0.12824064 0.13119012
0.0026661414 -0.017866658 -0.0391765 -0.009328565 -0.007299479 0.11391555 -0.087977774 -0.028729599
0.021912703 -0.025140505 0.03557904 -0.0433326 -0.040685408 0.12235841 -0.047717378 -0.033837304
-7.607867e-06 -0.04689907 -0.024983028 0.0847289 -0.008050408 -0.05092323 0.09282132 -0.050001156
0.028204447 0.0717875 0.13586871 0.08736951 -0.05018537 0.012368509 0.01337657 -0.065440334
-0.014374937 0.072126396 0.08358849 0.079774134 -0.03128905 0.0687065 -0.028062906 0.10454018
0.041577835 -0.0009815844 0.008108944 -0.032457672 0.0727132 -0.03103687 0.019949548 0.0028108486
0.09039384 -0.025760386 0.093658864 0.05225619 0.12588717 0.016570307 -0.022452002 0.004645968
0.01336183 -0.042788923 -0.016739385 -0.023942936 0.052029938 0.040807728 0.013243626 0.028320458
-0.00094453007 -0.06941684 0.13656929 0.1309911 0.011094928 -0.03217478 0.075538896 0.13412428
0.12465397 0.035847243 0.039552625 0.02882533 0.020919519 -0.025960188 -0.026886178 -0.005905498
0.021469502 -0.019903421 0.017906569 -0.059742447 0.044220414 -0.006251413 0.030532323 0.10850356
0.07697285 -0.0040881983 0.1297637 0.043549996 -0.020931995 0.063668214 0.021562494 0.009247613
0.07045804 0.00472679 -0.000100968966 -0.039146926 0.015133833 -0.037245926 -0.049456682 -0.027015291
-0.005750092 -0.013987865 -0.029067267 -0.0582259 0.044528242 0.04442032 -0.044305492 0.1187411
-0.03218194 -0.030875424 -0.024873935 -0.055164233 6.538736e-05 0.00016170787 0.12616418 -0.027382523
0.071853735 0.048668433 0.095029004 0.020646948 -0.03787247 -0.029738717 -0.06179826 0.024682112
0.065546006 0.09755987 0.054025754 0.09038933 0.04464464 0.10352612 -0.107983686 -0.07356957
0.010557284 -0.03039285 -0.026497323 0.04002114 -0.05953253 0.05765409 -0.026194466 -0.024611507
-0.015587073 0.13267937 -0.05396689 -0.03505642 0.051536035 -0.022681408 0.037920304 -0.027903438
-0.039145 -0.012692741 -0.009429328 -0.015409191 -6.425707e-06 -0.004334045 0.0022036443 -0.0057293773
1.1425259e-06 -0.032732666 -0.07078362 -0.00016365413 -0.030565728 -3.0693393e-06 -0.018462699 0.0058968384
-0.022807816 -0.024989357 0.043825444 -0.016178569 -0.03595727 0.08432738 -0.07212481 2.216081e-05
0.058686335 0.031940605 -0.012344684 0.062036097 0.062386554 0.041624736 0.024292324 0.030901007
-0.0034633114 -0.023805736 -0.027953759 0.09390461 -0.00051073293 0.006110464 0.080465294 -4.3085065e-06
0.07234569 -0.04480203 -0.0020274832 -0.056225713 -8.950953e-06 0.07069103 -0.0654336 0.03981264
-0.005366868 0.0030471869 -6.2566937e-06 -0.06929584 -0.026969317 -0.024038699 -0.014519637 -0.0139207095
00000000: 40ce 8d3d ffa8 9fbc c396 7fbb 9ad1 71bc
00000010: 3ec1 e43d bd34 9bbc 4e0a 57bc 345d 6c39
00000020: 0adf 99bc 5d8c ad3c f10e 40bd f369 8ebd
00000030: 5298 b33d 40c0 c33d 328c b2bd d071 0b3d
00000040: 0319 e23d 06fa c53d 97c9 7ebd 3b30 b8bc
00000050: bdfa 803d 522e a23d 9565 fe3d b0a9 b3ba
00000060: 99e0 013e 411c 583d 0fba ea3d 4edf 153d
00000070: 212a 493d 7f12 a83c a41e 943d 6ace fc3c
00000080: 64ce a9bc b6c4 8fbc ed4f c1bb ea65 88bd
00000090: fab5 7d3c 6b6e ac3d 859a 8a3c 072e 04bd
000000a0: cb00 813c 5acc bdbd f694 aab8 e816 52bd
000000b0: 3b83 68bd 3a3f 273d 8451 033e b456 063e
000000c0: 6eba 2e3b 195d 92bc 8a77 20bd d6d6 18bc
000000d0: 7830 efbb 8e4c e93d b12d b4bd 565a ebbc
000000e0: 4582 b33c 76f3 cdbc 54bb 113d 867d 31bd
000000f0: bea5 26bd 0c97 fa3d 4c73 43bd fc98 0abd
00000100: 1447 ffb6 3d19 40bd 35a9 ccbc 5886 ad3d
00000110: dce5 03bc e094 50bd 1b19 be3d 03ce 4cbd
00000120: 030d e73c 5305 933d 2b21 0b3e c9ee b23d
00000130: 2d8f 4dbd 49a5 4a3c 6729 5b3c 9505 86bd
00000140: db84 6bbc 01b7 933d 7130 ab3d 9f60 a33d
00000150: f228 00bd feb5 8c3d 2ee4 e5bc 2919 d63d
00000160: 854d 2a3d 82a8 80ba 60db 043c 56f2 04bd
00000170: a8ea 943d 0941 febc 3c6d a33c 3736 383b
00000180: 6820 b93d 7207 d3bc 38d0 bf3d 960a 563d
00000190: 91e8 003e 74be 873c 43ed b7bc 343d 983b
000001a0: 94eb 5a3c 7043 2fbd 0921 89bc fa23 c4bc
000001b0: 581d 553d 0126 273d cbfb 583c 4e00 e83c
000001c0: 579a 77ba 6b2a 8ebd d2d8 0b3e 8822 063e
000001d0: 80c7 353c b4c9 03bd 23b4 9a3d e057 093e
000001e0: 954a ff3d 8fd4 123d ef01 223d 1923 ec3c
000001f0: 695f ab3c 76aa d4bc 6740 dcbc e882 c1bb
00000200: cfe0 af3c 800c a3bc ccb0 923c 7fb4 74bd
00000210: 7720 353d a7d8 ccbb ec1e fa3c 1d37 de3d
00000220: f1a3 9d3d 4bf6 85bb c6e0 043e 7b61 323d
00000230: 9379 abbc 7b64 823d d4a3 b03c 4d83 173c
00000240: 4e4c 903d 30e3 9a3b 4dbf d3b8 8758 20bd
00000250: e5f3 773c 2f8f 18bd 1793 4abd 2c4f ddbc
00000260: 456b bcbb 5c2d 65bc 7a1e eebc 487e 6ebd
00000270: 3f63 363d 15f2 353d ad79 35bd 892e f33d
00000280: 36d1 03bd 75ee fcbc 6cc4 cbbc e4f3 61bd
00000290: 9220 8938 2090 2939 2f31 013e 5051 e0bc
000002a0: 0d28 933d 8d58 473d 919e c23d ca23 a93c
000002b0: 2a20 1bbd 9c9e f3bc 2c20 7dbd 2432 ca3c
000002c0: fc3c 863d 78cd c73d 1c4a 5d3d 0b1e b93d
000002d0: 4cdd 363d 8105 d43d 8d26 ddbd a5ab 96bd
000002e0: 75f8 2c3c 6dfa f8bc ea10 d9bc 35ed 233d
000002f0: 62d8 73bd b226 6c3d c795 d6bc 129e c9bc
00000300: ec60 7fbc 1add 073e 630c 5dbd 5297 0fbd
00000310: 7317 533d 5cce b9bc 5252 1b3d c095 e4bc
00000320: 8256 20bd 37f5 4fbc 787d 1abc d576 7cbc
00000330: 679c d7b6 9b04 8ebb 046b 103b 80bd bbbb
00000340: e458 9935 b012 06bd 01f7 90bd 929a 2bb9
00000350: fa64 fabc d9fa 4db6 163f 97bc 443a c13b
00000360: 75d7 babc 7bb6 ccbc 4f82 333d eb88 84bc
00000370: ee47 13bd d5b3 ac3d 2cb6 93bd fae5 b937
00000380: 1561 703d 27d4 023d 5c41 4abc 9019 7e3d
00000390: 0b89 7f3d b37e 2a3d b200 c73c 1c24 fd3c
000003a0: b9f8 62bb 3f04 c3bc 48ff e4bc 0f51 c03d
000003b0: b5e2 05ba 4a3a c83b fdca a43d ca91 90b6
000003c0: fa29 943d 5582 37bd 86df 04bb ef4c 66bd
000003d0: 0d2c 16b7 75c6 903d 0d02 86bd 9412 233d
000003e0: 8ddc afbb 50b3 473b 97f0 d1b6 faea 8dbd
000003f0: c2ee dcbc ceec c4bc c6e3 6dbc b013 64bc

layers.0.graph_conv.bias f4 [200]
0.0038036262 -0.006477313 -0.014725331 -0.003428055 -0.0068634483 -0.013105645 -0.012245726 0.007957117
0.00082551985 -0.012898301 0.0025207377 -0.005933064 -0.0027369799 0.006626531 -0.004072182 -0.015155496
0.0040195044 0.011066924 0.00028717102 -0.013040182 0.00048515564 -0.0047173714 0.015867494 -0.003283936
-0.0015459649 0.010357235 0.0029292388 0.0022385414 0.0016253467 0.015774168 -0.003207558 -0.0072374945
-0.0011335544 -0.017953089 0.009494498 0.009242093 -0.0052901534 0.0022007225 0.0052698324 -0.0016247841
0.010577697 0.010751504 0.001196212 -0.0012814269 -0.004935982 -0.003860434 0.009690068 0.0044429167
-4.7538306e-05 -0.002593271 0.005420022 0.008489316 0.013966875 0.012054813 0.0021389963 0.0037154146
-0.0035336704 -0.005849519 0.00018664762 0.008691769 -0.006401004 0.010970465 -0.00042081886 0.0050690817
-0.0006682897 0.003923245 0.008097438 0.013832276 0.01842207 -0.027107405 -0.005936101 0.00020487631
-0.006146373 0.006516505 0.008419637 -0.0031811437 -0.005422419 -0.0038307707 0.0045951875 0.0062483847
0.010416053 -0.0072183604 -0.011772326 -0.004182964 0.01915048 0.0033542821 -0.020341756 0.0025993912
0.0029779896 -0.010509537 0.023235006 0.0008576452 -0.0022804837 -0.010211757 0.0052636983 -0.015874268
-0.01577645 0.012313439 0.007892153 -0.0022573879 -0.0014053455 0.005164268 0.0118726585 -0.013078203
0.011408725 0.0084878765 0.0037941863 -0.0041054892 -0.004626752 -0.0014316275 -0.00050421106 -0.0030301758
0.004792347 -0.0042384854 0.0004198606 -0.008902358 0.016626978 -0.0028587559 -0.020380482 0.008743576
-0.004135278 0.020909363 -0.0046121865 0.0036156548 -0.007917148 0.00027125352 -0.0113452505 -0.010100384
-0.0071634585 0.0069480673 -0.0059399507 -0.0007070144 -0.007828745 -0.0067195287 0.010932159 -0.0029586453
0.007989624 0.0030363149 -0.0031553393 0.0074791852 -0.011654895 5.2511346e-05 -0.008855079 0.0036598016
-0.002714981 -0.01847911 -0.0076189344 -0.0016632382 0.0074357535 0.006310389 -0.01635067 0.006872095
-0.01756164 -0.0012839476 0.010078298 -0.0007405349 0.005395489 -0.0029489046 -0.014321735 0.006037874
0.0074729426 -0.003580475 -0.0013023416 -0.0022324717 -0.0058904113 0.008470248 0.014880897 0.016786529
-0.007534518 -0.019857934 -0.0064827795 0.013858866 -0.0042827325 -0.0053770426 0.00014722072 -0.0059406958
-0.005456792 -0.008932162 0.007624061 -0.010339131 0.0092983395 0.0051826877 0.0071108555 0.005036145
-0.018188186 0.017339014 -0.004363567 -0.013924624 0.003550778 -0.0027434712 -0.0037822064 -0.003237236
0.0033544996 0.0073791086 -0.017630974 -0.0042224186 -0.005760227 -0.0013543894 0.0036475123 -0.0073469463
00000000: 4246 793b a43f d4bb 8442 71bc 38a9 60bb
00000010: c7e6 e0bb 0fb9 56bc 4ca2 48bc 915e 023c
00000020: b367 583a 6553 53bc f632 253b 266a c2bb
00000030: e75e 33bb 5f23 d93b f06f 85bb c24e 78bc
00000040: 0cb6 833b 0b52 353c 718f 9639 7da6 55bc
00000050: 7d5c fe39 2e94 9abb 8cfc 813c 4e37 57bb
00000060: f9a1 caba 64b1 293c 79f8 3f3b 7eb4 123b
00000070: 9609 d53a d438 813c e535 52bb 8128 edbb
00000080: c693 94ba 5b12 93bc d08e 1b3c 266c 173c
00000090: 0659 adbb ff39 103b 8fae ac3b b5f6 d4ba
000000a0: 144e 2d3c 1427 303c 37ca 9c3a 8df5 a7ba
000000b0: 05be a1bb 56ff 7cbb 17c3 1e3c e395 913b
000000c0: de63 47b8 def3 29bb 719a b13b c616 0b3c
000000d0: 52d5 643c 8d81 453c 672e 0c3b 507e 733b
000000e0: 2795 67bb 52ad bfbb d7b6 4339 ec67 0e3c
000000f0: 83bf d1bb 77bd 333c 5aa1 dcb9 8a1a a63b
00000100: 2a30 2fba 908e 803b 1eab 043c c5a0 623c
00000110: e2e9 963c 5910 debc a083 c2bb 11d4 5639
00000120: 8467 c9bb 6888 d53b 84f2 093c bc7a 50bb
00000130: 8cae b1bb ab0d 7bbb 3a93 963b 40bf cc3b
00000140: 18a8 2a3c ff87 ecbb b7e0 40bc 3f11 89bb
00000150: 78e1 9c3c 84d3 5b3b c1a3 a6bc 8c5a 2a3b
00000160: 602a 433b 3130 2cbc 5757 be3c 98d3 603a
00000170: 2b74 15bb 374f 27bc 1a7b ac3b c10a 82bc
00000180: 9d3d 81bc 4ebe 493c 174e 013c aff0 13bb
00000190: 9233 b8ba 0539 a93b 8a85 423c f645 56bc
000001a0: a9eb 3a3c bc10 0b3c e2a7 783b 5787 86bb
000001b0: 029c 97bb 73a5 bbba 082d 04ba ea95 46bb
000001c0: 1f09 9d3b fee2 8abb bc20 dc39 32db 11bc
000001d0: 4d35 883c f759 3bbb f8f4 a6bc 3741 0f3c
000001e0: 3a81 87bb 1d4a ab3c d321 97bb 9ff4 6c3b
000001f0: edb6 01bc 0837 8e39 6ee1 39bc 157c 25bc
00000200: 72bb eabb 9dac e33b eba3 c2bb ef56 39ba
00000210: 2344 00bc 7e2f dcbb cc1c 333c d5e5 41bb
00000220: e9e6 023c e9fc 463b cfc9 4ebb f413 f53b
00000230: 2cf4 3ebc a13f 5c38 e514 11bc 48d9 6f3b
00000240: d3ed 31bb 8161 97bc 41a8 f9bb 0301 daba
00000250: 9fa7 f33b 61c7 ce3b d7f1 85bc 502f e13b
00000260: 6edd 8fbc 224a a8ba 721f 253c 7520 42ba
00000270: a4cc b03b 6942 41bb b6a5 6abc 5cd9 c53b
00000280: 96df f43b 67a6 6abb 55b3 aaba a94e 12bb
00000290: 5a04 c1bb ccc6 0a3c 01cf 733c e783 893c
000002a0: 1ee4 f6bb 1bad a2bc 7f6d d4bb 4c10 633c
000002b0: 2a56 8cbb e731 b0bb 435f 1a39 2baa c2bb
000002c0: e4ce b2bb 3458 12bc 42d3 f93b 7565 29bc
000002d0: 1058 183c 89d3 a93b 2e02 e93b 3f06 a53b
000002e0: 64ff 94bc 8c0a 8e3c 41fc 8ebb 1b24 64bc
000002f0: 2bb4 683b cfcb 33bb e5de 77bb cf27 54bb
00000300: 2ad7 5b3b 73cc f13b d56e 90bc 375c 8abb
00000310: 49c0 bcbb c485 b1ba 1a0b 6f3b a7be f0bb

layers.1.graph_conv.weight f4 [200, 200]
0.056151416 0.051737517 0.043785214 0.03328505 0.010931503 0.09022616 -0.03150752 -0.022812784
-0.08181221 -0.06490163 9.548383e-05 0.09498017 -0.034693915 -0.10279609 0.026469864 0.0799752
-0.0674797 -0.083785795 -0.010839438 -0.020295547 0.08970556 0.10774632 0.08346594 -0.0005036681
-0.059491746 0.036752407 0.119983405 -0.021146245 -0.01762025 0.073489346 0.024512272 0.023850927
0.10077752 -0.09604368 0.036017276 -0.080932245 0.043672577 0.10641095 0.061002348 -0.010545295
-0.07415015 -0.07110238 -0.12364542 -0.0506678 0.06152312 0.02930481 0.047653824 -0.042765606
0.106320836 -0.08424206 -0.0046252375 -0.05374763 -0.04886121 -0.084287204 -0.056557365 -0.085786864
0.07034123 -0.005384689 -0.10221326 -0.032913014 0.029689945 -0.12826358 0.11119408 0.08119174
-0.071601145 0.027466396 -0.007638598 0.025777306 -0.094185874 0.09332571 0.099723294 0.11978086
-0.0609827 -0.0432901 0.083286785 -0.056183998 0.005947796 -0.012455048 -0.033188637 -0.06666
0.0027953193 0.07051622 0.108634956 0.08471249 -0.032053757 0.1251915 -0.027919315 0.0631616
-0.04659056 -0.102095135 0.08223756 0.08740331 -0.017278576 -0.08811501 0.087265074 -0.07585271
-0.05736563 0.07485892 0.04150566 0.034635905 -0.08283674 -0.027613895 0.10548721 -0.026855147
-0.10452482 -0.057888385 0.10200076 -0.1147523 -0.008075953 -0.05726519 -0.03808591 -0.0697586
-0.10379162 -0.03978107 -0.021706471 0.07574068 -0.033458922 0.004851812 -0.013900737 0.03774975
-0.111358784 -0.103445865 -0.016631147 0.05597108 -0.106911875 -0.08359801 0.003543993 0.025999922
0.13066526 0.07329344 -0.035927188 -0.016634932 -0.044626884 -0.08425681 0.020284923 0.04490336
0.083389394 0.11837405 0.06509026 0.0488271 0.030080114 0.066367015 -0.078668855 0.05749895
0.04090878 -0.02566505 0.081069306 0.087633625 -0.036193892 0.08321482 0.05697185 -0.11124975
0.10523192 0.052064296 -0.0098208785 0.13338172 -0.033378497 -0.032736905 0.011814441 -0.068005316
-0.042860713 0.070209675 0.07506304 0.050789546 0.042278904 0.096884124 0.04957878 -0.10976685
-0.098585516 -0.08578908 0.020902902 -0.06536817 -0.060261324 -0.05685343 -0.0011289216 0.0067558936
-0.012764177 0.0062646396 -0.095851496 -0.04201616 0.029562205 -0.03116071 0.06622826 0.08071979
0.074946135 -0.0041416986 -0.036567222 0.1225748 0.061077625 -0.08801505 0.085536055 -0.099436186
0.046913598 0.03275856 -0.046282712 -0.014322213 -0.07561722 -0.11363599 0.052942716 0.12385022
-2.4780453e-05 -0.00062228116 -0.00028833165 0.001940266 0.00039003327 0.0001008592 0.020725438 0.028273642
0.020462645 -0.009246317 0.010464007 0.032731146 0.0034615218 0.028210796 -0.008564301 -0.0018111753
-0.00014449492 0.047989514 -0.010807809 -0.027233444 0.0013726578 0.023611177 0.0026178116 0.02726761
-0.0129489405 0.00010176838 0.005828083 -0.023254955 0.00092926045 -0.00062867993 0.00016566576 0.0005146919
-0.004521315 0.015880445 0.015292285 -0.017911244 0.016248584 -0.03187203 -0.006502011 -4.631546e-06
0.00062504533 0.007900583 0.00037692155 0.03450895 0.008299027 0.008626215 0.0004190733 7.885482e-06
0.00049092126 -0.017588485 -0.00858802 0.008426691 -0.0020878385 -0.001804006 0.013634164 -0.0026473873
00000000: 07ff 653d b8ea 533d 2058 333d e855 083d
00000010: 0c1a 333c 7ec8 b83d 070e 01bd e0e1 babc
00000020: 298d a7bd 25eb 84bd 7e3e c838 f784 c23d
00000030: 351b 0ebd c286 d2bd 54d7 d83c 0aca a33d
00000040: cc32 8abd e397 abbd e697 31bc d942 a6bc
00000050: 8cb7 b73d 1aaa dc3d 31f0 aa3d 9808 04ba
00000060: 9ead 73bd b189 163d dcb9 f53d e43a adbc
00000070: 5858 90bc 9581 963d f6cd c83c 0563 c33c
00000080: 7264 ce3d 8db2 c4bd da86 133d cebf a5bd
00000090: 04e2 323d fced d93d 99dd 793d 2cc6 2cbc
000000a0: 09dc 97bd 209e 91bd cf39 fdbd 0a89 4fbd
000000b0: abff 7b3d a410 f03c a830 433d fd2a 2fbd
000000c0: bdbe d93d 1a87 acbd 4e8f 97bb 7a26 5cbd
000000d0: b122 48bd c59e acbd b2a8 67bd 06b1 afbd
000000e0: 100f 903d 0c72 b0bb 3055 d1bd cccf 06bd
000000f0: 5438 f33c 8757 03be b9b9 e33d db47 a63d
00000100: 9fa3 92bd 3501 e13c 344d fabb ee2a d33c
00000110: 86e4 c0bd 8d21 bf3d ba3b cc3d ab4f f53d
00000120: ffc8 79bd f650 31bd 4392 aa3d 3121 66bd
00000130: bbe5 c23b 4210 4cbc cff0 07bd 0a85 88bd
00000140: ad31 373b cf6a 903d 017c de3d be7d ad3d
00000150: cd4a 03bd 3332 003e 0cb7 e4bc de5a 813d
00000160: bed5 3ebd 4117 d1bd 2a6c a83d 8200 b33d
00000170: cd8b 8dbc a475 b4bd 08b8 b23d aa58 9bbd
00000180: 39f8 6abd a24f 993d d701 2a3d 61de 0d3d
00000190: 4fa6 a9bd 8936 e2bc ae09 d83d 53ff dbbc
000001a0: 1c11 d6bd 5f1c 6dbd c6e5 d03d 4103 ebbd
000001b0: 0151 04bc e78e 6abd f9ff 1bbd 99dd 8ebd
000001c0: b390 d4bd 7af1 22bd c5d1 b1bc ee1d 9b3d
000001d0: 390c 09bd f3fb 9e3b ebbf 63bc 7b9f 1a3d
000001e0: 1310 e4bd 6ddb d3bd 0b3e 88bc ee41 653d
000001f0: 9df4 dabd 6f35 abbd 5642 683b cafd d43c
00000200: 1dcd 053e df1a 963d 6328 13bd fb45 88bc
00000210: aeca 36bd d68e acbd 912c a63c 96ec 373d
00000220: 0fc8 aa3d 186e f23d 0b4e 853d edfe 473d
00000230: 926a f63c 6eeb 873d 231d a1bd 0584 6b3d
00000240: f78f 273d 833f d2bc aa07 a63d 4279 b33d
00000250: 0c40 14bd 886c aa3d 515b 693d e9d6 e3bd
00000260: d583 d73d 5f41 553d c0e7 20bc 3895 083e
00000270: e4b7 08bd 2217 06bd 5b91 413c 5f46 8bbd
00000280: b78e 2fbd 17ca 8f3d a7ba 993d b308 503d
00000290: a52c 2d3d 2f6b c63d 1e13 4b3d 71cd e0bd
000002a0: 34e7 c9bd 2fb2 afbd 903c ab3c bfdf 85bd
000002b0: 94d4 76bd 24df 68bd 53f8 93ba 8b60 dd3b
000002c0: d720 51bc 9b47 cd3b ca4d c4bd 2319 2cbd
000002d0: 702c f23c bf44 ffbc afa2 873d 6b50 a53d
000002e0: 5c7d 993d 16b7 87bb 83c7 15bd 7f08 fb3d
000002f0: 882c 7a3d 3c41 b4bd 872d af3d 33a5 cbbd
00000300: 7928 403d d72d 063d f192 3dbd b7a7 6abc
00000310: 33dd 9abd fcb9 e8bd 76da 583d 2fa5 fd3d
00000320: 9edf cfb7 9520 23ba 382b 97b9 8650 fe3a
00000330: 617d cc39 5f84 d338 65c8 a93c 209e e73c
00000340: 47a1 a73c dd7d 17bc 3a71 2b3c 1811 063d
00000350: b3da 623b 541a e73c 4851 0cbc f564 edba
00000360: 8f83 17b9 a790 443d 3d13 31bc ac18 dfbc
00000370: c1ea b33a 3a6c c13c 978f 2b3b 5360 df3c
00000380: cb27 54bc 7c6c d538 81f9 be3b 2d81 bebc
00000390: 9d99 733a ffcd 24ba 90b6 2d39 64ec 063a
000003a0: 8a27 94bb b517 823c 7e8c 7a3c 9aba 92bc
000003b0: c01b 853c 3f8c 02bd d20e d5bb ad68 9bb6
000003c0: 15da 233a 7271 013c 8e9d c539 4259 0d3d
000003d0: a4f8 073c f854 0d3c 11b7 db39 e34b 0437
000003e0: 2bb1 003a ba15 90bc c4b4 0cbc 1b10 0a3c
000003f0: 1ed4 08bb 6674 ecba d461 5f3c ca7f 2dbb

layers.1.graph_conv.bias f4 [200]
-0.009126754 0.006852121 -0.02479364 0.0018618501 0.0057913214 0.003563847 -0.0087996945 0.008255581
0.0051794737 -0.003990093 -0.007014953 -0.0039319685 0.013893546 0.006421753 -0.017566027 0.01695729
0.0031991228 -0.0018586939 0.0031317638 0.0011079264 0.01324962 -0.0049859122 -0.0049271835 0.011755011
0.0035983205 -0.031235447 0.0020887733 0.017071966 -0.009237925 0.0147529505 -0.011001642 -0.0013227308
0.0149014825 -0.007349349 -0.011307791 -0.00041551492 0.0037376569 0.012357873 -0.007412254 -0.027495867
0.013368253 0.006424103 0.00043458707 -0.010544387 -0.0003718465 0.01238568 -0.0032992275 -0.008766301
0.008098915 0.00048890687 0.0041631167 -0.00087624777 0.007148859 -0.012475467 -0.011493987 -0.0021214713
0.009338659 -0.016377656 0.004083237 0.01183051 -0.0069872006 0.0007483295 0.00976386 -0.0022992797
0.014528774 0.006811436 0.009993653 -0.0022547871 -0.016409706 0.004047106 0.0133822 0.010564505
-0.001645327 -0.014366545 -0.00973932 -0.021043383 -0.0017382528 -0.0027797234 -0.0047668526 -0.0021077704
-0.026564868 -0.015038348 0.008545815 -0.0034113436 -0.0156515 0.016394185 -0.009963826 -0.027894024
0.014315142 -0.01725878 -0.012061905 0.008811967 -0.02093592 0.012935695 0.00033210963 0.007924169
-0.006557197 -0.011340232 -0.013154814 -0.01882019 -0.0009778552 -0.0047566723 -0.0022292875 -0.0053248997
0.004191468 -0.0070620123 -0.0010026881 -0.022756265 -0.01626646 0.014863091 -0.01782693 -0.018295279
-0.010409854 -0.012907389 0.0026308813 0.0040558823 -0.006744007 0.0059924605 0.009522103 0.0023511245
-0.013425799 -0.0073579364 0.0021805114 -0.009111597 -0.019082364 0.00641003 0.00935839 -0.0058060987
0.016681818 0.016681705 -0.004163764 -0.014487412 -0.0066714 0.0011714633 0.0046330695 -0.0033472842
-0.011463098 0.0072688935 0.0027656013 -0.01012145 0.008651124 -0.00035971333 0.0052279076 -0.00804465
0.012284884 -0.018164769 0.009049635 -0.015684286 -0.005860562 -0.0031662332 -0.004873136 0.009440539
0.0050485022 0.015508209 -0.008170925 0.015564912 -0.0019681638 -0.003913815 -0.005428897 -0.004094563
-0.008106932 0.011629381 -0.0028390347 -0.0047590667 0.011346154 -0.0021974791 0.018099304 -0.010336429
0.00048767088 0.013071156 -0.015354726 0.013969761 -0.020518022 0.011490192 0.004515792 -0.0062397113
0.015853183 -0.009230212 0.010523919 -0.0072171185 -0.007854386 0.004242313 0.006812884 -0.0147564495
-0.025417214 -0.0015550043 0.0023538286 0.009909399 0.00019682864 0.0073153526 -0.0014999827 -0.023081826
-0.002483197 0.01310304 -0.020160511 -0.011231966 0.015052782 -0.009244654 -0.0026875527 0.01059883
00000000: 6188 15bc c287 e03b 081c cbbc 5309 f43a
00000010: 20c5 bd3b 6e8f 693b 982c 10bc 6b42 073c
00000020: 93b8 a93b 53bf 82bb b1dd e5bb bed7 80bb
00000030: c1a1 633c 926d d23b a1e6 8fbc 04ea 8a3c
00000040: 60a8 513b 6b9f f3ba 473e 4d3b d737 913a
00000050: ef14 593c dd60 a3bb 3674 a1bb 1798 403c
00000060: cdd1 6b3b 7be1 ffbc cde3 083b 82da 8b3c
00000070: aa5a 17bc 5cb6 713c 3b40 34bc 7b5f adba
00000080: 5925 743c cfd2 f0bb 5044 39bc 78d9 d9b9
00000090: 7af3 743b ad78 4a3c 7ee2 f2bb 033f e1bc
000000a0: 8406 5b3c 4881 d23b 4ad9 e339 5dc2 2cbc
000000b0: 64f4 c2b9 4fed 4a3c da37 58bb 88a0 0fbc
000000c0: 50b1 043c fc29 003a c16a 883b feb3 65ba
000000d0: fa40 ea3b e765 4cbc 4751 3cbc 6208 0bbb
000000e0: 2d01 193c 6f2a 86bc adcc 853b c1d4 413c
000000f0: e3f4 e4bb 8b2b 443a 99f8 1f3c 83af 16bb
00000100: 180a 6e3c 7732 df3b 6bbc 233c 0dc5 13bb
00000110: a66d 86bc 969d 843b 0441 5b3c bf16 2d3c
00000120: 03a8 d7ba a861 6bbc ab91 1fbc 2c63 acbc
00000130: 16d6 e3ba 052c 36bb 4233 9cbb 8522 0abb
00000140: 919e d9bc 6763 76bc bf03 0c3c d990 5fbb
00000150: 9337 80bc 194d 863c 513f 23bc 0282 e4bc
00000160: 0f8a 6a3c 4962 8dbc 4c9f 45bc 1260 103c
00000170: ce81 abbc 3df0 533c 001f ae39 60d4 013c
00000180: c1dd d6bb 61cc 39bc 4a87 57bc cd2c 9abc
00000190: 602b 80ba dcdd 9bbb 3d19 12bb 7f7c aebb
000001a0: 9558 893b 7468 e7bb a16c 83ba 596b babc
000001b0: 3d41 85bc 5284 733c c809 92bc fbdf 95bc
000001c0: 188e 2abc 8379 53bc dd6a 2c3b 35e7 843b
000001d0: d5fc dcbb 675c c43b 9802 1c3c 5315 1a3b
000001e0: e2f7 5bbc d81a f1bb e9e6 0e3b cf48 15bc
000001f0: 9e52 9cbc 3b0b d23b ef53 193c 1641 bebb
00000200: 4fa8 883c 12a8 883c 2f70 88bb 9c5c 6dbc
00000210: c29b dabb c98b 993a 01d1 973b 1c5e 5bbb
00000220: b8cf 3bbc e62f ee3b 173f 353b 70d4 25bc
00000230: 72bd 0d3c e897 bcb9 de4e ab3b b5cd 03bc
00000240: 8a46 493c 48ce 94bc ec44 143c 557c 80bc
00000250: f509 c0bb 9480 4fbb d4ae 9fbb 7eac 1a3c
00000260: e86d a53b 2516 7e3c 58df 05bc f903 7f3c
00000270: 4ffc 00bb 763f 80bb e4e4 b1bb af2b 86bb
00000280: f0d2 04bc 2989 3e3c 190f 3abb f2f1 9bbb
00000290: 38e5 393c 9503 10bb fe44 943c 205a 29bc
000002a0: 14ae ff39 6728 563c 6492 7bbc 6de1 643c
000002b0: 6915 a8bc 5c41 3c3c 35f9 933b 7e76 ccbb
000002c0: 89de 813c 513a 17bc 846c 2c3c 947d ecbb
000002d0: afaf 00bc 1a03 8b3b 9d3e df3b 09c5 71bc
000002e0: c337 d0bc 49d1 cbba b142 1a3b 085b 223c
000002f0: c963 4e39 a0b5 ef3b 119b c4ba 1916 bdbc
00000300: 22bd 22bb 22ae 563c a827 a5bc 4806 38bc
00000310: f29f 763c e476 17bc a721 30bb b7a6 2d3c

pool1.graph_pool.gnn.lin_l.weight f4 [1, 200]
-0.021356637 -0.0010918559 0.005092259 -0.05349336 -0.024364144 -0.008883805 0.028929377 0.034959912
-0.04903128 0.012694363 0.042218946 0.05415221 -0.071515925 -0.0023485543 0.012552707 -0.06183475
0.022402126 0.041072454 -0.003379535 0.05288778 -0.05731473 -0.050901536 -0.07074143 -0.07865122
-0.04169843 0.003850324 0.005726256 -0.08993664 0.031737477 -0.0659966 0.014623479 0.01613861
-0.07267648 0.015107151 0.06038096 0.0067357724 0.04832252 -0.062735416 0.015875725 -0.01074859
-0.057793524 -0.055750903 -0.015818816 0.04659019 -0.007239929 -0.063306674 -0.0024787872 0.0068483674
-0.062194906 -0.04049168 -0.06700017 -0.04169226 0.02850007 0.009826129 0.02626797 -0.003236152
-0.05405304 -0.06674688 -0.06913371 -0.08586448 -0.029813714 -0.051613294 -0.078471296 0.004198085
-0.062320802 0.014684708 -0.0072450656 -0.047745053 0.015463184 -0.055734485 -0.06179894 -0.034138918
-0.032738164 -0.054331638 -0.028740225 0.04583879 0.010010133 0.042137317 0.009862382 -0.05573366
0.029844591 0.029293787 -0.029999692 0.008719186 0.0033979928 -0.057945155 0.0011762228 0.030612078
-0.04765258 0.0199123 -0.018398361 -0.06672803 0.007902613 -0.06676249 0.009896708 -0.02820902
0.0046282797 -0.012163742 0.014454961 0.011202912 -0.069190726 0.0037402324 -0.055118565 0.054510746
-0.06341783 0.026824776 0.011037376 0.038103748 0.046265844 -0.062422242 -0.011774439 0.021014385
-0.064167894 -0.010443107 0.0013747677 0.054374583 -0.05644946 0.022108544 -0.030124346 -0.019586848
0.035728123 0.02617712 -0.03001562 0.05612472 0.02645674 0.05188941 -0.0656761 -0.016159527
-0.019384662 -0.0558968 -0.0038786072 -0.054569792 0.058071487 0.007401592 -0.008637237 -0.03960191
0.026845062 0.052330725 0.052088484 -0.06657559 -0.015386451 -0.0024517307 -0.090219274 0.011482043
-0.06819732 0.05320769 -0.034203198 0.021665985 0.015130961 0.0026005744 0.05431222 -0.04414848
-0.004255324 -0.03703836 -0.046093266 -0.058462117 -0.068340585 0.058029883 -0.07085082 0.05941351
0.03935103 -0.022363773 -0.025417043 -0.055484455 -0.018860439 0.014311633 -0.050681163 -0.055320285
-0.026234651 0.0004700573 0.018601319 -0.040029857 -0.014361128 -0.07684128 0.029910363 -0.065985724
-0.036903985 0.05396359 -0.065060176 0.029364888 -0.044553638 0.0094770985 0.062008772 0.057170246
0.044844225 0.0092109945 0.0135645205 -0.0321294 0.020330274 -0.06602368 -0.015773378 0.024805691
-0.070156 -0.051978484 0.012287857 0.029921042 -0.07841774 -0.047015466 -0.06614109 -0.067136094
00000000: 1df4 aebc 9b1c 8fba f7dc a63b da1b 5bbd
00000010: 5097 c7bc 618d 11bc 4dfd ec3c 2032 0f3d
00000020: 06d5 48bd 04fc 4f3c c6ed 2c3d b5ce 5d3d
00000030: f176 92bd 34ea 19bb dfa9 4d3c 6f46 7dbd
00000040: aa84 b73c 973b 283d 307b 5dbb dba0 583d
00000050: dac2 6abd 217e 50bd e2e0 90bd e413 a1bd
00000060: f9cb 2abd b855 7c3b 51a3 bb3b b330 b8bd
00000070: 28ff 013d 3a29 87bd 5197 6f3c 1e35 843c
00000080: 68d7 94bd fc83 773c 0752 773d c1b7 dc3b
00000090: d6ed 453d 6d7b 80bd cf0d 823c db1a 30bc
000000a0: e7b8 6cbd 0f5b 64bd 7696 81bc 5bd5 3e3d
000000b0: ed3c edbb eea6 81bd 2673 22bb 4568 e03b
000000c0: 16c0 7ebd 9bda 25bd 6337 89bd 81c5 2abd
000000d0: fb78 e93c c6fd 203c ed2f d73c 9f15 54bb
000000e0: b866 5dbd 97b2 88bd f995 8dbd b7d9 afbd
000000f0: e43b f4bc 7668 53bd 8fb5 a0bd 1790 893b
00000100: 1944 7fbd 2198 703c 0468 edbb 5190 43bd
00000110: 4b59 7d3c d849 64bd e320 7dbd 40d5 0bbd
00000120: 7418 06bd da8a 5ebd 9f70 ebbc 74c1 3b3d
00000130: 8a01 243c 2e98 2c3d d495 213c fa48 64bd
00000140: a57c f43c 86f9 ef3c eac1 f5bc ebda 0e3c
00000150: dcb0 5e3b e657 6dbd 7d2b 9a3a 2ec6 fa3c
00000160: 5a2f 43bd 1f1f a33c 29b8 96bc b5a8 88bd
00000170: f679 013c c6ba 88bd cd25 223c 9a16 e7bc
00000180: d3a8 973b 6f4a 47bc 80d4 6c3c 6b8c 373c
00000190: deb3 8dbd b01e 753b 01c4 61bd a946 5f3d
000001a0: 35e1 81bd a2bf db3c 1cd6 343c ad12 1c3d
000001b0: 4181 3d3d 77ae 7fbd 94e9 40bc 5c26 ac3c
000001c0: 756a 83bd 9119 2bbc 8d31 b43a e2b7 5e3d
000001d0: 8d37 67bd fa1c b53c 55c7 f6bc 9974 a0bc
000001e0: a757 123d 6671 d63c 51e3 f5bc 09e3 653d
000001f0: cebb d83c fd89 543d 3181 86bd fc60 84bc
00000200: 95cc 9ebc 0bf4 64bd 3b30 7ebb 9384 5fbd
00000210: 5edc 6d3d 0e89 f23b 3383 0dbc 9d35 22bd
00000220: 2dea db3c be58 563d bc5a 553d c858 88bd
00000230: 7417 7cbc 37ad 20bb e2c4 b8bd 2e1f 3c3c
00000240: 09ab 8bbd 4ff0 593d a718 0cbd dd7c b13c
00000250: dae7 773c 666e 2a3b 7e76 5e3d 09d5 34bd
00000260: 3f70 8bbb 89b5 17bd 4bcc 3cbd f975 6fbd
00000270: 26f6 8bbd beb0 6d3d 3c1a 91bd 955b 733d
00000280: 8c2e 213d 3b34 b7bc 6737 d0bc ab43 63bd
00000290: 3581 9abc 577b 6a3c 0d97 4fbd 8697 62bd
000002a0: 0dea d6bc 0672 f639 cb61 983c 59f6 23bd
000002b0: f04a 6bbc f65e 9dbd 9406 f53c 8623 87bd
000002c0: a228 17bd ed08 5d3d 453e 85bd a28e f03c
000002d0: e07d 36bd d545 1b3c e9fc 7d3d 592b 6a3d
000002e0: 94ae 373d b6e9 163c b93d 5e3c 1e9a 03bd
000002f0: ad8b a63c 6c37 87bd 2c37 81bc 4e35 cb3c
00000300: f3ad 8fbd 64e7 54bd 0253 493c f91c f53c
00000310: 7b99 a0bd 4a93 40bd fb74 87bd a67e 89bd

pool1.graph_pool.gnn.lin_r.weight f4 [1, 200]
-0.05151606 0.06650356 -0.042233553 -0.03985646 -0.028084343 -0.02406596 0.02085355 0.08429218
0.045276653 0.031417213 0.009620334 0.04170476 0.05456148 0.06792102 -0.062976815 0.08132216
-0.003812089 0.06788109 0.044440914 0.028763054 0.07096744 -0.054377366 -0.036358934 -0.06416684
0.028413024 0.04624707 0.044609718 0.029513419 -0.060648683 0.028684007 0.019454632 0.054262448
0.06752379 0.039402388 -0.010684413 0.044698965 0.08547514 0.06773346 0.005925027 0.0075904448
-0.027333947 -0.0239714 -0.0364063 0.0053543113 0.054176778 0.043201003 0.03382238 -0.0007250294
0.039681543 0.053793225 0.008581736 0.0031297784 -0.018963443 -0.002297794 -0.03386837 0.056569155
0.018306648 0.005062043 -0.049615752 0.04010784 -0.0024153735 -0.053707715 -0.0029393358 -0.05630735
0.024216292 0.06534212 0.04170875 0.00577371 -0.0617557 0.01786074 0.037031405 0.013896597
-0.007956875 -0.04555747 -0.01456668 -0.049074557 0.007763431 0.007307979 -0.020624734 0.042476874
-0.021043504 -0.0036801388 0.022199336 0.015734762 -0.020043911 0.07172878 -0.04176854 0.021086033
0.06649434 0.065605395 -0.057060562 0.038891353 0.0011372967 0.028744252 0.041425936 0.06695218
-0.032276336 -0.028686844 -0.066189855 -0.0047939857 -0.051376846 0.051388755 0.022312243 0.06693155
0.073071115 0.055376105 0.060157914 -0.042022716 -0.010447229 0.069082156 -0.004148756 0.029908204
-0.059235536 0.010587302 0.07610558 0.06294872 -0.045474447 -0.005763079 0.034514338 0.0051417495
0.053934213 -0.012123448 0.05357689 -0.03540554 -0.051538546 0.06748689 0.012870812 -0.033132043
0.086913645 0.040083643 -0.02039285 -0.036161788 -0.047770113 0.022307517 0.039168492 -0.035085674
-0.040674523 0.015396298 0.012108764 -0.055166926 0.059355963 -0.00480491 0.060524832 -0.057546932
0.0683873 -0.053472586 0.022181403 0.06324322 -0.021884 0.061954632 -0.038485914 -0.02122294
0.04864664 0.07809647 0.01754744 0.06381721 -0.059302792 0.015682409 -0.0064180763 0.06464123
0.003845489 0.043934736 -0.038762387 -0.017026002 0.010075081 0.0436025 0.071492046 -0.044336412
-0.011530898 0.035098992 -0.04212788 0.06520162 -0.056686748 0.056107447 0.07141696 -0.03338679
0.012723113 -0.03146136 0.047866315 -0.03204355 -0.021231135 0.06776225 0.046594355 -0.0205884
-0.044038087 0.013598259 0.06378943 0.027111938 0.04494618 0.036855463 0.04851501 -0.0020665864
-0.05176641 0.055377234 -0.029711392 0.061294224 -0.03636432 -0.044096425 -0.016025351 0.018904204
00000000: 8102 53bd 0533 883d 17fd 2cbd 8740 23bd
00000010: 2311 e6bc fa25 c5bc 10d5 aa3c 61a1 ac3d
00000020: 0374 393d 56af 003d 9b9e 1d3c 9cd2 2a3d
00000030: dc7b 5f3d 2d1a 8b3d fdf9 80bd 3c8c a63d
00000040: 3ed4 79bb 3e05 8b3d ad07 363d 7fa0 eb3c
00000050: 6157 913d cdba 5ebd 1bed 14bd e769 83bd
00000060: 6ec2 e83c 916d 3d3d aeb8 363d 20c6 f13c
00000070: c16a 78bd b9fa ea3c 525f 9f3c 4d42 5e3d
00000080: ea49 8a3d 6664 213d ad0d 2fbc 4316 373d
00000090: 970d af3d d7b7 8a3d bb26 c23b 44b9 f83b
000000a0: 71eb dfbc ab5f c4bc c61e 15bd 3873 af3b
000000b0: 78e8 5d3d 89f3 303d 5689 0a3d e60f 3eba
000000c0: 1d89 223d 4956 5c3d 699a 0c3c f81c 4d3b
000000d0: 3959 9bbc 9696 16bb 8fb9 0abd 0fb5 673d
000000e0: d3f7 953c 7fdf a53b e339 4bbd 1e48 243d
000000f0: 3e4b 1ebb 9ffc 5bbd dfa1 40bb 89a2 66bd
00000100: 3f61 c63c 17d2 853d cbd6 2a3d 6431 bd3b
00000110: 8bf3 7cbd b050 923c 3eae 173d 8dae 633c
00000120: 8d5d 02bc 789a 3abd 16a9 6ebc 6702 49bd
00000130: 6164 fe3b c577 ef3b 34f5 a8bc 3bfc 2d3d
00000140: 6d63 acbc 7c2e 71bb 62db b53c 30e6 803c
00000150: 2133 a4bc 8ae6 923d 7d15 2bbd 9ebc ac3c
00000160: 2f2e 883d 1f5c 863d 56b8 69bd 8a4c 1f3d
00000170: 5811 953a 1179 eb3c 3eae 293d 391e 893d
00000180: 3134 04bd ac00 ebbc 8c8e 87bd de16 9dbb
00000190: 8770 52bd 047d 523d 2ac8 b63c 6913 893d
000001a0: 4fa6 953d 0ed2 623d 2568 763d 0320 2cbd
000001b0: db2a 2bbc f27a 8d3d 4af2 87bb 0d02 f53c
000001c0: f6a0 72bd 5d76 2d3c 3edd 9b3d 42eb 803d
000001d0: 6a43 3abd 36d8 bcbb e85e 0d3d 1f7c a83b
000001e0: 1fea 5c3d 6da1 46bc 7173 5b3d 6605 11bd
000001f0: 151a 53bd 9136 8a3d 19e0 523c 77b5 07bd
00000200: c8ff b13d bf2e 243d e80e a7bc 621e 14bd
00000210: 98aa 43bd 41be b63c 246f 203d ffb5 0fbd
00000220: 549a 26bd c140 7c3c d663 463c b7f6 61bd
00000230: 3d1f 733d 8272 9dbb e3e8 773d 55b6 6bbd
00000240: a40e 8c3d 1206 5bbd c6b5 b53c a985 813d
00000250: 1346 b3bc 24c4 7d3d 68a3 1dbd bbdb adbc
00000260: b341 473d 0bf1 9f3d a6bf 8f3c 99b2 823d
00000270: 7ce7 72bd 6578 803c ba4e d2bb 9f62 843d
00000280: 9904 7c3b e9f4 333d 4fc5 1ebd 1d7a 8bbc
00000290: f411 253c 8998 323d 6c6a 923d 199a 35bd
000002a0: 17ec 3cbc f6c3 0f3d 498e 2cbd 6d88 853d
000002b0: 5d30 68bd ecd0 653d 0e43 923d 96c0 08bd
000002c0: 9b74 503c a1dd 00bd 780f 443d 1940 03bd
000002d0: ebec adbc efc6 8a3d b9d9 3e3d 01a9 a8bc
000002e0: 4861 34bd 3bcb 5e3c 08a4 823d db19 de3c
000002f0: 7c19 383d c1f5 163d adb7 463d 916f 07bb
00000300: 0409 54bd 3dd3 623d 4e65 f3bc a70f 7b3d
00000310: c1f2 14bd 749e 34bd 9947 83bc fddc 9a3c

fc.weight f4 [2, 200]
-0.03701492 -0.01113827 -0.014716494 -0.020388318 -0.02737055 -0.05766347 -0.024960287 -0.069182344
-0.015297791 -0.029898154 -0.0011327242 -0.07021802 -0.036637887 -0.016301079 -0.038702797 -0.001462934
-0.027493546 -0.015548784 -0.0063814176 0.016052483 0.020480279 0.025510766 -0.053346045 -0.052399084
0.034141168 0.024015816 -0.015528382 -0.027823545 0.0057067345 -0.058519103 -0.041518003 -0.034134373
-0.061239094 0.003217748 0.03357973 -0.07484069 -0.061815348 0.00072984153 -0.05018203 -0.0019602193
0.013444501 -0.07792308 -0.014090103 0.025037117 0.0032986768 0.025658377 0.026592975 -0.021421215
0.024210641 0.03419265 -0.016707055 0.023670113 -0.055403646 0.02749191 -0.03705792 0.010998375
-0.048783276 0.04312262 -0.07409722 0.030443087 -0.017541116 -0.07004202 -0.049100544 -0.07929341
-0.04367899 -0.03371944 -0.08496854 -0.0007562218 0.046367522 -0.0012224609 -0.0056510377 -0.0654489
-0.03534659 0.015109849 0.030597933 -0.0040297336 -0.054006852 0.009446499 -0.086540505 0.0025948845
0.005955713 0.0068686297 0.028348237 -0.045279108 -0.06301249 -0.0443757 -0.06111724 0.043723695
-0.011595592 0.007367887 0.057450444 -0.04437516 0.018288543 -0.079427995 -0.046682946 -0.018106725
-0.06039141 0.044966213 0.04734155 0.0016696176 0.027991531 -0.065058604 0.0258081 -0.024306996
0.04602709 0.024263958 -0.033799425 0.003931349 -0.026241047 -0.06700901 0.023976166 0.018073207
-0.037341736 0.019741923 -0.0031357827 -0.07472402 -0.06790723 -0.06918881 0.0059275916 -0.034747876
0.016205803 -0.06460047 -0.039393503 0.04096409 0.014305748 -0.04423739 -0.014739556 -0.019231385
0.04563379 -0.05792032 -0.029352535 0.00082479307 0.0028523416 -0.07088152 -0.005558616 -0.0111089675
0.028555153 -0.08090496 -0.061178397 -0.054157328 -0.022122359 -0.06228583 0.0031086435 -0.081910074
0.04314232 0.014648575 -0.02275397 0.03461571 -0.060062185 -0.019741975 0.024323015 -0.08298422
-0.05552249 -0.06831133 0.020699536 -0.0376993 -0.07380898 0.01339247 0.0054991446 -0.00081525586
-0.06370454 0.025084304 -0.08078838 -0.054104183 -0.06982573 0.0012176613 0.023083795 0.02208214
0.006751267 0.006313587 -0.03688282 -0.07122904 0.044616453 -0.04011159 -0.03166487 0.031135261
-0.06370656 -0.057673622 -0.019511264 0.05251142 0.01034934 0.008822596 -0.05405976 0.038702942
-0.029343171 -0.015895916 -0.02922623 -0.07535444 -0.03260597 0.0077814586 -0.04544437 0.013512843
0.011106709 0.039599642 -0.045184467 -0.030286621 -0.05089482 -0.06633286 -0.06422555 0.0609019
-0.0006401448 0.04476412 0.07624559 -0.038918667 0.031826742 0.05471127 -0.0062570125 0.058125008
0.01886941 0.026163492 0.048866928 -0.0003368003 0.05497934 0.022222148 -0.031496353 -0.0060418407
0.014516205 -0.033184092 0.04107868 0.091776855 -0.030423075 -0.040465888 0.035772447 0.003362791
0.072947495 -0.024455179 0.07066449 -0.04642981 0.034052175 0.050297905 -0.018020064 0.0107352855
0.0012210468 0.0067773224 -0.027561873 -0.00880289 0.018440697 0.052490123 -0.0011288469 -0.0073310044
0.05701046 0.047201075 0.031939346 -0.02363545 0.07664965 0.051704343 -0.042466335 0.007121261
0.034537792 0.024091804 0.01133864 -0.006934041 0.06692264 -0.05710022 -0.020297142 0.034553166
00000000: f59c 17bd 4a7d 36bc 731d 71bc 6705 a7bc
00000010: 3438 e0bc 8830 6cbd 8479 ccbc 79af 8dbd
00000020: 96a3 7abc f9ec f4bc eb77 94ba 77ce 8fbd
00000030: 9c11 16bd d789 85bc d386 1ebd ebbf bfba
00000040: 253a e1bc 54c0 7ebc 361b d1bb 7f80 833c
00000050: 42c6 a73c f4fb d03c 6281 5abd 6ca0 56bd
00000060: 9cd7 0b3d d1bc c43c c16a 7ebc 34ee e3bc
00000070: 8fff ba3b bab1 6fbd c80e 2abd 7cd0 0bbd
00000080: d8d5 7abd dae0 523b e68a 093d 1346 99bd
00000090: 1732 7dbd d652 3f3a ac8b 4dbd 0677 00bb
000000a0: 5346 5c3c 2396 9fbd 2dda 66bc a41a cd3c
000000b0: 9d2e 583b 8431 d23c 83d9 d93c 8b7b afbc
000000c0: 6555 c63c 980d 0c3d 3cdd 88bc d3e7 c13c
000000d0: efee 62bd b736 e13c 0cca 17bd 8732 343c
000000e0: f9d0 47bd 58a1 303d 49c0 97bd c863 f93c
000000f0: 63b2 8fbc 3172 8fbd a71d 49bd 9564 a2bd
00000100: bee8 32bd 651d 0abd fc03 aebd 303d 46ba
00000110: dfeb 3d3d fb3a a0ba 572c b9bb 130a 86bd
00000120: 96c7 10bd 4d8f 773c 84a8 fa3c db0b 84bb
00000130: 4a36 5dbd 7dc5 1a3c 263c b1bd f00e 2a3b
00000140: 2428 c33b 3e12 e13b 903a e83c 9676 39bd
00000150: b10c 81bd 4bc3 35bd 1256 7abd 9e17 333d
00000160: 70fb 3dbc 516e f13b 2851 6b3d bac2 35bd
00000170: dbd1 953c 25ab a2bd 9e36 3fbd 8e54 94bc
00000180: fc5c 77bd 7e2e 383d 37e9 413d 12d7 da3a
00000190: 7f4e e53c 723d 85bd 826b d33c 771f c7bc
000001a0: e786 3c3d 35c5 c63c 4471 0abd 8cd2 803b
000001b0: 77f7 d6bc 053c 89bd aa69 c43c 430e 943c
000001c0: a6f3 18bd d0b9 a13c b481 4dbb e808 99bd
000001d0: f212 8bbd ddb2 8dbd 3e3c c23b ca53 0ebd
000001e0: 08c2 843c 404d 84bd 155b 21bd f6c9 273d
000001f0: a862 6a3c 4432 35bd 2e7e 71bc 238b 9dbc
00000200: 7fea 3a3d dc3d 6dbd ba74 f0bc ed36 583a
00000210: 5aee 3a3b 552a 91bd 0d25 b6bb 6302 36bc
00000220: 7fec e93c 80b1 a5bd 3396 7abd 13d4 5dbd
00000230: f339 b5bc 6d1f 7fbd 62ba 4b3b 78c0 a7bd
00000240: 00b6 303d 9400 703c 8966 babc 34c9 0d3d
00000250: c403 76bd ecb9 a1bc 0f41 c73c a1f3 a9bd
00000260: 8d6b 63bd d0e6 8bbd 1392 a93c 956a 1abd
00000270: 2a29 97bd 176c 5b3c 2b32 b43b e5b6 55ba
00000280: 8777 82bd 997d cd3c 6174 a5bd 599c 5dbd
00000290: cb00 8fbd ef99 9f3a 3a1a bd3c 9be5 b43c
000002a0: bb39 dd3b 35e2 ce3b 7112 17bd 88e0 91bd
000002b0: bebf 363d 0d4c 24bd 06b3 01bd 600f ff3c
000002c0: 9678 82bd 2d3b 6cbd 16d6 9fbc 3716 573d
000002d0: 4790 293c a68c 103c c46d 5dbd fa86 1e3d
000002e0: 1761 f0bc 2738 82bc d96b efbc 6e53 9abd
000002f0: d68d 05bd 9bfb fe3b e023 3abd f964 5d3c
00000300: eaf8 353c 3c33 223d 5913 39bd a61b f8bc
00000310: 1677 50bd 86d9 87bd af88 83bd 4574 793d
00000320: 64cf 27ba 955a 373d a626 9c3d 2e69 1fbd
00000330: c25c 023d ed18 603d a007 cdbb 7d14 6e3d
00000340: 0594 9a3c d254 d63c b028 483d 9294 b0b9
00000350: 0432 613d 390b b63c 5202 01bd a2fa c5bb
00000360: 60d5 6d3c 0bec 07bd 1e42 283d 81f5 bb3d
00000370: d039 f9bc 8fbf 25bd 2186 123d 4562 5c3b
00000380: 7f65 953d 3a56 c8bc 8bb8 903d 2f2d 3ebd
00000390: 4b7a 0b3d 2d05 4e3d d09e 93bc 0de3 2f3c
000003a0: 880b a03a 4d14 de3b 70c9 e1bc ff39 10bc
000003b0: f210 973c e2ff 563d d1f5 93ba ec38 f0bb
000003c0: cd83 693d ea55 413d d5d2 023d 229f c1bc
000003d0: 7efa 9c3d efc7 533d 2ef1 2dbd 7859 e93b
000003e0: 8077 0d3d 2d5c c53c b4c5 393c f436 e3bb
000003f0: bd0e 893d ece1 69bd 3146 a6bc 9f87 0d3d

fc.bias f4 [2]
-0.041324977 0.04055516
00000000: 6144 29bd 2b1d 263d
