assets/pretrained_DFG_TJ_RTL/model.pth (torch, 197952 bytes, 8 tensors)

layers.0.graph_conv.weight f4 [37, 200]
000000 0e cb d1 3d 22 92 14 3e 65 d9 53 bd c9 37 d1 3d
       0.10243808 0.1450887 -0.051720995 0.10215718
000010 49 c7 de bd 3f 0a ed bd df 23 f8 bd 88 2a c5 bd
       -0.108778544 -0.1157422 -0.12116217 -0.09627253
000020 1d a1 61 3d 0d 9c 13 3d ac 32 c4 bd 92 6b 18 3e
       0.05508529 0.036037493 -0.095799774 0.14884785
000030 64 f6 50 bc d6 39 b2 3d 02 21 7f bc d4 06 1d be
       -0.012754057 0.087024376 -0.0155718345 -0.15334636
000040 70 06 1e 3e ba 07 64 bd 5c e5 a9 3c 54 37 86 bd
       0.15432143 -0.05567143 0.02073925 -0.06553522
000050 d6 4f c0 bc 9e a1 a4 bc 27 01 75 3c 9d a4 34 bc
       -0.023475569 -0.020096596 0.014953888 -0.011025575
000060 f3 8f a4 3d 10 0c 32 3d 14 07 4b 3d 1f b8 af 3c
       0.08035269 0.043468535 0.049567297 0.0214501
000070 66 b0 37 3d f5 f2 01 3e ed e4 53 bd e0 f8 fc 3d
       0.04484596 0.12690337 -0.051731993 0.12352157
000080 7a 51 22 3d 4d e1 ee 3d f9 c7 a0 bc 74 8a 33 3e
       0.039628483 0.116640665 -0.019626604 0.17533284
000090 48 f0 fb 3d 6c 9f 66 3d 6e fc e4 3c ae 00 58 bd
       0.123016894 0.05630438 0.0279524 -0.052735023
0000a0 b9 bb bc 3c bf 37 a8 3d 65 fc e8 3d ad 49 b0 3c
       0.023038732 0.08213758 0.113762654 0.021519506
0000b0 1e 96 32 bb f2 72 8e 3b 43 67 d2 bd 01 e7 f9 bb
       -0.0027250121 0.0043471986 -0.10273602 -0.0076264148
0000c0 be d8 03 be ee ac 08 bd a6 99 9a bb fa 9f 18 bd
       -0.1287565 -0.033368044 -0.0047180234 -0.03726194
0000d0 dc 55 30 bd 5c ae eb 3d fa fe e1 3c 2a 14 6d bd
       -0.043050632 0.11507866 0.027587403 -0.057880558
0000e0 45 72 d9 bc 36 1d 73 bd 94 a6 73 3d 0c 3f 19 3b
       -0.026543746 -0.05935403 0.059485033 0.0023383526
0000f0 5f c8 8d bd 7e c0 0e bd 4a f7 1f bc 8f ea 0e 3d
       -0.069229834 -0.034851544 -0.009763548 0.03489166
000100 3b 81 a5 bd a1 3b b2 bd c0 9d d2 bd f8 5e c8 bd
       -0.080812894 -0.087027796 -0.10283995 -0.09783739
000110 7f 97 e1 bb 2b b2 fe 3c 7c 2b c4 bd bd b3 e0 3d
       -0.006884515 0.031090816 -0.095786065 0.10971782
000120 28 d9 cc bd e8 c7 14 3e ee 88 fd bc f5 ad 3d bd
       -0.10002357 0.14529383 -0.030949082 -0.046308476
000130 9b 45 4e 3d 13 0d 67 3c cd c5 3e bd 76 77 8e bd
       0.05035935 0.014102238 -0.046575356 -0.06956379
000140 92 1c f7 bc 1d 51 b9 3c 7b 23 b9 bd b2 f1 41 3c
       -0.03016499 0.022621686 -0.090399705 0.01183741
000150 48 1e dd bd 8b f4 ec bc 40 93 ff 3d 69 da 58 bd
       -0.10796791 -0.0289252 0.124792576 -0.052942667
000160 0d 28 ca 3b 18 37 17 be 96 3d c2 3c 6f fd 1f 3d
       0.006169325 -0.1476711 0.023711007 0.039060052
000170 8a 2d d1 bd 11 e6 4c bb e8 f3 ff 3d ac eb 81 3d
       -0.10213764 -0.003126506 0.12497693 0.06343779
000180 78 09 4e bd a3 b0 04 3c fe 4f 03 3e df e3 fa 3c
       -0.050302 0.008098754 0.12823483 0.030626236
000190 e0 d6 c8 bc b1 65 1e bd 3e 16 55 bd 09 87 85 bd
       -0.024516523 -0.0386712 -0.052023165 -0.065198965
0001a0 29 b5 16 3e 03 32 b1 3c e9 b7 fc 3d ef d7 f9 3c
       0.14717545 0.021630293 0.123397656 0.030498473
0001b0 9f af 92 3d c5 d3 51 bd 42 16 76 bc c4 08 b2 3d
       0.07162403 -0.05122735 -0.015019955 0.08693078
0001c0 f8 5a 11 be 12 7f d4 bd f7 f4 a1 bd 68 ab f3 3d
       -0.14194858 -0.10375799 -0.079080515 0.118979275
0001d0 05 15 43 3c 6e 40 11 be bd ed 85 bd b3 c8 10 be
       0.011906867 -0.14184734 -0.065394856 -0.1413906
0001e0 74 8f aa 3d 14 e7 f8 bc 6a 8a 96 3d ef 25 0c bd
       0.08328143 -0.030383624 0.07350619 -0.034215864
0001f0 80 b0 87 3d 9d 2a 9f 3d 9d 24 f1 3c da 89 0a 3d
       0.066254616 0.077718 0.029436404 0.03382287
000200 55 07 58 bd d9 e1 10 3e bd a0 c3 bc 78 55 a6 3d
       -0.052741367 0.14148654 -0.023880357 0.081217706
000210 77 b3 c2 bd a5 2b 06 bd 1d 92 03 3e e8 5f 1f bd
       -0.095068865 -0.032756466 0.12848707 -0.038909823
000220 94 4a 0c be 62 69 d7 bb b6 1e 5a bd be f3 8c bd
       -0.13700324 -0.006573842 -0.053251944 -0.06882428
000230 28 f8 6e bc 37 13 eb 3d 10 7f 58 bd c5 44 7a 3c
       -0.014585532 0.11478274 -0.05285555 0.015275185
000240 59 0c fa bc c8 db b2 3a d6 db cf 3c 8e 66 aa 3d
       -0.030523466 0.0013645822 0.02537338 0.08320342
000250 7d 29 46 3c de 87 90 bd 2a 33 28 3d c8 b2 b4 3d
       0.0120948525 -0.070571646 0.04106442 0.08823162
000260 5b ff 98 3d 5e c4 b4 3d f0 c9 27 3d dc 8d c0 bd
       0.0747058 0.088265166 0.040964067 -0.094020575
000270 b4 87 66 3c 1f 5c 7d bd 08 4b c4 bc fe 7a 23 3d
       0.01407044 -0.06185543 -0.023961559 0.039912216
000280 41 8b e9 bb e0 3b e9 3a 27 d2 92 bd 4a 55 a7 bc
       -0.007127196 0.0017794333 -0.0716899 -0.020426411
000290 04 ae c8 3c bc 7b 2f bd 44 d4 1f 3e 33 8b 4c bd
       0.02449704 -0.04284261 0.15608317 -0.04993744
0002a0 bd 58 9e bc 3a 8e d3 bd e1 5d dd bd 4f 88 77 3d
       -0.019329423 -0.10329862 -0.108089216 0.06043273
0002b0 ef 7b 01 bc 7f bc 14 be d7 02 12 3d 17 bd 97 bc
       -0.007903083 -0.1452503 0.03564724 -0.018522782
0002c0 d0 da 9e 3d 3d c8 f5 3d 16 a4 ef bd 35 79 70 bd
       0.07756579 0.12001083 -0.11701219 -0.058709342
0002d0 cb bf b1 bd 2e 38 14 3c a0 f4 33 bd de 18 b0 3d
       -0.0867916 0.009046597 -0.043934464 0.08598493
0002e0 27 b5 e9 bc 9d 9f c7 ba 4c a5 40 bd 17 f3 1d bd
       -0.028528763 -0.0015230064 -0.04703264 -0.038561907
0002f0 9b 04 ce 3d c5 0e fc bc 26 28 87 bd 0c 33 22 bd
       0.10059472 -0.030768761 -0.065994546 -0.039599463
000300 5c 18 e4 bc 1d 0d c0 bd 08 91 45 3d 65 f4 e4 bd
       -0.027843647 -0.09377501 0.048234016 -0.11179427
000310 3a 48 a8 bc ae 61 01 bc c2 a6 c1 3c 38 36 80 bd
       -0.020542253 -0.007896824 0.023639087 -0.062603414
000320 ae d6 90 3a 12 e1 05 3d f6 10 ab bb d4 72 6e bd
       0.0011050308 0.032685347 -0.0052205278 -0.058214977
000330 3a 44 0b bd f6 da 09 3e 79 20 a7 bd d0 9a 89 3d
       -0.034000613 0.13462433 -0.081604905 0.06718981
000340 14 f9 86 3d 4d c0 3c bb 76 cf 65 3d ab df 06 3e
       0.06590477 -0.0028801144 0.056106053 0.1317126
000350 04 97 fe bc 25 55 88 3d 3d f9 c4 3d 00 47 0b 3d
       -0.03107787 0.06656865 0.09617851 0.034003258
000360 c4 21 79 3d cf 88 f6 3a 9c 74 c4 bd bf 56 1f 3c
       0.060823217 0.0018809083 -0.09592554 0.009725272
000370 a0 51 6f bd 5d a2 19 bd d6 22 4d bd 32 b2 57 3c
       -0.058427453 -0.037508357 -0.05008205 0.013165044
000380 3d d5 3f bc f0 5d 86 bc 66 7f 35 bc bf 58 02 3e
       -0.011708555 -0.016402215 -0.011077737 0.12729166
000390 c9 34 a0 3d 43 1e 37 3d 98 c8 2b bd f2 c6 2c ba
       0.07822568 0.044706594 -0.041939348 -0.00065909245
0003a0 58 11 eb bd c8 42 44 3c 56 4b db 3c b8 94 b6 3d
       -0.114779174 0.0119788125 0.026769321 0.089150846
0003b0 4e 45 d5 bb 4a c3 a3 bd e5 bc 80 bc 17 64 61 3c
       -0.006508506 -0.07996233 -0.015715072 0.013756773
0003c0 90 98 80 bd 2e 28 cb bd 3a f2 fe bb 8b 9e 06 bd
       -0.06279099 -0.09919773 -0.0077803405 -0.032866042
0003d0 9a 93 1a bd 14 c5 99 bc b6 91 c0 bd 92 61 c6 bd
       -0.03773842 -0.018770732 -0.09402792 -0.09686579
0003e0 bd 3d 7c bd 82 95 35 3d da 16 a1 bd 24 e3 47 bc
       -0.061582316 0.044332035 -0.07865687 -0.012200151
0003f0 22 86 b4 3d a8 35 09 3d 10 6c 8d bd b9 2a 01 bd
       0.08814646 0.033498436 -0.06905377 -0.031534884

layers.0.graph_conv.bias f4 [200]
000000 00 c2 f0 bb d9 10 05 bc 27 d9 3e bc 32 2b 9a 3a
       -0.0073473454 -0.008121693 -0.011648453 0.0011762141
000010 f2 5e bd 3a 97 d7 0c 3d 8f 22 50 3c 02 34 f0 3b
       0.0014447852 0.03438529 0.012703552 0.0073304186
000020 10 25 99 38 1e d8 87 bc 18 5d 9f bc d9 95 2b bb
       7.302512e-05 -0.016582545 -0.01945357 -0.0026181845
000030 44 17 03 bc f7 02 b3 bb 49 b7 bb 3c 33 aa e6 bc
       -0.008001152 -0.005463 0.022914546 -0.02815733
000040 94 b3 9f 3c 50 e9 39 bd 02 70 da bc bd 26 69 3b
       0.01949481 -0.04538852 -0.026664738 0.0035576068
000050 9d 3a 9f bc c0 5e 06 3d a6 fd 37 bb e3 d1 15 bd
       -0.019437129 0.032805204 -0.002807477 -0.036577117
000060 1e 4b b1 bc c2 6e 83 bc 73 b3 8e b9 64 82 24 3a
       -0.021642264 -0.016044024 -0.0002721805 0.0006275533
000070 9b c2 c6 3c 7a de b8 bb 75 6d 53 bc cc 76 c0 bc
       0.024262717 -0.0056417556 -0.012904515 -0.023494147
000080 58 6a 01 3d b0 96 04 bd cb 1e 2c 3b e5 89 58 3c
       0.031595558 -0.03237027 0.0026263471 0.01321647
000090 c5 8a 76 bc 2f 00 a9 bc 19 ba 24 bd 3b 90 44 bd
       -0.015047734 -0.02062997 -0.04021654 -0.04798911
0000a0 da a0 08 bd 57 5a d6 ba d7 ba 20 bd ea e9 b2 3a
       -0.033356525 -0.0016353828 -0.039240684 0.0013650034
0000b0 61 67 a2 bc 9d aa a8 bc f6 bf c4 bb e7 2d 9b bc
       -0.019824686 -0.020589167 -0.006004329 -0.018942786
0000c0 43 11 03 bc 8d b8 66 3c 72 e0 9f 3b 64 d1 5f bc
       -0.007999721 0.014082086 0.004879051 -0.013660762
0000d0 74 8b a2 3c c6 41 a6 bc e4 1b 43 bb 2f d7 e0 bc
       0.019841887 -0.020295035 -0.0029771263 -0.027446358
0000e0 7e be ab 3b 3b c0 44 39 49 0f a4 bc 96 2b 54 bb
       0.0052412143 0.00018763628 -0.02002682 -0.0032374612
0000f0 f0 4a bc 3a 91 10 45 3c bc b6 94 3b 98 2d 0a bc
       0.0014365595 0.0120278755 0.004538385 -0.008433722
000100 20 81 25 3c 58 8b c4 bc 8b e0 02 3c c4 96 7c bc
       0.010101587 -0.023992226 0.0079881055 -0.015416805
000110 85 10 46 bc ce c3 bb 3b 29 85 ab bb 5d 97 1d 3c
       -0.0120888995 0.005730129 -0.00523438 0.009618607
000120 0c f1 5b 3b 1b 2f d7 bb e1 d9 b7 bb f7 88 f0 3b
       0.0033560423 -0.0065668947 -0.00561069 0.007340546
000130 45 f2 88 3c ad 86 3d bc 27 07 09 bd 05 0e 0c bc
       0.016717086 -0.011567754 -0.033454087 -0.008548264
000140 6c df 84 bd 92 85 04 bd a5 b1 19 3c 11 29 dc bb
       -0.06487927 -0.032353945 0.009380733 -0.0067187627
000150 33 c6 bd 3b ca 6d 1e bd 8a 05 85 bc 29 74 6b bd
       0.0057914495 -0.03867892 -0.016237993 -0.057483826
000160 8d 44 63 bc 96 10 52 bc 78 31 98 38 0f ed be bc
       -0.013871324 -0.012821337 7.257139e-05 -0.023306398
000170 63 9a 1b 3b 96 0e 15 3a 06 02 ac bc be a9 ad bb
       0.0023743145 0.00056860724 -0.020997059 -0.005299776
000180 63 89 50 bb 18 4c 17 bc 05 6b 21 3b c9 b5 1d bc
       -0.003182017 -0.009234451 0.002463044 -0.0096258605
000190 27 c9 c3 bc ce c4 4b bc be d3 25 3d 69 02 87 3c
       -0.023899628 -0.012437059 0.040485136 0.016480641
0001a0 9e af 03 3d 19 9f e6 3b a1 c4 13 3c d3 28 97 3b
       0.032149903 0.007038009 0.009019048 0.004613021
0001b0 b3 91 8a 3c e4 68 83 bc 16 06 b8 bc 64 51 37 bd
       0.016915178 -0.016041227 -0.02246384 -0.044755355
0001c0 1a 5e 28 bc 66 bd 02 bd 4b 39 15 bc 47 3d bf bb
       -0.010276342 -0.031918906 -0.009107898 -0.0058361623
0001d0 6c cf 23 bc 30 6e e5 bc e0 80 e5 3c 48 c9 e5 bc
       -0.009998184 -0.028006643 0.028015554 -0.02805008
0001e0 3a ce f5 bc b0 ad 2a 3c cf c5 9c bc 57 bc 9d 3b
       -0.030005563 0.010417387 -0.019137291 0.0048137116
0001f0 84 64 8a bb 24 5b b8 ba ce 76 8e bc 4a 2f 28 bc
       -0.004223408 -0.0014065248 -0.017390635 -0.010265181
000200 3c 9f 95 bc cb 27 8d bc 6d 60 22 ba 52 c4 85 bb
       -0.018264405 -0.017230889 -0.0006194178 -0.004082241
000210 f9 85 d0 bb 1b c3 00 bd c6 8f 03 bd ed ec 00 bd
       -0.006363627 -0.031436067 -0.032119535 -0.03147595
000220 5e d8 c0 bb a4 8d 0a 3d 1d 7a a7 bc 6f df fe 3a
       -0.005885168 0.033826485 -0.02044397 0.001944525
000230 4a 4a 02 bd da 91 55 3c 6c 10 da bb 76 77 2b 3c
       -0.03180913 0.013035262 -0.0066547897 0.010465493
000240 31 f1 8a bb 0e 6c 08 3b 31 2c bf bc 82 f6 35 bc
       -0.004240178 0.0020816359 -0.023336502 -0.011106135
000250 4a 75 e9 bc b0 ce ce bb b9 53 25 3d 20 6d 22 bc
       -0.02849831 -0.00631126 0.040363047 -0.009913713
000260 cb 8e 6f bc 6d fb 42 bd d4 e6 bb bb 8e 09 09 bd
       -0.014621447 -0.04760306 -0.005734304 -0.033456378
000270 66 35 93 ba 16 16 f9 3b bf 4b 1e bd 6c 15 38 bc
       -0.0011231124 0.00760151 -0.038646456 -0.011235576
000280 6b 3c 56 bc 27 bd 2c bc 09 a5 d4 bc 66 ca 8d bc
       -0.013075928 -0.010543144 -0.025957601 -0.017308425
000290 cb 80 32 3b b3 42 0b bd 98 70 57 3c 78 1c 8b bc
       0.002723741 -0.033999156 0.013149403 -0.016981348
0002a0 6b 44 bd bc ff 0a de bc 56 d2 76 3c 5c 25 81 bc
       -0.023103913 -0.027104853 0.015064796 -0.015764885
0002b0 3e f2 80 bb 71 c4 03 3c d6 9b a8 bc 14 06 3e bc
       -0.0039351275 0.008042441 -0.02058212 -0.011598129
0002c0 bd 0e c7 bc 17 de 19 3b 47 b7 5e 3b 29 37 1b bd
       -0.02429902 0.0023478323 0.0033983754 -0.0378944
0002d0 be fc 1d 3d 32 2e e8 bc cc a6 82 3a 03 9c d8 3a
       0.03857111 -0.02834234 0.0009967922 0.0016525987
0002e0 85 57 9b 3b 4c 57 a9 bc e6 62 04 bd 78 98 9a 3b
       0.0047406578 -0.02067151 -0.03232088 0.0047178827
0002f0 65 0e 24 bd e5 7a 7a bc f6 b8 bc 3b 1a 17 ac bb
       -0.04005279 -0.015288089 0.0057593537 -0.0052517774
000300 07 ed c3 bc f7 c1 61 ba 88 04 c8 3b 2b c3 a9 bc
       -0.023916734 -0.0008611972 0.006104056 -0.020722946
000310 2d 22 fe bc 64 a6 1c bd 6f 30 fe bb 5c 6f c2 3b
       -0.031022156 -0.03824462 -0.0077572386 0.005933685

layers.1.graph_conv.weight f4 [200, 200]
000000 25 86 8c 3d 6f b4 6d bd 40 ea ac bc 9f 59 45 bb
       0.068615235 -0.058033403 -0.021107793 -0.0030113233
000010 48 69 97 3c 0a 2f 1c 3d 97 d7 c8 bb 99 c1 12 bc
       0.01848282 0.038130797 -0.006129216 -0.00895729
000020 11 a8 2a bc 2a 66 08 bd 89 f7 ce 3d be b2 33 bd
       -0.010416047 -0.033300556 0.10105807 -0.043871634
000030 05 ec 66 bc 22 0b b0 bd 3f 8b 47 bc a5 bd e0 bd
       -0.014094357 -0.085958734 -0.012179195 -0.10973672
000040 99 bd 7e 3d db 5c b2 bc ea d3 d0 38 1e 37 97 3d
       0.062192533 -0.021772793 9.957685e-05 0.0738356
000050 4f 81 69 bd 0c ae bb bc c1 ef ae 3d e3 bb 37 bd
       -0.057008084 -0.02291014 0.08541823 -0.044856917
000060 fe a5 0a bd 06 5d 03 24 c0 bb 3b 3d 36 63 db bc
       -0.03384971 2.848489e-17 0.04583335 -0.026780706
000070 a0 52 ee bc cf 7a c4 ba 09 0a a8 bb e4 cb e0 bc
       -0.029092133 -0.0014990213 -0.0051281494 -0.027440973
000080 76 43 90 3d 1f ca fa 3b e4 4f 85 3d 4a 8c 92 bd
       0.07044117 0.0076534892 0.065093786 -0.07155664
000090 81 4f 4a 3d 1c 11 68 bd ae 53 2a 38 c8 f0 53 3c
       0.049392227 -0.05665694 4.060909e-05 0.012935825
0000a0 9e 9c 80 bd bd c2 91 bd 56 52 5a bd e3 40 6c bd
       -0.06279872 -0.071172215 -0.053301178 -0.05767907
0000b0 00 50 f9 bc 43 13 0b 3d d1 07 96 3c 78 17 8d 3c
       -0.030433655 0.033953916 0.018314274 0.017223105
0000c0 aa 76 9d 3b 05 84 85 bd 17 f5 78 3c 0f d1 ab bd
       0.0048054056 -0.06519321 0.015195153 -0.08389484
0000d0 54 a7 27 3d bd c1 e4 3c e9 72 53 bc 06 7b 28 bd
       0.04093106 0.027924413 -0.012905815 -0.04113295
0000e0 c5 aa 93 3d 6c 55 2e 3c 74 c9 16 3d 1d 5b 85 3d
       0.07210306 0.010640483 0.036813214 0.06511519
0000f0 de 21 c4 bd 13 0f 85 ba 6a 75 3d bc 6a cb 79 3c
       -0.09576772 -0.0010151587 -0.011563638 0.015246252
000100 73 76 db 3d 6a ad a4 3b fe 07 b8 bd 9a 80 24 bd
       0.10715952 0.0050255554 -0.089858994 -0.040161707
000110 88 63 29 3d b6 06 7e bb 93 d3 20 bd db 5e 16 3c
       0.041354686 -0.0038761324 -0.039264273 0.009177889
000120 ae 8d 8d 3d f9 3d b8 bc e5 fc 8a 3c 09 f6 1c bd
       0.06911789 -0.022490488 0.016966293 -0.038320575
000130 c3 f8 67 b9 66 d6 a0 bd 05 7f 99 bd 18 38 a2 bd
       -0.00022122548 -0.07853393 -0.0749493 -0.07920855
000140 ec 99 86 bd 49 1d e1 bd d9 09 ae bc ca 3f da bd
       -0.06572327 -0.10991914 -0.02124493 -0.10656698
000150 fa 78 9f ae f5 75 21 bd e7 0b 61 3d 02 82 31 bd
       -7.2519726e-11 -0.039419133 0.05494299 -0.043336876
000160 31 75 47 bd f0 4b 4a bd f9 c8 cb 3d 73 ea 85 bb
       -0.048695747 -0.049388826 0.09950442 -0.0040867864
000170 98 26 2a bd 5b c1 b3 bd ab 3c 94 3d 1b b4 15 bc
       -0.041540712 -0.08777114 0.07238134 -0.009137179
000180 ec e4 9f 3d 0a 95 93 bd 44 32 5e bd a8 a8 0d bd
       0.07807335 -0.07206161 -0.054247156 -0.03458467
000190 65 0a 01 bb d9 ec 5c bd 8d f0 91 bd 42 c0 3c bd
       -0.0019690034 -0.053936813 -0.071259595 -0.04608179
0001a0 61 97 0e bc 5d fc 69 bd f7 0e 71 3d 54 86 80 3c
       -0.008703084 -0.057125438 0.058852162 0.015689053
0001b0 a6 f7 f9 bc d3 ee 89 3c 5b 93 27 3d fa f3 ef 3b
       -0.030513596 0.016837513 0.040912014 0.0073227854
0001c0 e8 bc 3a bc 4f b7 f7 bc 0b 38 04 3a 50 fc 9e b7
       -0.011397578 -0.030238776 0.00050437514 -1.895256e-05
0001d0 4c 3e 6f 3c 52 da fb bb 87 ba 64 3c 31 03 b8 bd
       0.014602255 -0.007685938 0.013960487 -0.08984984
0001e0 97 4c 7a 3d f4 12 52 3d b1 e6 94 3d b1 8d 93 bd
       0.061108198 0.051287606 0.072705634 -0.0720476
0001f0 f5 69 6c bd 17 f6 6b bb b4 49 ef 3c ef 9a 46 bd
       -0.057718236 -0.0036004835 0.02920995 -0.0484876
000200 0c 8c cb bd df 2f 88 bc 09 3b 77 bd 6a 40 95 3c
       -0.09938821 -0.01662439 -0.060359035 0.018219192
000210 b6 08 db 3d b6 2a 66 bd b5 f7 94 bd c5 74 04 3c
       0.10695021 -0.056193076 -0.07273809 0.008084481
000220 c9 64 ca 3d 81 af 82 3d 8b 39 bf bc e6 7a cb bc
       0.098825045 0.06381131 -0.023342868 -0.024838876
000230 1f 04 26 3d f9 cd c2 b7 b0 92 42 3d 62 bb 77 bc
       0.040531274 -2.3222516e-05 0.047503173 -0.015120359
000240 1b f4 cf 3c d2 40 7d bd 14 94 a5 bd 23 50 42 bc
       0.025384953 -0.061829396 -0.08084884 -0.011859926
000250 d4 b7 75 bc e3 b1 f2 bc bc 29 c7 bd 58 12 0b 3e
       -0.014997441 -0.029625839 -0.09724757 0.13581216
000260 fe ba a4 3d e7 e9 29 3d 69 29 d6 3c ce 54 85 3d
       0.080434784 0.041482832 0.026142793 0.06510316
000270 d2 b2 9f bc 00 fa 51 3d b6 61 16 bd b4 30 22 bc
       -0.019494448 0.05126381 -0.03671428 -0.009899307
000280 cb c2 f6 3c 3c 09 16 bd 0a ec 4e bd dc 90 d5 bb
       0.030122181 -0.0366299 -0.050518073 -0.0065175127
000290 52 c1 e5 bb 65 a7 55 bc ea f4 6d 3d 35 19 d5 bd
       -0.007011571 -0.013040398 0.058094896 -0.104051985
0002a0 a7 2e 94 bc 24 41 98 bc 88 14 1d bd f9 4b 32 bb
       -0.018088652 -0.018585749 -0.03834966 -0.0027205928
0002b0 45 9f a8 3d a1 89 62 b6 90 64 32 3b b7 f0 67 bd
       0.08233503 -3.3756735e-06 0.0027220584 -0.056626048
0002c0 29 8c e8 bd a2 d9 bc bd f0 73 10 3d 43 32 b5 bd
       -0.113548584 -0.09221198 0.035266817 -0.08847477
0002d0 fe 64 03 3c 8c cd 48 3c f3 5f 43 bd 53 6e 93 bc
       0.008019684 0.012256037 -0.047698926 -0.017996943
0002e0 b2 fd fb 3b 2a 10 73 3d 4c ab 4f 3a 7f 3f a2 bb
       0.007690155 0.059341587 0.00079219486 -0.004951417
0002f0 90 d1 43 3d d2 dc ff 3c ff e1 0e 3a 59 5a 66 bd
       0.047807276 0.031233225 0.0005450546 -0.056238506
000300 55 d2 9f 3d f7 a1 78 3d 00 19 25 bb f0 47 e3 bd
       0.078037895 0.060701337 -0.0025191903 -0.11097705
000310 49 aa 03 3e 73 d4 fa 3c d6 71 f0 bc d5 a7 42 3d
       0.12857927 0.030618882 -0.029351156 0.04752334
000320 22 1f fb bc 64 90 6d 3b a2 13 6f bc 71 89 1d bc
       -0.030654494 0.0036249394 -0.014592083 -0.009615288
000330 b9 cc 0c bd 0a 59 7f 3c 4d 99 d5 3a 8a 6c 50 3d
       -0.034374926 0.015585193 0.0016296298 0.05088476
000340 3d 1e c6 bd 25 eb c2 bc d8 79 7e bd 96 18 1b be
       -0.09673736 -0.023793766 -0.062127918 -0.15146098
000350 47 8c b4 bc c4 f8 4c bc 53 0a 01 bc bd e8 62 3d
       -0.022039546 -0.012510482 -0.007875997 0.055397738
000360 f4 99 d1 bd 2b de 59 3c 64 43 a1 bc 9a 52 82 bd
       -0.10234442 0.013297598 -0.019685455 -0.06363411
000370 5c 09 3a 3d 9c 40 0e 3d 60 0c 4e 3d 0c 88 c0 bd
       0.045419082 0.034729585 0.05030477 -0.09400949
000380 b3 f2 94 bd 8f 93 97 23 7e db 0c bc fa 97 ac bb
       -0.07272854 1.6433946e-17 -0.008597253 -0.0052671405
000390 f3 3b 71 bd 8a 9d d2 bb 6b 23 52 bc 2d a4 97 bd
       -0.058895063 -0.0064274715 -0.012825827 -0.07404361
0003a0 b9 68 72 bd f6 a7 eb bb b1 34 9b bd e6 5d d2 3d
       -0.059181903 -0.0071916534 -0.075784095 0.10271816
0003b0 58 fa 00 be f2 72 e3 bd 48 44 d7 38 4f 93 dd bc
       -0.12595499 -0.111059085 0.00010264717 -0.027047781
0003c0 b1 58 92 bd 99 03 a9 bd 53 df ac 3d 34 e8 5f 3d
       -0.07145823 -0.08252639 0.08441033 0.054664806
0003d0 27 ec 58 3d e7 b3 4d 3d 35 71 9f 3d 2a 7a 74 bd
       0.052959587 0.050220396 0.077852644 -0.059686817
0003e0 78 1d d9 3b 7d 14 33 3d 7e 15 b1 bd be a9 e6 bb
       0.0066258274 0.04372071 -0.086466774 -0.007039278
0003f0 5c e7 c9 bd 64 11 08 3d 21 c9 a9 3c fc 84 38 bd
       -0.098585814 0.03321971 0.020725789 -0.0450487

layers.1.graph_conv.bias f4 [200]
000000 19 c9 6e 3b 56 b8 2d bc 93 1a fb bc b3 db 37 bc
       0.0036435782 -0.010603031 -0.03065232 -0.011221814
000010 7c ff a0 3b a4 d9 f9 b9 c9 cb 48 bd e1 1d ce bb
       0.0049132686 -0.00047655136 -0.04902247 -0.006290183
000020 31 ac 38 3c d5 24 90 bc 02 bb b5 bc fb d5 46 bc
       0.011271522 -0.017595688 -0.022183899 -0.012135978
000030 f6 37 e7 bb 18 f9 34 bc 82 b5 9e bc 57 bd 0e 3b
       -0.0070562316 -0.011045717 -0.019373659 0.0021780336
000040 cc 3c 5b bb 5f 52 58 bd 1a 21 0b bd ee 52 bb bc
       -0.0033452986 -0.05281293 -0.033967115 -0.022866692
000050 f7 33 64 bc 04 1d 0f bd 35 60 f0 bb 57 4d 87 bc
       -0.013928405 -0.03493978 -0.0073356875 -0.01651637
000060 eb 97 4b bc bb 3d 42 ba 67 97 ec 38 9b fd f5 bb
       -0.012426357 -0.0007409711 0.00011281558 -0.007507039
000070 eb 8d e5 38 72 b3 cc bc 30 bf 84 bc f9 e7 a5 3b
       0.00010946005 -0.02498791 -0.016204447 0.0050630537
000080 b2 3b 19 bd 15 de 3c bd c6 c8 09 bc d2 d5 0d bb
       -0.037410446 -0.04611023 -0.0084096845 -0.002164234
000090 dc 4c c8 bc 2b 37 35 3a 85 01 ee bc cc 01 6f 3b
       -0.024450712 0.0006912823 -0.029053459 0.0036469577
0000a0 de 63 c4 bb 38 e9 0c bc ed 8a dd 3c 64 cc a5 bb
       -0.0059933504 -0.008600526 0.027043784 -0.0050597657
0000b0 b8 4c 8f bc af 9f b3 bc 37 b3 02 3d 2e 31 06 bc
       -0.017492637 -0.021926729 0.031909194 -0.008190436
0000c0 8a 04 86 3b 58 77 8b bc 49 20 2b bc 1c bd 97 bc
       0.0040898966 -0.017024681 -0.010444709 -0.018522792
0000d0 f3 36 3b bd 72 f4 bf bc 59 19 cb 3c 15 09 55 bc
       -0.0457067 -0.02343199 0.02479236 -0.013002654
0000e0 ee 5d 6e 3c f6 6c 19 bc 74 0b 3f bc 03 09 83 bc
       0.014548762 -0.009364357 -0.0116604455 -0.015995508
0000f0 4f 54 82 3c 3f 6a 39 3b 55 74 2d 3d c1 6b e7 bc
       0.015909342 0.0028292087 0.04234727 -0.028249623
000100 b9 39 c5 bb 50 02 19 bd 38 9f 08 3d 46 fb cd bb
       -0.006018844 -0.03735572 0.033354968 -0.0062860576
000110 39 40 9a bc be 80 4f 3c 87 d7 33 bd 99 9b f8 3b
       -0.018829452 0.012664972 -0.043906715 0.007586908
000120 03 79 b6 bc 67 05 dc bc e9 2d b5 bc c7 b7 87 bb
       -0.0222745 -0.026858045 -0.022116618 -0.004141781
000130 39 1b a3 bc 75 59 15 bc 31 53 01 bc 8d ef 96 3c
       -0.019910442 -0.0091155665 -0.0078933695 0.018424774
000140 07 ae c4 bb a6 54 92 3c 8b f1 18 bc d0 da 1f bc
       -0.006002191 0.01786263 -0.009334932 -0.009756759
000150 57 8f 50 bc 31 5d 28 bd 7d f9 50 bc 17 23 c7 3c
       -0.012729487 -0.0411045 -0.012754795 0.024308724
000160 ed ab d5 ba bc b6 7e 3c f9 12 c7 bc 8a 33 83 bc
       -0.0016301848 0.015546497 -0.024301039 -0.016015787
000170 55 ad c3 bb 8e bf d4 bc 7b 5b aa bc 3e 97 bd bc
       -0.0059715905 -0.025970247 -0.020795574 -0.023143407
000180 b0 a9 1b bc fd ae 00 bd 76 b7 0c ba 68 40 c5 bc
       -0.009500906 -0.03141688 -0.0005367914 -0.024078563
000190 3a 4e b1 bb ba aa 4b bd f6 9d 90 37 47 fe cc bc
       -0.0054109367 -0.049723364 1.7239694e-05 -0.025023593
0001a0 c4 7b 40 bc 43 03 4e bc 90 fb 04 bd 4a 85 12 bd
       -0.011748258 -0.01257402 -0.03246647 -0.035771646
0001b0 e2 4c d2 ba 64 81 2b bb 02 51 65 bc 7b 7f 59 bc
       -0.0016044641 -0.0026169652 -0.013996365 -0.013275023
0001c0 27 d7 09 bd ec 28 c8 bc c3 b6 ca bc 44 6f f4 bc
       -0.03365245 -0.024433576 -0.02474535 -0.029838212
0001d0 5c 80 55 bb 5a 56 09 bc 4c 7c a9 bb a7 89 e9 3c
       -0.003257773 -0.008382404 -0.005172288 0.02850802
0001e0 7c d7 e6 39 b1 68 44 bd 00 6d 74 bb 4b 79 fe bb
       0.00044029567 -0.047951404 -0.0037296414 -0.007765924
0001f0 40 8b 69 bd 23 f2 b2 bc 29 ed 5b 3c 15 e4 b8 3c
       -0.057017565 -0.021843975 0.013423243 0.022569695
000200 30 ba 80 bc 63 4b b4 bc 7a dd 21 3d 6b bf 78 bc
       -0.015713781 -0.022008603 0.039517857 -0.015182356
000210 09 82 47 3c d3 a5 78 bc 5e 68 d0 3c 0c 53 a9 bc
       0.012176999 -0.015176254 0.025440391 -0.020669483
000220 ef 8c b2 bc 29 fc eb bc 8a 07 17 bd bf 8b bc bc
       -0.021795718 -0.028806763 -0.036872424 -0.023015855
000230 a3 69 ab bb 0e 2f 90 bc 74 4a 54 bb 7a f2 9c bc
       -0.0052310987 -0.017600562 -0.003239301 -0.01915859
000240 c8 f5 24 bc e4 0c 26 3d fc b2 a4 3b 60 25 21 bd
       -0.010068364 0.040539637 0.0050262194 -0.039342284
000250 55 d1 b2 bc 88 9d 23 bc 90 d1 05 bd d4 81 b5 bc
       -0.021828333 -0.009986289 -0.032670557 -0.022156633
000260 6e eb 5e bc ac d3 9d bb 95 c5 bd b9 d2 f2 36 bb
       -0.0136059355 -0.004816493 -0.000361961 -0.0027915728
000270 91 ec d1 bc 75 ed c9 bb f2 cc 35 3d 74 ab 62 bc
       -0.025625499 -0.0061623403 0.044384904 -0.013834823
000280 db 4a 7e bd 63 aa 99 bb da e7 02 bd ea 08 ab 3c
       -0.062083106 -0.004689501 -0.031959392 0.020878274
000290 af ea 11 3c 41 32 48 bc 53 da 92 bc cf 2d 3c bc
       0.008906051 -0.012219013 -0.01792637 -0.011485531
0002a0 48 e6 32 bd cd 6f 85 bc c6 ed 09 bd a2 f9 ea bc
       -0.043676645 -0.016288662 -0.033674024 -0.028683487
0002b0 2f d0 e0 bc 60 0f 97 bc 26 be d5 bc c4 a8 39 bb
       -0.02744302 -0.018439949 -0.026091646 -0.0028329352
0002c0 7a 54 54 bc 2f fc e7 bb 1c 28 76 bc 14 87 5e 3c
       -0.012959594 -0.007079623 -0.015024211 0.01358201
0002d0 13 44 6d bc bb d2 9b 3c 7c 89 c7 3c 31 45 96 3a
       -0.014481562 0.019021383 0.02435755 0.0011464712
0002e0 37 7e 81 bc 39 4a 82 bc 8b 90 20 3b a6 ea 02 3d
       -0.015807254 -0.015904533 0.0024500217 0.03196206
0002f0 f4 8b 6a bc f6 8c 26 bc ab d4 81 bc 07 e2 94 bc
       -0.014315594 -0.010165444 -0.015848478 -0.018174184
000300 9e 8f e3 3b b9 90 16 3d d3 aa ab bb 7b 66 49 bb
       0.0069446107 0.036759112 -0.0052388697 -0.003073125
000310 3a 81 2d bd 7f 0d dc bc 0f cb 14 3d a3 c5 65 ba
       -0.04235957 -0.026861904 0.036326464 -0.0008765107

pool1.graph_pool.gnn.lin_l.weight f4 [1, 200]
000000 43 4b f1 ba 81 13 da 3c 18 91 80 bc 77 05 19 bd
       -0.001840927 0.026620628 -0.015694186 -0.037358727
000010 93 b0 84 3d a7 a8 a3 3c 83 34 8a 3c 74 4f a7 3c
       0.06478991 0.01997788 0.016870743 0.020423628
000020 f7 52 a4 3d 5e 66 41 bd 00 e3 f8 bc 9f ca 97 bc
       0.08023637 -0.047216766 -0.03038168 -0.018529234
000030 2c c5 33 3d 09 ff 58 3d 84 e1 3e bd 75 64 8e 3d
       0.04388921 0.052977595 -0.046601787 0.069527544
000040 44 02 34 3d 3a f6 c6 bc 12 0b ae ba a9 d9 5e bd
       0.043947473 -0.024287332 -0.0013278446 -0.054406796
000050 c0 10 ca 3c ae 6b 3c bd 19 43 2a bd 10 f0 92 bc
       0.02466619 -0.04600113 -0.041567896 -0.017936736
000060 ab 8f 36 bd 17 00 c2 29 ca 1e 04 bc db 7e c6 3c
       -0.044570606 8.615346e-14 -0.008063981 0.024230411
000070 69 f2 b4 bc 6a 33 c2 bb 7a b3 f6 ba 65 4c 6a bc
       -0.022088246 -0.005926539 -0.0018821799 -0.01430044
000080 c4 09 fc bb 66 6b c4 3d 7a 6e 06 bc 82 f7 8b 3c
       -0.007691594 0.09590797 -0.008205051 0.017085794
000090 d6 a8 8c 3d f0 c9 7e 3d bc a8 96 3b 8b 9d 9c bc
       0.068681404 0.0622043 0.0045977514 -0.019118091
0000a0 18 8c d6 3c c1 b7 15 3b 60 52 35 3d 0e f8 1b 3d
       0.026189849 0.0022845122 0.044268012 0.03807836
0000b0 71 d2 d8 bc fd 5f f0 bb 11 e4 88 3d c5 c9 4a bb
       -0.026467534 -0.0073356614 0.06684125 -0.0030943018
0000c0 80 d2 b0 3c cb 3e 87 ba ae 48 5c bc 2c 29 13 3e
       0.02158475 -0.0010318396 -0.013445063 0.14371175
0000d0 b2 d9 d7 3c c3 ee 7c bc 26 a0 d6 3d 20 1b 47 bd
       0.026348922 -0.015437785 0.10479765 -0.048609853
0000e0 77 d8 5d 3d d3 c3 36 3d cc 76 8c 3c 92 34 9f 3c
       0.054161515 0.044620346 0.01714649 0.019434247
0000f0 4c aa fa 3c a7 82 5c 3d 54 a2 8f 3d 11 f1 55 bd
       0.030598782 0.053835537 0.070133835 -0.052231852
000100 a0 24 ed 3c 99 f3 33 bd 2f f7 ad 3d 05 9f 02 bb
       0.028948128 -0.043933485 0.08494412 -0.0019931209
000110 c6 69 81 bd cc 6d e7 3c 1d 7b 64 bb 4b 60 33 3d
       -0.06319003 0.028250597 -0.003486342 0.043793004
000120 f9 e1 61 3a 10 40 08 bd 76 95 65 bb f2 c0 17 3d
       0.00086167414 -0.03326422 -0.0035031713 0.03704924
000130 79 43 f1 3b 13 2b c2 3d b5 a6 81 3d e2 48 a9 bc
       0.0073627797 0.09480872 0.06330625 -0.020664636
000140 f9 02 4c 3d ba ae 0d 3d 57 95 af 3d d9 25 24 3d
       0.049807522 0.03459046 0.08573406 0.040075157
000150 14 6f fb 3a cd 64 1e bd 44 5c b3 bc 38 c3 a5 3d
       0.0019182884 -0.03867035 -0.021894582 0.08093876
000160 a1 a3 c3 3c 31 45 b3 3d 92 72 5f bc 10 90 37 3c
       0.023881735 0.087534316 -0.013638156 0.011203781
000170 e0 27 48 3d 22 d8 9f 3c 5e e9 1b bd fc 03 29 bc
       0.048866153 0.01951224 -0.038064353 -0.010315891
000180 d7 71 0a bc 2b 44 a0 3d 7b b6 ac 3c 82 44 85 bc
       -0.008449993 0.07825502 0.021083107 -0.016268019
000190 70 21 2d 3d 4a f9 52 3d ea 4c a8 3d 4d 3f ae 3c
       0.042268217 0.05150727 0.08217795 0.021270419
0001a0 d7 c4 c7 bc 58 dd 81 3d 43 17 00 bc 4e 21 8b bc
       -0.024385853 0.06341046 -0.007818046 -0.016983654
0001b0 54 1a cb 3d a3 40 70 3c 85 1f bb 3b 83 a0 64 bc
       0.09917131 0.014663848 0.0057105445 -0.013954285
0001c0 66 67 c4 bc f1 b3 94 bc 3a 48 dd bb 7b 7d a7 bc
       -0.023975085 -0.018152209 -0.006752995 -0.020445576
0001d0 b1 90 f5 3b 35 55 25 bd 81 44 d1 3c e9 3c 8f 3d
       0.007494055 -0.040364463 0.02554536 0.069940396
0001e0 b8 47 d6 3c dd a2 83 3d c0 35 00 bd d7 0c 6f bd
       0.026157245 0.06427548 -0.03130126 -0.058361854
0001f0 83 57 16 bc ce ac b2 bc 80 d4 5b 3d 70 d4 9e 3d
       -0.009176138 -0.021810915 0.053669453 0.07755363
000200 a3 0b 1a 3d b3 07 a6 bb 1c 7b 97 3d ee c8 d6 bb
       0.037608754 -0.005066836 0.07396528 -0.0065547144
000210 e0 f8 a6 3c c3 24 02 bc ae e2 bb 3d 63 cc 20 ba
       0.020382345 -0.007943335 0.09174095 -0.00061339716
000220 cf b0 f2 ba 67 59 05 3c aa 41 09 bd 82 98 8b 3c
       -0.0018515828 0.008138991 -0.033509888 0.017040495
000230 70 67 0d bd 4f a8 a0 bc 0e 3b 1a 3b cf e2 c2 3c
       -0.034522474 -0.019611506 0.0023533734 0.023789791
000240 85 f1 ac bc 72 cc a2 3d 33 29 fd 3d a8 7d 9a 3d
       -0.02111126 0.07949151 0.12361374 0.07543498
000250 fa 03 e0 3c 8d 4a 03 3d a0 d5 89 bd 23 05 ce bc
       0.027345646 0.03205352 -0.06730199 -0.025148934
000260 3b 65 e4 3c d4 be fe bc d0 7d 87 3b 2e 4f d3 bc
       0.027880302 -0.031096853 0.004134871 -0.025794592
000270 08 85 0c bd 09 19 64 3c 35 40 4c 3d 01 ad 64 3c
       -0.034306556 0.0139219845 0.04986592 0.013957263
000280 8b 03 07 bc 00 45 ae 3d e9 63 3b bd be 7c 57 3d
       -0.008240591 0.085092545 -0.04574958 0.052609198
000290 11 00 1e 3d 7b cf 52 bd 65 dc 6e bd e1 53 71 3d
       0.038574282 -0.0514674 -0.058315653 0.058917884
0002a0 25 d2 c8 bb 30 58 06 bd f6 e8 25 bd 20 7e da bc
       -0.006128567 -0.032798946 -0.040505372 -0.02667147
0002b0 f1 4b 02 ba da 21 b8 bc c4 ba ca 3c 60 62 97 3d
       -0.00049704226 -0.02247708 0.02474726 0.073918104
0002c0 05 71 d1 3d 37 c3 8d 3d 26 f3 16 bd 44 2e 55 3c
       0.10226635 0.06922 -0.03685298 0.013011519
0002d0 be cc 26 3d 75 27 43 3d 79 51 b7 3d 84 99 f2 3c
       0.0407226 0.04764505 0.089510866 0.029614218
0002e0 bf 1f d9 3c e4 f1 e3 3c a1 96 ba 3a b7 7c 7f 3d
       0.026504396 0.027825303 0.0014235565 0.062374797
0002f0 af 1c 0b 3d e4 9c e0 bb 4a 21 95 bc f0 a7 bd 3d
       0.0339629 -0.0068546403 -0.01820435 0.09260547
000300 bc 7c 9c 3d 52 c2 45 3d 70 66 df 3c c3 23 9a 3d
       0.07640979 0.04828102 0.027270526 0.07526352
000310 bc 18 10 bd 3d 54 8f 3d 7d 41 96 3d 03 73 cb bc
       -0.03517984 0.06998489 0.0733671 -0.024835115

pool1.graph_pool.gnn.lin_r.weight f4 [1, 200]
000000 88 a5 8e bc 7b 09 13 3d 64 4e 94 bb b0 a9 90 3a
       -0.017412916 0.035897713 -0.0045259465 0.0011036899
000010 0f d7 f1 3c 81 24 af 3d 92 4d 10 3d a3 81 48 ba
       0.029521493 0.085518844 0.035230227 -0.0007648712
000020 c4 3e 78 3d be 35 cd 3b c0 30 54 3d 39 a1 22 bd
       0.060606733 0.00626251 0.051804304 -0.039704535
000030 6e 46 a1 3c c8 24 8c bc 15 63 dc bb 4c 7e a1 3d
       0.019686904 -0.017107382 -0.0067256787 0.07885417
000040 54 50 d7 3c 1f 2d 3d 3d 53 88 c2 3b 91 af c5 3c
       0.02628342 0.04618561 0.0059366613 0.024131568
000050 33 eb 0d bc f0 bb 1a bd 98 01 e0 bc b8 b1 a3 bc
       -0.008662033 -0.037776887 -0.02734451 -0.019982204
000060 e7 91 f4 bc 5c e6 89 1e 72 46 08 3d 0d 46 28 3d
       -0.029854728 1.4600714e-20 0.033270307 0.04108243
000070 1b 41 be 3d 69 8c d1 bb 84 a9 2e b9 d6 aa 1e 3c
       0.09289762 -0.006394912 -0.00016657083 0.009684285
000080 d5 84 e2 bc df ad 0b 3e 49 f8 43 bd 62 55 19 3d
       -0.02765123 0.13640545 -0.047844205 0.037434943
000090 21 0b f7 b9 5a 42 f7 3c b8 79 a8 bc c5 9a ce bd
       -0.00047119803 0.030183006 -0.020565853 -0.10088114
0000a0 9d 10 a4 3d f3 b9 8c bd 6a e9 0c 3e e2 ed b1 bd
       0.08010981 -0.068714045 0.13760915 -0.08687951
0000b0 63 85 4a 3c ae b8 72 bd 37 b4 c6 3d 15 21 a2 bd
       0.012360903 -0.059258156 0.09702342 -0.07916466
0000c0 d8 c6 dd bb 9a d7 9d bb 4c 1a 73 bd c2 00 14 3e
       -0.006768089 -0.0048169615 -0.05935125 0.14453414
0000d0 c0 7d f2 3c 83 23 b0 bc da fc 84 3d 3b 41 5e bd
       0.029600978 -0.021501308 0.0649354 -0.054261427
0000e0 ea 6a a6 3d b0 8a 17 3c 59 d0 c2 3c f5 e8 56 bc
       0.08125861 0.009249374 0.023780989 -0.013117065
0000f0 24 e5 40 3d c3 ff c4 bc 6f c8 8f bc b2 60 d4 bc
       0.047093526 -0.024047738 -0.017551629 -0.025925014
000100 c8 c7 8d bc 5d 26 86 bd cd f3 64 3d 4e 28 9d 3d
       -0.017307177 -0.06550286 0.05589657 0.07673703
000110 73 de b3 ba f6 31 9a 3c 71 40 70 bd ba a2 59 3c
       -0.0013722911 0.018822651 -0.058655206 0.013283426
000120 cc 36 d2 3c 93 16 77 bd 48 d0 c7 ba bf 75 7b bc
       0.025660895 -0.060324263 -0.0015244568 -0.015347897
000130 5d 5e 22 3c 93 21 19 bd a5 f4 0e 3d 4b b9 c1 3c
       0.009910193 -0.037385534 0.03490128 0.023647925
000140 f1 d6 91 bd 52 a7 47 3d 15 74 86 3d 7e f4 cf 3c
       -0.07121075 0.048743553 0.0656511 0.025385138
000150 39 af 56 36 da 59 06 bd a8 10 92 bd 4c 61 04 bc
       3.1990478e-06 -0.032800533 -0.07132083 -0.008079838
000160 6e 7b 4a bd a9 f7 61 bd b5 62 15 bc 06 15 bd bb
       -0.049434118 -0.055167828 -0.009117772 -0.0057703285
000170 c3 25 bf 3d 2c 90 29 3d 09 4c f1 3c e2 d8 f3 3b
       0.09333374 0.04139726 0.029455202 0.007441626
000180 3e be 51 bd 3d e2 9d 3d 3e 17 83 bd 84 f9 18 3e
       -0.05120682 0.07709167 -0.064009175 0.14938933
000190 1a 4e 80 bd b8 34 12 3e 32 10 12 3e dd de 05 3d
       -0.06264897 0.14277923 0.1426399 0.032683242
0001a0 10 2e 6a bd df e8 82 3d 90 82 24 bc 63 ad 90 bd
       -0.057172835 0.06392073 -0.010040894 -0.07064321
0001b0 79 fd b1 3d 23 e4 41 bc 87 0e 18 bc e1 3f 62 3b
       0.08690924 -0.011834177 -0.009280807 0.0034522938
0001c0 7c c5 01 3b 76 62 88 bd e7 6e 32 bc f3 c6 73 bd
       0.0019801548 -0.06659405 -0.010890699 -0.059515905
0001d0 3a 11 fa bd 90 48 c2 bd 16 22 1c bd c4 b0 c2 bc
       -0.12210317 -0.094864964 -0.038118444 -0.023765929
0001e0 44 2d c0 bd 51 fc de 3c 1d 6f ba bd fb c0 c1 bc
       -0.09383634 0.027219923 -0.091032244 -0.02365159
0001f0 80 f0 31 bc 9f bc 39 bb a4 7d d2 bc 79 cc 8d 3d
       -0.010860562 -0.0028341187 -0.025694676 0.06923766
000200 c0 bb cb 3d 67 65 3d 3b 75 88 fd 3c 6e 7f cd bd
       0.0994792 0.0028899552 0.030948857 -0.10034071
000210 a4 02 da bd 7c df a0 bd c8 2d 36 3d 6f a4 b6 bb
       -0.10645035 -0.07855126 0.044477254 -0.005573801
000220 46 6a a0 bc e8 46 e7 3b 89 27 17 bd e1 d5 15 bd
       -0.019581925 0.007058013 -0.036902938 -0.036580924
000230 7c 6d e9 bc 5d ec a5 3a 67 5c 40 bd 18 32 b4 bd
       -0.028494589 0.0012658943 -0.04696312 -0.08798617
000240 99 ad b5 bd 68 ce 8c bd 9d 05 1d 3e 79 f8 5e 3d
       -0.08871002 -0.06875306 0.15334173 0.05443618
000250 8b 0d 61 bc f7 4d 0e bd 2f f6 cd 3c fb 36 26 bd
       -0.013736139 -0.03474232 0.025141804 -0.040579777
000260 a2 00 99 bb 0e d0 f4 bd e7 6b 97 3d 0f b1 aa bd
       -0.004669265 -0.11953746 0.073936276 -0.083345525
000270 26 dc 14 3d 14 d9 1e 3e 85 98 83 3c d5 ea 1a bd
       0.036342762 0.15512496 0.016063938 -0.03782161
000280 d5 5a 4f 3c 73 80 bf 3d e4 13 de bc 32 d8 07 3c
       0.012655933 0.093506716 -0.027109094 0.008291291
000290 ea e9 df 3c be 61 5d 3c 5e 35 a3 bd 6a a5 17 3e
       0.027333219 0.013512073 -0.07969163 0.14809194
0002a0 bf c5 dc 3d ec 4c 41 3d e3 62 8a bd 22 9e b3 3c
       0.107799046 0.0471925 -0.067571424 0.02192599
0002b0 9b 0b 47 bd 56 ad 52 39 3c 1c 3d bd ee 84 97 3d
       -0.048595052 0.00020091733 -0.046169505 0.07398401
0002c0 68 de 86 3d 88 89 96 bc cd 7a 25 3d 96 fc e1 3d
       0.065853894 -0.018376127 0.040400315 0.11034505
0002d0 7b 2f 82 3c a2 2b f9 bd 51 fd 79 3d 4b a1 9b bd
       0.015891781 -0.121665254 0.061032597 -0.075991236
0002e0 5d e4 89 3c 15 6e b3 bb 11 68 1a 3d 1a 63 83 3d
       0.016832525 -0.0054757693 0.0376969 0.064153865
0002f0 fb ed e8 bb d1 c4 1f 3d 5b 1e 9d 3b 2f 33 09 3e
       -0.0071084476 0.039006058 0.0047948784 0.13398431
000300 e8 40 a5 3d 33 87 51 bd b8 e7 09 bc 02 28 ef 3d
       0.080690205 -0.051154327 -0.008417062 0.11677553
000310 05 28 ef 3b 7b 34 c6 3d 61 ae d7 3b b6 9f 88 bc
       0.007298472 0.096779786 0.006582067 -0.016677719

fc.weight f4 [2, 200]
000000 1f 58 bf bb ca 4c 6a bc 8f ae 01 bc 85 0f b1 3b
       -0.0058393623 -0.0143005345 -0.007915153 0.0054034614
000010 be 73 37 3c fe 47 7d 3d ac 6c 34 bb a8 63 3b 3c
       0.011197029 0.061836235 -0.0027530594 0.011437334
000020 ad d0 80 3d 27 89 ac 3c fc ed 1d bd d2 d0 d7 bd
       0.06289802 0.021061493 -0.038557038 -0.10537876
000030 aa 07 7b 3c 88 0b 41 bd c3 05 08 bd 13 d5 77 3d
       0.0153216515 -0.047130138 -0.03320862 0.060505938
000040 ff 7e bb bc a6 ab 99 bd 6a 7f ca 3c 7f 55 57 bd
       -0.022887705 -0.075034425 0.024718959 -0.05257177
000050 ea 39 ed 3c 25 8e f2 bd f2 5e ec 3c 29 94 49 bc
       0.02895828 -0.11843518 0.028853867 -0.012303391
000060 01 77 b9 bb b4 70 f5 3c 00 24 ea 3c 9a 7d 92 3d
       -0.0056599383 0.029960968 0.02858162 0.07152863
000070 c8 e1 87 3d 31 0d f7 3c 5a 1e 02 bd 9b 30 79 3d
       0.06634861 0.030157657 -0.031767227 0.06083737
000080 e6 1f 6e bd 04 1e 24 bc e5 9c e9 bd f6 69 14 bc
       -0.05813589 -0.010016922 -0.114068784 -0.009058466
000090 d5 0e cc bc ee 47 ef bd 5a 32 27 3d 5b 5b 98 bc
       -0.024909416 -0.116836414 0.040819503 -0.01859825
0000a0 a6 57 e1 bc e1 2f 66 3d 2c dc 84 3d 73 04 00 3d
       -0.027507614 0.056198005 0.06487307 0.031254243
0000b0 43 1d 22 bd 74 f3 98 bd e5 0c a9 3d 4c 7f a1 bd
       -0.039578687 -0.0746831 0.082544126 -0.07885608
0000c0 93 b8 f8 3c 7f 69 8d bd 1e 25 92 bd 83 5a 46 bd
       0.03036145 -0.069048874 -0.07135986 -0.048426162
0000d0 65 bb 9e 3a 9c d4 3e bd 33 62 18 3b e8 a2 5f bc
       0.0012110291 -0.04658948 0.002325189 -0.01364968
0000e0 ff db 60 3d 6b a8 e7 3c 86 4a b5 bd 64 20 da bc
       0.054897305 0.02827855 -0.08852105 -0.026626773
0000f0 64 19 a1 3c 7a d2 82 bd e6 71 c4 3d b1 67 a9 bc
       0.019665428 -0.063878015 0.09592037 -0.020679327
000100 91 b6 c1 bd cf c8 ab bd 1b 3a c3 3d 8d 69 78 3d
       -0.0945865 -0.083879106 0.09532567 0.060647536
000110 19 3d 80 bd e4 d5 61 3d b0 43 d3 bc b9 80 73 3d
       -0.062616535 0.055135623 -0.025789112 0.05944893
000120 e1 8c 9f 3c d4 f4 be 3a 1a a8 91 bc 1e 97 2f 3d
       0.019476356 0.0014568814 -0.017780352 0.042868726
000130 49 06 8b 3c 1a 0c d6 bd 8b d0 89 bd f4 e7 d2 3d
       0.01697077 -0.10451527 -0.067292295 0.10298148
000140 7a 3c 48 bd 1f 06 f8 3c 8a 46 72 bd b0 df 5e bd
       -0.0488858 0.030276356 -0.059149303 -0.054412544
000150 a2 bc ff 3c 7c 6d 54 bc 3a 8f 80 3d 89 aa 2d 3d
       0.031217877 -0.012965556 0.06277318 0.042398963
000160 49 93 cd 3b 7f f0 8e bc c6 3c 29 3d 39 03 5e 3d
       0.0062736613 -0.017448662 0.041317724 0.054202292
000170 9d 61 16 be 6b 1a ac bd 42 45 6e bd 65 5b 2d bd
       -0.14685674 -0.08403476 -0.05817152 -0.04232349
000180 c9 00 ce 3c 03 44 c2 3b 17 c8 8f bd 89 1a 4e bd
       0.025146859 0.005928518 -0.07020586 -0.050318275
000190 bd af 7b bd cf e5 6b bd 63 21 12 3d 4b 8b 63 bc
       -0.061446894 -0.05759221 0.03567637 -0.0138881905
0001a0 7f fe 01 be 8d 33 82 bd 7c 82 c8 3b cc 2b 19 bd
       -0.12694739 -0.06357489 0.0061190706 -0.037395284
0001b0 e0 e1 58 3d 6e 17 92 bd 56 dc 87 bb 25 e3 c1 3c
       0.052949786 -0.07133375 -0.004146139 0.023667881
0001c0 66 20 ca 3b d8 c4 ca bc 9d dc f5 bc 39 05 1a bd
       0.006168413 -0.024752066 -0.030012423 -0.037602637
0001d0 fe aa b7 bb 76 22 15 3d 9a db fa bd 37 97 95 3d
       -0.0056051007 0.036409818 -0.12248917 0.073042326
0001e0 e0 5a 70 bd b3 8a 98 bd 88 db 8c bd 88 c2 43 bc
       -0.058680415 -0.0744833 -0.0687781 -0.011948235
0001f0 46 8b 8b 3b 86 c6 09 bc e6 d0 11 be 96 32 4c 3d
       0.004258546 -0.008409148 -0.14239845 0.04985293
000200 d7 69 af bc 70 34 71 bc a5 e4 91 3d 16 23 ae bd
       -0.021412773 -0.014721975 0.071236886 -0.08502786
000210 69 83 bf bc f1 fa cb bc f8 35 7a 3c e8 40 7a bc
       -0.023378091 -0.024899932 0.015271656 -0.015274264
000220 0a bf cc bc af b3 e0 3c 16 ad 84 bd ba 77 4d 3d
       -0.024993438 0.02742943 -0.06478326 0.05016301
000230 96 d6 02 3d eb cb fb ba 4d 35 4d bd 2c 13 d1 bb
       0.031942926 -0.0019210553 -0.05009966 -0.0063804593
000240 dc a8 62 bd b7 bf 5b 3c e6 a3 50 3d a0 13 79 bd
       -0.055336818 0.013412408 0.050937556 -0.06080973
000250 9d 4d f2 bc b1 58 b9 bd 53 61 a2 bd 50 0d 8b bd
       -0.029578025 -0.0905012 -0.07928719 -0.067896485
000260 76 2a 2a bd a2 be 43 bb 3c b0 37 bc cf 92 00 bd
       -0.0415444 -0.0029868265 -0.011211451 -0.031390008
000270 24 70 9f 3c 17 2e b4 3b 18 0c b9 3d 1e 28 5b 3d
       0.019462653 0.0054986584 0.0903551 0.053505056
000280 2e d3 bf 3c a4 59 80 3b 15 6f 8b bb e6 d5 ab 3c
       0.023416128 0.003916936 -0.0042551854 0.020976018
000290 44 92 eb 3c ec 39 55 bd ea 23 08 3c f3 de 13 bd
       0.028756268 -0.05205719 0.008309344 -0.036101293
0002a0 6b 18 8f bd cc 2b 7f 3d 9b d7 57 bc b4 d1 8b 3c
       -0.06987079 0.062297627 -0.013173963 0.017067768
0002b0 df 4b 1d bd d5 8a 2f bd dd 55 6b 3d f3 a6 03 be
       -0.038402434 -0.04285701 0.057454932 -0.12856655
0002c0 ac b8 23 bc 77 c6 e8 bd 38 af fb bd 67 9b 96 3d
       -0.00999276 -0.11365979 -0.1228928 0.073538594
0002d0 f7 b6 b1 3c 50 a0 95 3d 4a 38 4d 3d b7 41 8d 3d
       0.02169369 0.07305968 0.05010251 0.068973
0002e0 cd 1a f0 bb 76 ab 80 bd b3 8b 44 3d 20 e8 69 3d
       -0.0073274137 -0.062827036 0.04798479 0.057106137
0002f0 66 10 fc bd 29 ac 73 3d 45 fe 19 bc 69 7d 32 bc
       -0.12307815 0.059490357 -0.0093990015 -0.010894158
000300 fb 45 82 3c 10 e7 94 3c f8 ec bd bb 9f 12 16 bb
       0.01590251 0.018176585 -0.005796071 -0.0022899283
000310 cb c4 03 bd 58 2d 5f bb c4 29 96 3d 26 c5 09 3a
       -0.0321701 -0.0034054127 0.07332185 0.00052555127
000320 b5 f6 a3 bd 3f 14 98 bc 63 b5 29 bd 89 53 19 3b
       -0.0800604 -0.018564342 -0.04143275 0.0023395738
000330 c1 f4 b2 bc 5b 6d bd bb 3f 4a 8d 3c f6 ff 14 3c
       -0.021845223 -0.0057808585 0.017247317 0.009094229
000340 9b fa 9c 3c 2d e5 1c 3c 0b 6d 85 3d 0a d7 38 3d
       0.019162467 0.009576124 0.06514939 0.045126952
000350 4c 9f e4 3c 59 f8 81 3c 62 f9 0f bd 33 da 30 bc
       0.02790799 0.015865492 -0.03514994 -0.01079421
000360 10 bf 9a bd b3 53 e6 bc 62 cf 45 bc 98 5f 89 3d
       -0.075559735 -0.028116083 -0.01207337 0.06707686
000370 92 36 ec 3c 2d d1 17 3e dc d3 63 bd e5 51 05 bd
       0.028834615 0.14825888 -0.055621967 -0.032548804
000380 da 62 36 bd 4f 33 ca 3c 15 12 a9 bc 79 48 67 3d
       -0.044527866 0.024682669 -0.020638505 0.0564656
000390 69 7e ed bc ab cd 05 3d 44 bc 5c bd 62 02 61 bd
       -0.028990941 0.032666843 -0.05389048 -0.054933913
0003a0 0a 56 f4 3b e2 6f 9f 3d 71 19 46 3d df 05 9b bd
       0.0074565457 0.07785012 0.048364107 -0.07569479
0003b0 51 8f 5a 3d 3e 95 db 3d 6b 97 25 3d 3b 93 46 bc
       0.053359333 0.10721825 0.040427607 -0.012120063
0003c0 73 58 a0 bd ed ce 6a bd 76 f0 f6 bc 69 13 00 3d
       -0.0782937 -0.057326246 -0.030143958 0.03126851
0003d0 bf 96 ab bd ba f8 ca 3c 6d 99 ce bd 66 8d 24 3e
       -0.08378362 0.024776805 -0.100878574 0.16069564
0003e0 f6 4a 2e bc 86 3e 8c 3b 3a d6 81 3d 40 0d ec 3c
       -0.010637989 0.0042799143 0.063396886 0.028814912
0003f0 e4 a9 9f 3d 1e a3 53 bd 43 b5 ad bc e7 43 5e bd
       0.07796076 -0.051669233 -0.021204596 -0.054263975

fc.bias f4 [2]
000000 07 f3 91 3c 7b 57 4c bc
       0.01781608 -0.012472029
