assets/pretrained_AST_TJ_RTL/model.pth (torch, 231552 bytes, 8 tensors)

layers.0.graph_conv.weight f4 [79, 200]
0	0x3d0cb473	0.034351777
1	0xbd82bbd6	-0.06383483
2	0x3ca0ff81	0.019653084
3	0x3c746fce	0.014919234
4	0x3d68bea1	0.056822423
5	0x3cdf17c8	0.02723302
6	0xbd346604	-0.044042602
7	0x3dc20b5d	0.094748236
8	0x3c81b94e	0.01583543
9	0x3dfbf4b2	0.12302531
10	0xbd0baf0e	-0.034102492
11	0xbd99ab4e	-0.07503377
12	0xbdc1fcde	-0.09472059
13	0x3e04afaa	0.12957636
14	0x3db084e3	0.08619096
15	0xbd5b1ae1	-0.05349243
16	0xbd08b8a6	-0.03337922
17	0xbd98e017	-0.07464617
18	0x3d5ac1de	0.053407542
19	0xbcf8b617	-0.030360265
20	0x3dfe9cb7	0.12432235
21	0xbd85da41	-0.06535769
22	0x3d8135f6	0.0630912
23	0xbc4f0904	-0.012636427
24	0x3cb5e72b	0.022204956
25	0xbc557fa9	-0.013030925
26	0x3d23bc7b	0.03997467
27	0x3d123043	0.035690557
28	0xbd6483f3	-0.0557899
29	0xbc761bd6	-0.015021285
30	0x3bca9b1d	0.0061830417
31	0x3e1158d4	0.14194041
32	0x3d717307	0.05894759
33	0x3d294247	0.041322973
34	0xbcf1f379	-0.029535042
35	0xbb91e12d	-0.004451892
36	0x3cb6135a	0.022226024
37	0xbc42df38	-0.01189404
38	0x3da5b8cc	0.08091888
39	0xbd949643	-0.07255223
40	0xbdc8fb85	-0.098135985
41	0x3d7579c7	0.05993059
42	0xbdcff108	-0.10153395
43	0x3d8f1f46	0.06988387
44	0xbd68f65e	-0.05687558
45	0xbcec9164	-0.028877921
46	0xbc20dab5	-0.009817769
47	0x3def8b34	0.11696473
48	0x3d5722d5	0.052523453
49	0x3d198592	0.0374809
50	0x3d7e7b0e	0.062129073
51	0xbd8ea208	-0.06964499
52	0x3e391ef8	0.1807822
53	0x3de102ca	0.1098686
54	0xbdcda17a	-0.10040565
55	0x3de59dba	0.112117246
56	0xbdab54cb	-0.08365782
57	0xbd966a38	-0.07344478
58	0x3e205078	0.15655696
59	0xbdd83e7f	-0.10558795
60	0x3d8fdbd7	0.07024353
61	0xbc84e680	-0.016223192
62	0xbc1dddf7	-0.00963544
63	0x3d1b3d2f	0.037900146
64	0x3e21caf1	0.15800072
65	0xbd45e3f5	-0.0483131
66	0xbcd338e0	-0.025783956
67	0x3da9bb41	0.08287669
68	0x3d32e707	0.043677356
69	0xbc540e83	-0.012942913
70	0xbd9ce8a9	-0.07661564
71	0xbd5c6c50	-0.053814232
72	0x3c107ee3	0.008819315
73	0x3d45f77f	0.048331734
74	0xbcd98fee	-0.026557889
75	0x3ca1775f	0.01971024
76	0x395ccd0e	0.00021057224
77	0xbd06cdc7	-0.03291109
78	0x3dfe5afa	0.12419696
79	0xbd8f1704	-0.06986812
80	0x3dc67c86	0.0969172
81	0xbd53bb9d	-0.051692594
82	0x3d3cf352	0.046130486
83	0x3d67964f	0.05653983
84	0x3bb96599	0.0056578633
85	0x3d782635	0.060583312
86	0xbd6724b1	-0.056431476
87	0x3d3458fa	0.044030167
88	0xbd25d765	-0.04048862
89	0xbcb2bc4d	-0.021818304
90	0x3b940210	0.0045168474
91	0x3de524e1	0.11188675
92	0xbb3f9191	-0.0029231051
93	0xbd08a63b	-0.033361655
94	0xbd2cc7e5	-0.04218282
95	0x3d2855ae	0.041097336
96	0xbd1a50dc	-0.03767477
97	0x3b635484	0.0034687826
98	0xbd737001	-0.059432987
99	0xbd8b6363	-0.06806066
100	0x3b83b10b	0.004018908
101	0x3e02e899	0.12784041
102	0xbdb219a6	-0.08696298
103	0x3cc18efb	0.023627749
104	0xbd40063a	-0.046880938
105	0x3c8e10ce	0.017341997
106	0x3e239b2a	0.15977159
107	0x3b597963	0.0033183924
108	0xbaec3753	-0.0018021859
109	0xbd8f98bd	-0.070115544
110	0x3dd7fc5b	0.1054618
111	0xbcfed63e	-0.031108018
112	0x3d38c764	0.04511203
113	0x3bf63cb4	0.0075145606
114	0x3e099dbd	0.13439079
115	0x3c61f9f7	0.013792506
116	0xbd4ca96f	-0.049966272
117	0x3e02d0f1	0.12775017
118	0x3cc371f7	0.023858054
119	0x3d5ff2f7	0.05467507
120	0xbc9a4475	-0.018831471
121	0x3c8c119b	0.017098239
122	0x3c32f85b	0.01092347
123	0xbd8cd3e4	-0.068763524
124	0xbd12536f	-0.0357241
125	0x3dad50ce	0.08462678
126	0xbd9724e9	-0.07380087
127	0x3de64417	0.11243456
128	0xbd890e61	-0.06692196
129	0xbd980751	-0.074232705
130	0xbc609a0a	-0.013708601
131	0xbd541506	-0.051777862
132	0x3dd5b42f	0.10434758
133	0x3d4478a1	0.047966603
134	0xbca79c46	-0.02046026
135	0xbcd5bbc9	-0.02609052
136	0x3d904a15	0.0704538
137	0x3deb2ddc	0.11483356
138	0x3db296de	0.08720182
139	0x3d957c5a	0.07299109
140	0x3d42c735	0.04755326
141	0x3e144128	0.1447798
142	0x3e113492	0.1418021
143	0xbd8c8951	-0.068621285
144	0xbd57c9c1	-0.052682642
145	0x3e08c3c3	0.13355927
146	0xbd23d53e	-0.039998285
147	0x3dd8f9ea	0.10594542
148	0x3daa1786	0.08305268
149	0xbd427c66	-0.047481917
150	0x3de5288f	0.111893766
151	0xbd44c134	-0.048035815
152	0x39809198	0.00024522538
153	0x3bbb664b	0.0057189814
154	0x3dcae66b	0.0990723
155	0x3e1b7b39	0.15183724
156	0x3d217ecf	0.039427575
157	0x3d015509	0.031575236
158	0x3d85854f	0.06519567
159	0xb8e2d627	-0.00010816409
160	0x3e016055	0.12634404
161	0x3b930729	0.0044869375
162	0x3cb43339	0.021997081
163	0x3d6ab6ac	0.057303116
164	0xbdaf8e82	-0.08572103
165	0xbd411a6e	-0.047144346
166	0xbda18b4c	-0.07887897
167	0xba99eae8	-0.0011742981
168	0x3dd091db	0.1018407
169	0xbd504064	-0.050842658
170	0xbcc36ec0	-0.02385652
171	0xbd6d78b5	-0.057976443
172	0xbd9562c2	-0.07294227
173	0x3c2a858b	0.010407816
174	0xbda6e3ff	-0.081489556
175	0xbd877e37	-0.066158704
176	0xbcdfefff	-0.027336119
177	0xbd499de1	-0.04922283
178	0xbc87e075	-0.016586522
179	0xbd9c008f	-0.07617294
180	0x3d40d33a	0.04707644
181	0x3d9a0ed6	0.07522361
182	0xbd8e5d07	-0.06951337
183	0xbd853860	-0.06504893
184	0xbd9f6956	-0.07783763
185	0xbd9263bb	-0.07147928
186	0x3d1942ad	0.037417103
187	0x3d5112c1	0.051043276
188	0x3de669ad	0.11250625
189	0x3e187069	0.14886631
190	0x3d433291	0.047655646
191	0x3e15729f	0.14594506
192	0x3b8f81ef	0.004379503
193	0x3cd42dc5	0.02590073
194	0xbc9df48a	-0.019281644
195	0x3de43b14	0.11144081
196	0xbd498004	-0.04919435
197	0xbcdfb66c	-0.027308665
198	0x3d557bd3	0.05212004
199	0x3dbf0a98	0.093281925
200	0x3cbefa2f	0.023312656
201	0x3cf06f04	0.029349811
202	0x3d311f85	0.04324295
203	0xb78d6aaa	-1.685818e-05
204	0x3d07973c	0.033103213
205	0x3c03aadc	0.0080363415
206	0x35a15f7c	1.2023224e-06
207	0x34903b11	2.6865067e-07
208	0xbce85ec3	-0.028365498
209	0x38744fde	5.8248515e-05
210	0xb870c2bd	-5.7401823e-05
211	0x356f1903	8.9070835e-07
212	0x38898cac	6.558871e-05
213	0x3ccdd93b	0.025127998
214	0x3c228c0a	0.009921083
215	0xb5aa763d	-1.2700399e-06
216	0x362adb7d	2.5459733e-06
217	0xbd84e0ed	-0.06488214
218	0x3d0fa8d8	0.03507313
219	0x3d992f84	0.07479766
220	0xbda3e7d9	-0.08003206
221	0xb73230e2	-1.0621008e-05
222	0xbc8bd022	-0.017067019
223	0x34fcdf45	4.7101108e-07
224	0x3c2f4239	0.010696941
225	0x3bafaab7	0.005360927
226	0xbbd2b831	-0.0064306487
227	0xbc2c7fa7	-0.010528482
228	0xba2ee3bc	-0.00066715083
229	0x3d956530	0.072946906
230	0x36de646d	6.6278067e-06
231	0xbd3b3a2e	-0.04570978
232	0x3d3ce800	0.04611969
233	0xbbba3dab	-0.005683621
234	0x3d172a00	0.03690529
235	0xbcc5adfa	-0.02413081
236	0xbbed4209	-0.007240538
237	0x3b30ef2f	0.0026998033
238	0xb6e17d43	-6.720105e-06
239	0x34cac8ec	3.7771622e-07
240	0x3a200307	0.0006103967
241	0xbce0b320	-0.027429163
242	0xbc338bb9	-0.010958605
243	0x3cf334f4	0.029688336
244	0x3d5252cb	0.05134849
245	0xbc55ba20	-0.013044864
246	0xbd2195ef	-0.03944963
247	0xbb4f6789	-0.0031647405
248	0x3a424209	0.00074103527
249	0xbcc5bb4b	-0.02413716
250	0x3bb6113a	0.005556253
251	0x3d44acfd	0.048016537
252	0x3d76b1d6	0.06022819
253	0xbcee2560	-0.029070556
254	0x3b598ea5	0.0033196595
255	0xb731a7f0	-1.0589123e-05

layers.0.graph_conv.bias f4 [200]
0	0x3c8854cb	0.016641995
1	0x3b317b5f	0.0027081592
2	0x3c2bd970	0.010488853
3	0xbc118bf0	-0.008883461
4	0x3c17131f	0.009220867
5	0x3bac5ebb	0.005260316
6	0x3c5c0993	0.013430017
7	0xbb1c3f5f	-0.0023841483
8	0x3c96c0e9	0.018402534
9	0x3c2d8dbf	0.010592877
10	0x3d2bf96f	0.041985925
11	0x3cf0ead7	0.029408855
12	0x3b0ec04d	0.00217821
13	0x3c511195	0.01276054
14	0x3be3a1ab	0.0069467626
15	0x3c397234	0.011318732
16	0x3ca0d3d7	0.019632263
17	0xbbeab064	-0.0071621407
18	0xba7fe72e	-0.00097619265
19	0x3d0c41d4	0.034242466
20	0x3ba0b7d8	0.0049047284
21	0x3ca3d859	0.020000624
22	0x3d19ed94	0.037580088
23	0xbbc4968d	-0.0059993924
24	0x3c45764a	0.012052128
25	0x3bcf5fc0	0.006328553
26	0xbb3c5f1c	-0.0028743213
27	0x3b05417f	0.0020333228
28	0x3b8c9e26	0.0042913137
29	0x3c2d9b13	0.010596055
30	0x3c2ccbfc	0.010546681
31	0x3a776619	0.0009437516
32	0x3be787fe	0.007065772
33	0xbb33046a	-0.0027315863
34	0xbceab7c7	-0.028652085
35	0x3cc9dfbc	0.024642818
36	0xbc994b7b	-0.01871275
37	0xbc7844fd	-0.015153167
38	0x3a07be27	0.0005178176
39	0x3d0ba12d	0.034089256
40	0x3c19d83a	0.009389931
41	0x3cb935b2	0.022608612
42	0x3c33fe47	0.010985917
43	0x3d25bf5a	0.04046569
44	0xbc16b3ce	-0.009198142
45	0x3bffe9a8	0.0078098364
46	0x3bc2c750	0.00594417
47	0x3a9d57ca	0.0012004313
48	0x3acb5865	0.0015514015
49	0x3ca4b80c	0.020107292
50	0x3c954bfd	0.01822471
51	0x396c64df	0.00022544291
52	0x3c8d5630	0.017253011
53	0x3bc502df	0.006012305
54	0x3c04b35d	0.008099404
55	0x3c996114	0.018723048
56	0x3d233027	0.039840844
57	0xbb248ef9	-0.0025109632
58	0x3c0f5050	0.008747175
59	0x3c249c21	0.01004699
60	0xbc38b74c	-0.01127417
61	0xbca5258e	-0.020159509
62	0x3be691f0	0.00703644
63	0xbb41e9dd	-0.0029588856
64	0x3c0ccdc2	0.008593978
65	0xbc4c1159	-0.012455308
66	0x3acbc5b8	0.0015546596
67	0xbce1f826	-0.027584147
68	0xbcb0b99c	-0.02157288
69	0x3cea9d8a	0.028639574
70	0xbc60e5f5	-0.013726701
71	0x3c70f006	0.014705664
72	0xbc8da91c	-0.017292552
73	0x3cdc0132	0.026856039
74	0x3d064ee0	0.032790065
75	0x3b3ee762	0.0029129614
76	0xbba781f6	-0.005111928
77	0x3c8404bd	0.01611554
78	0x3a10eab1	0.0005528136
79	0xbc66671a	-0.014062667
80	0xbc71616d	-0.014732701
81	0x3c98aa7d	0.018635983
82	0x395b01ff	0.00020886211
83	0x3b4b821a	0.0031052888
84	0x3c3faa39	0.011698299
85	0x3c36b1a2	0.011150749
86	0x3bfa7d49	0.0076443297
87	0xbbcddf41	-0.0062827175
88	0x3c73d764	0.014882896
89	0x3cf4353e	0.029810544
90	0x3cde1294	0.027108468
91	0x3cc601c4	0.024170764
92	0xbbf34438	-0.007423904
93	0x3cc52e3e	0.024069902
94	0xbc9c8a61	-0.019108953
95	0xbb68b11a	-0.0035505951
96	0xbbaf6b7e	-0.0053533902
97	0xbc736564	-0.014855716
98	0x3cf588c0	0.029972434
99	0xbb0e7d2e	-0.0021742093
100	0x3ba92317	0.0051616537
101	0x3cc44e30	0.023963064
102	0x39a4331d	0.000313186
103	0xbbbf885b	-0.0058451123
104	0xbc323bb7	-0.010878495
105	0x3c0e8a6b	0.008699994
106	0x3cad4397	0.021150393
107	0x3b701b53	0.003663738
108	0x3be3be9f	0.006950214
109	0x3c06397c	0.008192416
110	0x3c91fc86	0.017820608
111	0x3c2d6e7a	0.010585422
112	0x3b251334	0.0025188448
113	0x3d102f5c	0.035201415
114	0xbbe22253	-0.0069010644
115	0xbc9af45f	-0.018915353
116	0xbc8c61fd	-0.017136568
117	0xbb2b1837	-0.0026106962
118	0x3c094ad4	0.008379657
119	0x3bbd3974	0.005774671
120	0x3c2cfc6f	0.010558232
121	0x3c35b1fd	0.011089799
122	0x3c6da930	0.0145056695
123	0x3cdaeb11	0.026723417
124	0xbb7b64cc	-0.003835964
125	0x3b3f9baa	0.002923707
126	0xba81e445	-0.0009909949
127	0xbb673baf	-0.0035283377
128	0xbb95aece	-0.0045679575
129	0xbc13a1a7	-0.009010709
130	0x3c0c18c1	0.008550824
131	0xbc75be17	-0.014998934
132	0x3bd6a167	0.0065500024
133	0x3cd586a1	0.026065173
134	0x3c769631	0.015050457
135	0xbaf74fb6	-0.001886836
136	0xbb33700b	-0.0027380015
137	0xbbc7dd8a	-0.0060994076
138	0xbc47e520	-0.012200624
139	0x3cd95aa0	0.026532471
140	0x3cef7ea4	0.029235192
141	0x3bbd8718	0.0057839267
142	0xbbe96396	-0.0071224673
143	0x3d182570	0.03714508
144	0x3a94a800	0.0011341572
145	0x3c717f25	0.014739786
146	0x3c6c238d	0.014412773
147	0x3b620415	0.0034487296
148	0x3cb24e14	0.021765746
149	0x3d446ee4	0.047957316
150	0x3be72a3c	0.0070545953
151	0xbc137237	-0.008999399
152	0x3b9bbfa1	0.0047530686
153	0xba76c6fa	-0.0009413805
154	0x3c05a42c	0.008156817
155	0x3c14cb43	0.0090816645
156	0x3c47f94b	0.012205432
157	0x3c2abbb6	0.01042073
158	0xbbda148e	-0.0066552823
159	0x3bf915e5	0.007601487
160	0x3c3dc112	0.011581676
161	0x3ca8035c	0.020509414
162	0x38efb81b	0.000114307004
163	0x3aa5c96b	0.0012648528
164	0xbbe4e8de	-0.0069857677
165	0x3b4853ad	0.0030567453
166	0xbc47a703	-0.012185815
167	0x3c0f1f29	0.0087354565
168	0xbc981424	-0.018564291
169	0x3c510a03	0.012758735
170	0x3beb0bc5	0.007173034
171	0x3c7a6b21	0.015284331
172	0xbb8420d2	-0.004032233
173	0xbbe1f32c	-0.0068954434
174	0xbbe7f021	-0.007078186
175	0xbb44ab46	-0.0030009313
176	0x3c72a5e8	0.014810063
177	0xbb4dbf21	-0.003139444
178	0x3cbe2e69	0.02321549
179	0xbb890876	-0.004181917
180	0xbbb7a04b	-0.005603825
181	0x3c73478b	0.0148486
182	0x3cae681c	0.021289878
183	0x3c57fb3a	0.013182456
184	0x3caf3895	0.021389285
185	0x3c1058fa	0.008810276
186	0xbb8af888	-0.004241053
187	0x3b861134	0.0040914062
188	0xbbcbb594	-0.006216714
189	0x3c8e794e	0.017391827
190	0x3bef7be0	0.007308468
191	0x3c34c0b9	0.011032277
192	0x3c9b2194	0.01893691
193	0xbba89e44	-0.00514582
194	0xbb9c9ebf	-0.004779666
195	0x3c748df6	0.014926424
196	0x3a922fb0	0.0011153128
197	0xbaafd867	-0.0013415933
198	0x3bac80d1	0.0052643795
199	0xbbf7784f	-0.0075521837

layers.1.graph_conv.weight f4 [200, 200]
0	0x3d64eb6a	0.05588857
1	0x3d8bb9d4	0.06822553
2	0xbd810dbe	-0.06301449
3	0x3d703993	0.058648657
4	0x3d61dbe0	0.05514133
5	0x3d1e2e7e	0.038618557
6	0x3d474f37	0.04865953
7	0xbd08f064	-0.03343238
8	0xbe013a6a	-0.1261994
9	0xbd29ad2c	-0.041424915
10	0x3da1d228	0.07901412
11	0x39df8286	0.00042631122
12	0x3d30f5a6	0.04320302
13	0xba874a54	-0.0010321834
14	0xbb16a620	-0.0022987202
15	0x3c3aabc0	0.011393487
16	0xbd5562c1	-0.052096132
17	0xbde53ac5	-0.1119285
18	0x3d610ad0	0.054941952
19	0xbd91e4fb	-0.07123753
20	0xbde907f5	-0.11378471
21	0xbd210cf2	-0.039318986
22	0x3da1db30	0.07903135
23	0xbd3fe3fb	-0.04684828
24	0xbd932c84	-0.07186225
25	0x3b4424d6	0.0029929182
26	0x3d9f267b	0.077710114
27	0xba249d88	-0.00062795775
28	0x3d933f08	0.07189757
29	0x3da5a177	0.080874376
30	0xb9339597	-0.00017126497
31	0x3d045906	0.032311462
32	0xbceb9345	-0.028756747
33	0xbd9c9723	-0.076460145
34	0x3dbf602a	0.09344514
35	0xbd023e89	-0.03179792
36	0xbbe47489	-0.0069719
37	0x3da34e50	0.07973921
38	0xbbc38d85	-0.005967798
39	0x3c8448f9	0.016148077
40	0x3dd8b330	0.10581052
41	0xbc397887	-0.01132024
42	0xbcfaa367	-0.030595494
43	0xbcda4ebb	-0.02664887
44	0xbdcf3079	-0.10116667
45	0xbd2b9f2d	-0.04189985
46	0x3d4b143c	0.049579844
47	0x3d578dae	0.05262535
48	0x3df314ce	0.118692026
49	0x3d9df096	0.07711904
50	0x3c9f8a75	0.019475201
51	0x3d90a91d	0.07063506
52	0x3ba28b69	0.0049604666
53	0x3dcd86b4	0.10035458
54	0x3da54465	0.08069686
55	0x3c35c1e8	0.011093594
56	0xbd0aca46	-0.03388431
57	0x3dead4da	0.114663795
58	0xbda3920e	-0.07986842
59	0x3dc866a4	0.09785202
60	0x3d8444d5	0.06458441
61	0xbd222e22	-0.039594777
62	0xbdb70524	-0.08936527
63	0x3d1efa4c	0.03881292
64	0x3d920fca	0.07131918
65	0xbd9913e8	-0.074745
66	0x3c08ddf2	0.008353697
67	0xbd6e9361	-0.05824602
68	0xbd266fe3	-0.040634047
69	0xbcee01ff	-0.029053686
70	0xbc04dd63	-0.008109423
71	0x3e034288	0.12818348
72	0x3d98479f	0.07435536
73	0x3da5b6e5	0.08091525
74	0xbc1f5a31	-0.009726093
75	0xbd2b961a	-0.041891195
76	0x3da7b3e3	0.081886075
77	0xbdc22622	-0.094799295
78	0xbd2ac3c4	-0.041690603
79	0x3d199c0c	0.037502334
80	0x3db537d7	0.08848541
81	0x3c970929	0.018436985
82	0x3ca214a9	0.019785242
83	0x3debdb49	0.11516435
84	0x3d4dfe96	0.05029162
85	0x3e080fdd	0.13287301
86	0x3b1baac7	0.0023752914
87	0x3d2b8b20	0.041880727
88	0xbc5d2786	-0.013498193
89	0x3aed03d4	0.0018082806
90	0x3d88b428	0.06674987
91	0x3d9c9b9d	0.076468684
92	0x3cd74634	0.026278593
93	0x3c9e7d5b	0.019346884
94	0x3da2711a	0.07931729
95	0x3bb010f5	0.005373115
96	0xbc835755	-0.016032854
97	0xbdd07190	-0.1017791
98	0x3e013251	0.1261685
99	0xbd29c14f	-0.04144412
100	0x3ddc6048	0.10760552
101	0x3d8d8379	0.06909842
102	0x3d336007	0.04379275
103	0xbd129cde	-0.03579413
104	0x3ca50608	0.020144477
105	0x3d0468e5	0.032326598
106	0x3d167abf	0.036738154
107	0x3d10b6ea	0.03533069
108	0x3dc90f20	0.09817338
109	0xbcb76e9b	-0.022391608
110	0xbc6dc7b9	-0.01451295
111	0xbcbcf2cf	-0.023064999
112	0xbd3f3e32	-0.046690173
113	0xbd139207	-0.036027934
114	0x3ddb3b33	0.10704651
115	0xbcfc0647	-0.030764712
116	0x3d97fff4	0.07421866
117	0x3a522ea0	0.0008017812
118	0xbb8800cb	-0.004150485
119	0x3e026e81	0.12737466
120	0x3d78c193	0.06073148
121	0xbd7f672b	-0.062354248
122	0xbd4c4c8d	-0.049877692
123	0x3db056a2	0.08610274
124	0x3e133c6e	0.14378521
125	0x3b305eb5	0.0026911919
126	0x3e0cd9c1	0.13754942
127	0xbd6f339d	-0.05839883
128	0x3d7ebd54	0.062192276
129	0x3ce7ae84	0.028281458
130	0x3d48454a	0.048894204
131	0xbd05475c	-0.032538757
132	0xbc29befd	-0.010360477
133	0x3d31959e	0.043355577
134	0xbde1aa46	-0.11018805
135	0xbd4c09c5	-0.049814004
136	0xbd499bfa	-0.049221016
137	0xbba51227	-0.0050375643
138	0xbbaafce6	-0.005218136
139	0x3d64bd82	0.05584479
140	0xbbadfd59	-0.0053097424
141	0x3c5cc2b3	0.013474154
142	0xbdbf2161	-0.093325384
143	0x3d976070	0.07391441
144	0xbc9d8c30	-0.019231886
145	0xbd22c3a0	-0.039737344
146	0x3d163698	0.03667316
147	0x3bae767b	0.0053241826
148	0xbd5bfbfc	-0.053707108
149	0x3d58e542	0.052953012
150	0xbc444cc0	-0.011981189
151	0xbc05cb7c	-0.00816619
152	0x3d5d47f9	0.054023717
153	0x3d8a8846	0.06764273
154	0xbd054957	-0.032540645
155	0x3d9121d1	0.07086528
156	0xbce9e542	-0.028551701
157	0xbd9db21b	-0.076999865
158	0x3dcb92da	0.09940119
159	0x3d0b617e	0.034028523
160	0xbd8bf6cd	-0.06834183
161	0x3d3c8359	0.0460237
162	0x3d9c8767	0.076430134
163	0x3daf0f4b	0.08547839
164	0x3c25faff	0.010130643
165	0x3d932c6d	0.07186208
166	0xbd439f68	-0.047759444
167	0xbdccd3c8	-0.100013316
168	0x3de9f185	0.11423019
169	0xbd199c39	-0.0375025
170	0x3cfbc747	0.030734671
171	0x3d0392ec	0.032122537
172	0xbd9c3e18	-0.07629031
173	0xbd76ad63	-0.06022395
174	0xbc24deb3	-0.010062861
175	0xbc5f2c8e	-0.0136214625
176	0x3d5ad0d4	0.05342181
177	0x3d249878	0.040184468
178	0xbc259126	-0.010105407
179	0x3df8f3ae	0.12155853
180	0x3dbd5a38	0.092457235
181	0x3cb7954a	0.022410054
182	0xbc79e70a	-0.015252838
183	0xbd20ed4f	-0.039288815
184	0xbd8025bc	-0.06257197
185	0xbc9bec77	-0.019033654
186	0xbd2368a0	-0.0398947
187	0x3d660c1b	0.05616389
188	0xbd3c8fb4	-0.046035483
189	0xbceaa06b	-0.028640946
190	0xbdf16d20	-0.11788392
191	0x3dadf669	0.08494265
192	0x3d0e3543	0.034718763
193	0xbd7d5171	-0.061845247
194	0xbcc5bc3a	-0.024137605
195	0xbd04b343	-0.03239752
196	0xbcc4a452	-0.024004135
197	0xbdb3834e	-0.08765279
198	0x3dedebdc	0.11617252
199	0x3dd3caed	0.103414394
200	0xbdd29aec	-0.10283455
201	0xbdb7e270	-0.089787364
202	0x3da2dfbb	0.079528295
203	0xbac492a0	-0.0014997311
204	0xbd00decb	-0.031462472
205	0xbbd07936	-0.0063621057
206	0xbc07a80e	-0.008279813
207	0xbcfaa231	-0.030594917
208	0xbdf47b77	-0.119376116
209	0xbd8cd1fe	-0.0687599
210	0xbd4393e1	-0.04774845
211	0xbd8a724b	-0.06760081
212	0x3d855c4b	0.06511744
213	0xbc31e898	-0.010858677
214	0xbdc9ae51	-0.09847701
215	0x3dc082c5	0.09399942
216	0x3d5d5102	0.054032333
217	0xbd8134b9	-0.06308884
218	0x3d019684	0.031637684
219	0x3cd3cabd	0.02585351
220	0x3c91f6d1	0.017817887
221	0x3df33eac	0.11877188
222	0x3d2ed28d	0.042681266
223	0x3dad935b	0.084753715
224	0x3dd0fa47	0.102039866
225	0xbd874c1d	-0.06606314
226	0x3dbac400	0.09119415
227	0x3d726eae	0.059187584
228	0xba999b8b	-0.0011719329
229	0xbd514e95	-0.051100332
230	0xbb937905	-0.0045005106
231	0x3d071986	0.032983325
232	0xbde17f96	-0.11010663
233	0xbd420d46	-0.04737594
234	0xbd0da409	-0.034580264
235	0xbccced8b	-0.025015613
236	0x39657184	0.0002188143
237	0xbda728ac	-0.081620544
238	0xbdc11558	-0.09427899
239	0xbc0cf4de	-0.008603303
240	0x3c7567ea	0.014978388
241	0xbc08ed85	-0.00835741
242	0xbdb36088	-0.08758646
243	0x3d9abb2d	0.07555232
244	0xbda002ed	-0.07813058
245	0xbd1f6db5	-0.038922984
246	0xbc54a530	-0.012978837
247	0xbc606179	-0.013695114
248	0xbd8cd090	-0.06875718
249	0xbd10907d	-0.035294045
250	0x3ddbc1a2	0.10730292
251	0x3bdf2315	0.006809602
252	0xbcf0632e	-0.029344168
253	0x3c48e5bb	0.012261803
254	0x3d4e9a61	0.050440196
255	0xbcff35c7	-0.031153573

layers.1.graph_conv.bias f4 [200]
0	0xbc3ebd02	-0.011641743
1	0x3aa95859	0.0012920006
2	0xbbd2b2eb	-0.00643002
3	0x3bb05c49	0.005382095
4	0x3cd311ee	0.025765385
5	0xbb845dff	-0.0040395255
6	0x3aad7454	0.0013233521
7	0x3c83b781	0.016078712
8	0xbcf77e2a	-0.030211527
9	0x3ba9c518	0.005180966
10	0x3bbde261	0.0057948087
11	0x3c2e568f	0.010640754
12	0x3c2ece1b	0.010669257
13	0xbce0fcb9	-0.027464258
14	0xbcac12a6	-0.021004986
15	0x3bb681c9	0.005569671
16	0x3c50896a	0.012728075
17	0xbc8e4f93	-0.017371928
18	0xbb39aee9	-0.0028333014
19	0x3c4c0f45	0.012454812
20	0x3c3b67a1	0.011438281
21	0x3c2651f1	0.010151372
22	0x3cdf3a07	0.02724935
23	0xbba751b8	-0.005106177
24	0x3b8ec744	0.0043572504
25	0x3c53dcc3	0.012931052
26	0x3a9e66b2	0.0012085049
27	0x3ccf96ac	0.0253404
28	0x3bb3a6cb	0.0054825298
29	0x3c394b90	0.011309519
30	0xbc320809	-0.010866174
31	0xbb6e7a68	-0.0036388878
32	0xbbcf4012	-0.0063247764
33	0xba0bb5c9	-0.00053295173
34	0x3b322641	0.0027183446
35	0xbc038dec	-0.008029442
36	0x3cd0ea07	0.025502218
37	0xbc847c6f	-0.016172616
38	0x3c1178ad	0.008878869
39	0xbc6bed10	-0.014399782
40	0xbc14cc63	-0.009081933
41	0xbc168403	-0.0091867475
42	0x3bb0926e	0.0053885495
43	0x3c711d46	0.014716452
44	0xbc3cfe43	-0.01153523
45	0xbc80d44b	-0.01572623
46	0xbc0811a9	-0.008304992
47	0xbc20f16a	-0.009823183
48	0x395e9444	0.00021226803
49	0xbb39013b	-0.0028229493
50	0x3c4e9291	0.012608186
51	0xbbeddeb1	-0.007259213
52	0x3b696f2a	0.0035619237
53	0x3bb0f8e0	0.005400762
54	0x3ce68fab	0.028144678
55	0xbc7945c8	-0.015214391
56	0x3bdb7b01	0.006698013
57	0x3c43f3e6	0.011960005
58	0x3b878850	0.0041361228
59	0x3b8f20b3	0.0043679117
60	0x3c9a718c	0.018852971
61	0x3be3816c	0.0069429185
62	0xbb85f1a8	-0.0040876456
63	0xbb45acca	-0.0030162805
64	0x3b93eeb6	0.0045145405
65	0x3c8b59c9	0.017010586
66	0x3bf8b04b	0.007589375
67	0xbcb183ac	-0.021669231
68	0x3b927b37	0.0044702548
69	0x3c113407	0.008862502
70	0x3beacd9b	0.0071656234
71	0x3c3046f3	0.010759103
72	0x3ae5bde1	0.0017527902
73	0xbc041e1c	-0.008063819
74	0x3c21502f	0.009845777
75	0xbb9fff8b	-0.004882758
76	0xbb17f786	-0.0023188307
77	0x3b8f250d	0.0043684305
78	0x3c74f5ce	0.0149511825
79	0xbb7fc617	-0.0039027983
80	0x39abfa5c	0.00032802194
81	0xbc89c2de	-0.016816553
82	0xbc7a2722	-0.015268119
83	0x3c1d594c	0.00960381
84	0x3c995bbd	0.018720502
85	0x3c2d98ad	0.010595483
86	0x38db452c	0.00010455618
87	0x3c739c71	0.0148688415
88	0xbb9a6f70	-0.0047129914
89	0x3c2190d3	0.009861189
90	0xbbe9c455	-0.0071340003
91	0x3c46ecaa	0.012141386
92	0x3c2b5d96	0.010459324
93	0x3bdb9ff4	0.0067024175
94	0x3d161eaf	0.036650356
95	0xbb97504f	-0.004617728
96	0xbc7c4f37	-0.015399746
97	0x3c16ba3c	0.009199675
98	0x3c157a84	0.009123448
99	0xbc8e85f9	-0.017397868
100	0x3c33e2f2	0.010979401
101	0xbcb20e5f	-0.021735368
102	0xba258f25	-0.00063155807
103	0xbc0dd68f	-0.008657112
104	0x3cef225a	0.029191185
105	0x3ca1c60f	0.019747762
106	0xbba13ca1	-0.0049205576
107	0x3b8012ec	0.0039085057
108	0x3c042deb	0.008067588
109	0x3c218d59	0.00986036
110	0xbcac79c3	-0.021054154
111	0x3bcbf837	0.006224658
112	0x3baec8ef	0.0053340117
113	0xbc60aba3	-0.013712796
114	0x3b0a95eb	0.0021146487
115	0xbc05cf86	-0.008167153
116	0x3c327d96	0.0108942
117	0x3c28ab42	0.010294737
118	0xbc9e85d2	-0.01935092
119	0x3c2ae0e9	0.010429599
120	0xbbdf3714	-0.0068119857
121	0xbca5c5f8	-0.020236
122	0xbc5bc31d	-0.013413218
123	0x3c273b9b	0.010207082
124	0x38ca5fbf	9.649945e-05
125	0xbbbb828b	-0.005722349
126	0x3cbb992a	0.022900183
127	0x3c37fcdf	0.011229723
128	0xbc928610	-0.017886192
129	0x3bf4cf8d	0.007471031
130	0x3c213a01	0.009840489
131	0xbb83fab0	-0.004027687
132	0xbc88ce48	-0.016699925
133	0x3b2dcd71	0.0026520158
134	0xbc7f5015	-0.015583058
135	0xbc1683d8	-0.009186707
136	0xbc973f78	-0.018462881
137	0x3c1e028e	0.009644164
138	0xbc189a6b	-0.00931416
139	0xbcadcc23	-0.021215504
140	0x3b660f57	0.0035104358
141	0xbcac6a5d	-0.021046812
142	0x3b218809	0.0024647734
143	0xba198934	-0.00058569317
144	0xbb9ec776	-0.004845555
145	0xbbfcee45	-0.0077188336
146	0xbc540530	-0.01294069
147	0x3c85188f	0.016247062
148	0xbadd48d8	-0.0016882671
149	0xbc8e0475	-0.01733611
150	0x3c59e138	0.013298325
151	0xbb683f73	-0.003543821
152	0x3c54aacc	0.012980174
153	0x3ab43a3d	0.0013750267
154	0x3c9600b8	0.01831089
155	0x3a8b841f	0.0010644234
156	0xbc0d5ab9	-0.008627587
157	0xbc516aa0	-0.012781769
158	0x3bc829fb	0.00610852
159	0xbc3545ff	-0.011064052
160	0x3cc543aa	0.024080116
161	0x3c8d1185	0.017220268
162	0x3ba4595b	0.005015535
163	0x3bccc0ff	0.006248593
164	0x3c2e8572	0.010651933
165	0xbc56f124	-0.013119016
166	0xbc336c91	-0.010951177
167	0x3b9af7ba	0.0047292383
168	0x3c260d40	0.010134995
169	0x3ce1fe27	0.02758701
170	0xbc3b32d2	-0.011425691
171	0x3bb0ffa6	0.0054015694
172	0xbc0601f8	-0.00817918
173	0xbcb4033f	-0.021974204
174	0xbbbfc31c	-0.0058521163
175	0xbbd8353a	-0.006598142
176	0x3d142046	0.03616359
177	0xb9d7206d	-0.00041032155
178	0xbc4503bc	-0.012024816
179	0xbbd87be5	-0.0066065663
180	0xbc0bcba7	-0.008532441
181	0xbc241460	-0.010014623
182	0xbb9416b2	-0.004519307
183	0x3b14d1ed	0.0022708133
184	0x3be8b690	0.0071018413
185	0xbc5b5a84	-0.01338828
186	0x3ba94d66	0.0051666973
187	0xba09644b	-0.000524108
188	0x3a7be655	0.0009609212
189	0xbc3cd3e0	-0.011525124
190	0x3c3165ae	0.010827465
191	0x3cc0a0ed	0.023514235
192	0xbab609b9	-0.0013888396
193	0xbbaf1c23	-0.0053439303
194	0x3c63c99e	0.01390305
195	0xbc3bea9b	-0.0114695085
196	0x3bd8a05e	0.006610914
197	0x3c48e14a	0.012260744
198	0x3bb6835b	0.005569858
199	0x3ca77217	0.020440144

pool1.graph_pool.gnn.lin_l.weight f4 [1, 200]
0	0x3d890c6b	0.06691822
1	0x3d0235cc	0.031789586
2	0x3b812640	0.0039413273
3	0x3ccdda78	0.025128588
4	0xbd60c413	-0.05487449
5	0xbd2b705b	-0.041855197
6	0x3da63937	0.081163816
7	0xbd57d007	-0.052688625
8	0x3d2c63db	0.042087417
9	0x3d763d60	0.060117126
10	0x3daa7b11	0.08324254
11	0xbd409540	-0.047017336
12	0x3d3d4f82	0.046218403
13	0xbccdbc9a	-0.025114346
14	0xbcf15bc3	-0.0294627
15	0xbc58e2f4	-0.013237704
16	0xbcb22322	-0.021745268
17	0xbd77917a	-0.06044147
18	0xbcbcbf10	-0.023040324
19	0xbd632438	-0.055454463
20	0xbbbf7f75	-0.0058440515
21	0x3da16287	0.07880121
22	0xbc3dc287	-0.011582023
23	0xbcae692a	-0.02129038
24	0x3d0a9119	0.033829782
25	0xbb3ddbb0	-0.0028970055
26	0x3d9808e0	0.07423568
27	0x3d3a489f	0.045479413
28	0x3d81623e	0.06317566
29	0x3be07df0	0.0068509504
30	0x3b10d9db	0.0022102508
31	0xbcab7db4	-0.020933963
32	0xbd2990f8	-0.04139802
33	0x3d293354	0.041308716
34	0x3da372fd	0.07980917
35	0x3cd49878	0.025951609
36	0xbd70364b	-0.058645528
37	0x3ccafffc	0.024780266
38	0xbc86907a	-0.016426314
39	0xbb504caa	-0.0031783977
40	0x3cefacbd	0.029257173
41	0x3be15cd0	0.006877519
42	0x3cc2ce2e	0.023779955
43	0xbbb44873	-0.0055018007
44	0xbd569215	-0.05238541
45	0x3cbb61d4	0.022873797
46	0xbc552191	-0.013008491
47	0x3d1f41f2	0.03888125
48	0x3cf5ffe9	0.030029254
49	0xbd1f7d07	-0.038937595
50	0x3acd2511	0.0015651305
51	0x3c153232	0.009106206
52	0xbcf4f052	-0.02989975
53	0x3cfc840b	0.030824682
54	0x3d356808	0.044288665
55	0xbd83be45	-0.064327754
56	0x3d91d9f0	0.071216464
57	0x3d12dbba	0.03585408
58	0xbd32a6ac	-0.043615982
59	0x3c89cb6f	0.016820638
60	0xbd8e29f4	-0.06941596
61	0x3d197ce0	0.037472606
62	0xbd50ba94	-0.050959185
63	0x3d781eeb	0.06057636
64	0x3d015424	0.031574383
65	0xbd426df6	-0.04746815
66	0x3dae34b9	0.0850615
67	0x3d0697b1	0.032859508
68	0x3d947df5	0.07250587
69	0x3d5282ca	0.05139426
70	0x3dab1d49	0.08355195
71	0x3db6671b	0.089063846
72	0x3b1de84f	0.0024094766
73	0xbcbd580f	-0.023113279
74	0x3d0ac670	0.03388065
75	0xbd000d1d	-0.031262506
76	0x3ccc8f13	0.024970567
77	0xbd647de2	-0.055784114
78	0x3d648bda	0.055797435
79	0x3d9e5657	0.07731312
80	0x3d5956ae	0.05306118
81	0x3d27ecb1	0.04099721
82	0x3d34c43e	0.044132464
83	0x3d6602b7	0.056154933
84	0x3d2c2524	0.042027608
85	0xbc11905b	-0.008884515
86	0xbd9be5b5	-0.076121725
87	0xbd6cbed3	-0.05779917
88	0x3c362fea	0.011119822
89	0x3d319202	0.043352135
90	0x3d06f17b	0.032945137
91	0x3d5c0852	0.053718872
92	0xbc34287c	-0.01099598
93	0xbc935b67	-0.01798792
94	0x3c480a93	0.012209552
95	0xbd8555cf	-0.06510507
96	0xbca6212f	-0.020279495
97	0xbd2480b7	-0.040161815
98	0xbcac6fb1	-0.021049352
99	0xbd3758c7	-0.0447624
100	0xbc37cf86	-0.011218911
101	0x3d174f90	0.03694111
102	0x3d09d4d8	0.03365025
103	0x3af34138	0.0018558865
104	0xbc982f83	-0.018577343
105	0xbd7f464b	-0.062322896
106	0x3a93bcb6	0.001127145
107	0x3cf5e92b	0.03001841
108	0x3d95c5ac	0.073130935
109	0x3d88786c	0.06663594
110	0xbcb621fe	-0.022233006
111	0x3bc4273b	0.005986122
112	0x3da3419f	0.079715006
113	0xbd78e223	-0.060762536
114	0x3d9a8bd4	0.07546201
115	0xbc983a73	-0.018582558
116	0x3d38d4ec	0.045124933
117	0x3d06e687	0.03293469
118	0x3c9c6e25	0.01909549
119	0x3d9e1ea3	0.07720687
120	0xbd1e9fc1	-0.038726572
121	0x3d289de8	0.041166216
122	0xbc612e85	-0.013744001
123	0xbd4ae160	-0.04953134
124	0x3d8c00af	0.06836068
125	0xbd3752ea	-0.044756807
126	0xbda4688c	-0.08027753
127	0x3bafa428	0.005360145
128	0x3d065bb3	0.032802295
129	0xbd8e0523	-0.069345735
130	0x3d5ae4e8	0.05344096
131	0xbd506844	-0.050880685
132	0x3c8fecc7	0.017568959
133	0x3c7ed69f	0.015554099
134	0xbd19282a	-0.03739182
135	0xbd1f6122	-0.038910992
136	0x3d0e62be	0.034762137
137	0x3c7a303c	0.015270289
138	0x3cce6c94	0.025198258
139	0x3d4926e4	0.049109355
140	0x3d10133c	0.035174593
141	0xbc992364	-0.018693633
142	0xbd6b04de	-0.05737769
143	0x3d37e92a	0.044900097
144	0xbd43d839	-0.047813628
145	0x3c84d9f7	0.016217215
146	0xbc5ad821	-0.013357193
147	0xbd1c3987	-0.0381408
148	0x3d67f5e4	0.056630984
149	0x3d07bb57	0.033137646
150	0xbacc96b6	-0.001560888
151	0xbcd11ca8	-0.02552636
152	0x3c10341c	0.008801486
153	0x3c8d59a6	0.017254662
154	0xbd887b1f	-0.066641085
155	0x3bbc9592	0.005755135
156	0xbd46795a	-0.048455574
157	0x3c7d1b1a	0.015448356
158	0x390fe90b	0.00013724358
159	0x3c115a03	0.008871558
160	0xbcf67256	-0.030083816
161	0x3d7c2abd	0.061564196
162	0x3ce7cb67	0.028295232
163	0x3da509e4	0.08058527
164	0xbd73145e	-0.059345596
165	0x3cb05a41	0.021527411
166	0xbc75305c	-0.014965143
167	0xbda829f0	-0.08211124
168	0xbd16b0ca	-0.036789693
169	0x3ca44bac	0.020055614
170	0xbcad699a	-0.021168519
171	0xbc844e56	-0.016150635
172	0xbd441c45	-0.047878522
173	0x3d1bbf07	0.038023975
174	0x3d3b18a6	0.045677803
175	0x3c645ee0	0.013938636
176	0xbd05de41	-0.03268266
177	0xbd19d665	-0.03755798
178	0xbda08d6e	-0.078394756
179	0x3d873ee3	0.066037916
180	0x3c11cb3d	0.008898553
181	0x3c8d4362	0.017244045
182	0xbcb85cc8	-0.022505179
183	0xbc48dbd7	-0.012259445
184	0xbbab14d5	-0.005220989
185	0xbd33518e	-0.04377895
186	0x3d88b79f	0.06675648
187	0x3d1d007c	0.03833054
188	0xbc175740	-0.009237111
189	0x3cb53c25	0.022123406
190	0xbcc662e8	-0.024217084
191	0xbd83e3cd	-0.06439934
192	0x3d9c8cea	0.07644065
193	0x3cdc9200	0.026925087
194	0x3d60cb9d	0.05488168
195	0x3d28dd87	0.04122689
196	0x3cba1bb1	0.022718282
197	0x3b069b03	0.0020539172
198	0x3d056053	0.032562565
199	0xbd4c174e	-0.049826913

pool1.graph_pool.gnn.lin_r.weight f4 [1, 200]
0	0x3c3ac6e6	0.01139996
1	0xbc1c844c	-0.009553026
2	0xbd48c45d	-0.04901539
3	0x3d668af9	0.05628488
4	0xbd49434c	-0.049136445
5	0x3d2ceafa	0.04221628
6	0x3d8cb9b1	0.06871355
7	0xbda110bd	-0.07864521
8	0x3c1b7397	0.009488008
9	0xbd1f0d7f	-0.03883123
10	0xbc724856	-0.014787754
11	0x3d07f34d	0.033191014
12	0x3c4a5f13	0.012351769
13	0xbb1723a9	-0.0023062027
14	0x3d8c0dd8	0.06838578
15	0xbd098201	-0.033571247
16	0x3dbc5652	0.09196152
17	0x3d2f6585	0.042821426
18	0x3ca370f1	0.019951316
19	0xbdc07ba3	-0.09398582
20	0xbd90806b	-0.07055744
21	0x3dcb877c	0.09937951
22	0xbdb75fe4	-0.089538366
23	0xbd98ab76	-0.074545786
24	0x3d227952	0.03966648
25	0xbdaabbdc	-0.083366126
26	0x3d8d1c10	0.06890118
27	0xbda54e37	-0.08071559
28	0x3d894a7e	0.067036614
29	0x3bcf79a2	0.0063316384
30	0x3cdb6c00	0.026784897
31	0xbc1afd22	-0.009459766
32	0x3d99573c	0.07487342
33	0xbcc62a89	-0.024190204
34	0x3d944123	0.07238986
35	0x3c25a34f	0.010109737
36	0xbdb8cecf	-0.090238206
37	0x3d43e862	0.04782904
38	0x3c9d7abe	0.019223567
39	0x3c0c87d2	0.008577304
40	0x3cfcf370	0.030877799
41	0x3cfe4d5c	0.031042747
42	0x3c8fcae3	0.017552799
43	0x3bd4ff08	0.0065001287
44	0x3d168ed1	0.036757294
45	0x3cebfe1c	0.028807692
46	0xbc9c7e60	-0.019103229
47	0xbc86504a	-0.016395707
48	0x3d8d0c81	0.068871506
49	0x3b619c65	0.0034425494
50	0xbcdc6b1e	-0.026906546
51	0xbd9b7261	-0.075901754
52	0xbd454eea	-0.04817096
53	0x3d92bdcb	0.071651064
54	0xbdb72f15	-0.08944527
55	0x3d5e983b	0.054344397
56	0xbcac99c7	-0.02106942
57	0xbcb9d2d2	-0.022683535
58	0xbd056c1a	-0.032573797
59	0x3dbd2b06	0.09236722
60	0xbc2561ae	-0.010094089
61	0x3cf2d91b	0.02964454
62	0x3cf64b5c	0.030065231
63	0x3d0fd816	0.035118185
64	0x3da5bccf	0.08092653
65	0x3af951b8	0.0019021546
66	0x3c6ebbc7	0.014571137
67	0xbd5f662e	-0.054540806
68	0xbc2b98d3	-0.010473448
69	0xbb96c361	-0.0046009277
70	0xbd218186	-0.039430164
71	0xbb209e61	-0.0024508464
72	0x3d73f872	0.059563108
73	0x3d2671b7	0.04063579
74	0x3d8e0c90	0.0693599
75	0x3d40f5da	0.047109462
76	0xbd6ce5d5	-0.057836372
77	0x3d649c15	0.055812914
78	0x3c02501e	0.007953672
79	0xbd81b239	-0.063328214
80	0x3c652da6	0.013987934
81	0xbc52c82b	-0.012865107
82	0xbd89faaa	-0.067372635
83	0x3d574b2f	0.052561935
84	0xbda13979	-0.0787229
85	0x3d1ca20e	0.038240485
86	0xbdada695	-0.084790386
87	0x3c9aefee	0.018913236
88	0x3d0898ed	0.033348966
89	0xbda0b44e	-0.078468904
90	0xbda53c30	-0.080681205
91	0xbd05f549	-0.032704625
92	0x3d14858a	0.036260165
93	0xbd8fa38d	-0.07013617
94	0xbdccdc9e	-0.10003017
95	0x3d690ed8	0.05689892
96	0x3b7a3c5d	0.0038182952
97	0xbd96ef60	-0.07369876
98	0x3d652225	0.055940766
99	0x3c7aa23c	0.015297469
100	0x3d7a895e	0.06116616
101	0xbd57cea8	-0.052687317
102	0x3d4413da	0.047870494
103	0xbc107e43	-0.008819166
104	0xbd59c857	-0.053169575
105	0xbd3f21b2	-0.046662994
106	0xbc5b9100	-0.01340127
107	0x3cc09d64	0.02351255
108	0x3d63ee18	0.055646986
109	0xbbda7304	-0.006666543
110	0x3d4027ce	0.04691296
111	0xbc3ca4e5	-0.011513923
112	0x3d8d6bad	0.06905303
113	0x3d2d1296	0.042254053
114	0x3d9f7225	0.07785443
115	0xbaefd0d8	-0.0018296493
116	0xbd2d2d0f	-0.0422793
117	0x3d1a8e50	0.037733376
118	0x3c47cfe0	0.012195557
119	0xbd34d4be	-0.0441482
120	0xbd350075	-0.04418989
121	0xbcd48c30	-0.025945753
122	0x3c79ed6d	0.015254361
123	0x3d833619	0.06406803
124	0x3d9121f2	0.07086553
125	0xbbe58cc8	-0.007005308
126	0x3c7814a6	0.015141642
127	0x3d68dc76	0.056850873
128	0x3c5a626d	0.013329131
129	0x3cbb3d94	0.022856511
130	0xbd62bc79	-0.055355523
131	0xbcaa5006	-0.020790111
132	0xbd37dcb1	-0.044888202
133	0x3bb13a31	0.0054085483
134	0x3b55a896	0.0032601706
135	0x3d4a9aba	0.049463965
136	0xbc40333e	-0.011730967
137	0x3d8f567f	0.0699892
138	0xbbca6a60	-0.0061772317
139	0x3cf6e11c	0.030136637
140	0xbdb30ded	-0.087428905
141	0x3cdad157	0.02671115
142	0x3d135581	0.035970215
143	0x3da08403	0.07837679
144	0x3d2e2883	0.042519104
145	0x3ca316ae	0.019908275
146	0xbd04c546	-0.032414697
147	0xbd2814bb	-0.041035395
148	0xbd369c9f	-0.04458296
149	0x3d469e8b	0.048491042
150	0xbd6632ac	-0.05620067
151	0xbd28814b	-0.04113893
152	0xbc5620a1	-0.013069303
153	0x3d5661f6	0.052339517
154	0xbdb25f63	-0.087096
155	0x3bbce769	0.005764891
156	0x3d92261c	0.07136175
157	0xbd6200d3	-0.055176567
158	0x3d9f033b	0.07764288
159	0x3c566bb7	0.013087205
160	0xbd93912e	-0.07205425
161	0xbd7c86d3	-0.061652016
162	0xbd14c501	-0.03632069
163	0x3b355ac0	0.00276725
164	0x3cf7468b	0.030185005
165	0xbd0b951e	-0.034077756
166	0xbd0dfd21	-0.03466523
167	0xbc4b1714	-0.012395639
168	0x3dadc191	0.084841855
169	0xbdc8ef9c	-0.09811327
170	0xbd3b2b82	-0.04569579
171	0xbdc0c91a	-0.09413357
172	0x3da2915c	0.07937881
173	0x3c36d8e5	0.01116011
174	0xbc93fd17	-0.018065019
175	0xbd00ae6d	-0.031416345
176	0xbd9528a0	-0.07283139
177	0x3d7743a3	0.060367238
178	0x3d5d20f8	0.05398652
179	0xbcbad4e7	-0.022806598
180	0x3d31935f	0.043353435
181	0x3ccce85f	0.025013147
182	0xbd841df9	-0.06451029
183	0x3d2fc0c2	0.042908438
184	0x3c996d23	0.018728798
185	0x3d7e0693	0.06201799
186	0xbce4aebb	-0.02791535
187	0xbd2d5edb	-0.04232679
188	0xbd543a58	-0.051813453
189	0x3cd61b11	0.026135953
190	0xbd8038ca	-0.06260832
191	0x3d6529ec	0.055948183
192	0xbd27297a	-0.04081104
193	0x3c6dab61	0.014506192
194	0xbd169471	-0.03676266
195	0xbd1fbcc2	-0.038998373
196	0x3c1e04c6	0.009644693
197	0xbd5f7302	-0.05455304
198	0xbb165110	-0.00229365
199	0xbd7193af	-0.058978733

fc.weight f4 [2, 200]
0	0xbcfdc05e	-0.030975517
1	0xbda48bb3	-0.08034458
2	0x3c78021e	0.0151372235
3	0xbd4c5a6b	-0.049890917
4	0x3d0ee749	0.03488854
5	0xbcf635fb	-0.030055037
6	0xbd54137d	-0.051776398
7	0x3c5cc942	0.013475718
8	0x3d20433d	0.039126623
9	0xbd93df80	-0.072203636
10	0x3d0c5060	0.03425634
11	0xbd644651	-0.05573112
12	0xbdabe039	-0.083923765
13	0xbd43eaf1	-0.04783148
14	0x3c96929d	0.018380458
15	0xbdba11cf	-0.09085428
16	0xbd32e3ad	-0.04367416
17	0x3ceea4e0	0.029131353
18	0xbb811b4b	-0.003940021
19	0x3d1608ba	0.036629416
20	0x3cfad439	0.030618774
21	0xbc99189f	-0.018688498
22	0xbc0c46c1	-0.008561791
23	0x3d099f25	0.033599038
24	0xbd73f073	-0.059555482
25	0xbc666a8b	-0.014063488
26	0xbb86d61d	-0.0041148798
27	0xbbcf94c4	-0.006334873
28	0xbce5749b	-0.028009703
29	0xbd78f34d	-0.060778905
30	0x3cd21d60	0.025648773
31	0xbcc23c75	-0.023710469
32	0x3baf4a2a	0.005349417
33	0x3c71706f	0.014736279
34	0x3c306519	0.010766291
35	0x3d3fbe7b	0.046812516
36	0x3d528355	0.05139478
37	0x3d34d680	0.044149876
38	0xbd33e5a0	-0.04392016
39	0xbc8e1c7e	-0.01734757
40	0x3cf408f9	0.029789435
41	0x3ccf90ef	0.025337664
42	0xbcd09c3e	-0.025465127
43	0xbce64f45	-0.02811397
44	0xbc944faf	-0.018104402
45	0x3d11643b	0.035495978
46	0xbc6b35c2	-0.014356079
47	0xbcdeba03	-0.027188307
48	0x3c8418db	0.016125133
49	0x3d3dc5b5	0.046331126
50	0xbd86f2de	-0.06589292
51	0x3c9c3bef	0.019071547
52	0xbce7c206	-0.02829076
53	0xbd6bcab3	-0.057566356
54	0x3ba66534	0.0050779823
55	0x3c541673	0.012944805
56	0xbd0d8eab	-0.034559887
57	0xbd5db585	-0.05412819
58	0x3cb3c178	0.021942839
59	0x3d263edb	0.040587287
60	0xbcdfaf75	-0.027305344
61	0xbdaf282a	-0.085525826
62	0x3d477d9e	0.048703782
63	0xbc909d44	-0.017653115
64	0xbca03729	-0.019557552
65	0x3c1039ac	0.008802813
66	0x3d695dfc	0.056974396
67	0x3d2e49d9	0.042550895
68	0xbc4a566a	-0.012349704
69	0xbc81fbbc	-0.015867107
70	0xbcce637a	-0.025193918
71	0xbda99489	-0.08280284
72	0x3d1c3528	0.03813663
73	0x3ca9c951	0.020725878
74	0xbbffd09c	-0.0078068506
75	0x3d0ae413	0.033908915
76	0x3c02339e	0.007946877
77	0xbd2deef7	-0.042464223
78	0xbd8b2106	-0.06793408
79	0x3d05f1ac	0.03270118
80	0xbcb3f6c9	-0.021968262
81	0xbca4a7b9	-0.020099508
82	0xbc5baf94	-0.01340856
83	0xbd511f4c	-0.051055238
84	0xbca713ca	-0.020395178
85	0xbda4ada2	-0.0804093
86	0x3d3688b9	0.044563983
87	0xbdbaf50e	-0.09128772
88	0xbac24485	-0.0014821446
89	0xbd858196	-0.06518857
90	0x37fcf617	3.0155335e-05
91	0xbcb1e1b4	-0.021714069
92	0xbd26b7d8	-0.04070267
93	0xbc196647	-0.009362764
94	0xbd7507e5	-0.059821982
95	0xbd09eddf	-0.033674117
96	0x3cd55f50	0.026046425
97	0xbcfaaa97	-0.030598922
98	0xbd0b16de	-0.033957355
99	0x3c93a61a	0.01802354
100	0x3c87fb5c	0.01659935
101	0x3cf237fd	0.029567713
102	0xbd351ed3	-0.04421885
103	0x3c81e990	0.015858442
104	0xbc61de3f	-0.013785898
105	0xbd901f6e	-0.07037245
106	0x3ce728a6	0.028217625
107	0x3c508320	0.012726575
108	0xbd527c7e	-0.051388256
109	0xbd95611f	-0.07293915
110	0x3d57fa7f	0.052729126
111	0xbd73fb7e	-0.059566014
112	0xbc9178d8	-0.017757818
113	0x3a523560	0.0008018818
114	0xbd8c2d91	-0.068446286
115	0x3d646145	0.055756826
116	0xbd768276	-0.06018301
117	0xbc1223cb	-0.0089196665
118	0x3d50439c	0.050845727
119	0x3cb13fa7	0.021636797
120	0xbced1c75	-0.028944233
121	0xbc84cb76	-0.016210299
122	0x3c820884	0.015873201
123	0xbd1ba305	-0.037997264
124	0x3d283fc4	0.041076437
125	0xbb70a240	-0.0036717802
126	0xbd96bee5	-0.07360629
127	0xbdbf14e3	-0.09330156
128	0xba4c0d9b	-0.000778401
129	0x3b2ee9bd	0.0026689612
130	0xbd950222	-0.072757974
131	0xbced11c7	-0.028939141
132	0x3c82f2fe	0.015985008
133	0xbd82c64d	-0.06385479
134	0xbab8e097	-0.0014105019
135	0xbcc7d673	-0.02439425
136	0xbc4010ef	-0.011722787
137	0xbd95df31	-0.07317961
138	0x3d3044c4	0.04303433
139	0x3d43f133	0.047837447
140	0xbd63534f	-0.05549937
141	0x3cb01d62	0.021498386
142	0xbc81690e	-0.015797164
143	0x3ac70f8d	0.001518713
144	0xbd7dfd16	-0.06200894
145	0x3cd220d5	0.025650421
146	0x3d616fd0	0.055038273
147	0xbd8b56cf	-0.06803667
148	0xbda7e96c	-0.081988186
149	0x3c40ebdc	0.011774983
150	0x3c612281	0.0137411365
151	0xbbb552b1	-0.005533539
152	0xbcdc6ec9	-0.026908295
153	0xbcc1888b	-0.02362468
154	0x3cf22f82	0.02956367
155	0xbd0e83de	-0.034793727
156	0xbbb99e13	-0.005664596
157	0xbd21b585	-0.03947975
158	0xbda04415	-0.078254856
159	0x3d0443c1	0.032291178
160	0x3cd2162e	0.025645342
161	0xbb9a0f7b	-0.0047015524
162	0x3ce2d7e5	0.027690837
163	0x3cfc67ee	0.030811276
164	0xbdb6bddd	-0.08922932
165	0x3cb34acd	0.021886254
166	0x3b6a2580	0.0035727918
167	0xbc832c58	-0.016012356
168	0xbcf88b00	-0.030339718
169	0xbd9747a0	-0.07386708
170	0xbc5318bc	-0.012884315
171	0x3d4960d0	0.049164593
172	0xbd223a4b	-0.039606374
173	0x3d3fd1f6	0.046831094
174	0xbca69dc9	-0.02033891
175	0x3d4f88cf	0.05066758
176	0x3c06df89	0.008232006
177	0xbd90a085	-0.07061867
178	0x3c66d747	0.014089412
179	0xbd2c5976	-0.042077504
180	0xbb59e508	-0.0033248086
181	0xbd168908	-0.036751777
182	0x3d3970c4	0.045273557
183	0x3d171a46	0.03689029
184	0xbc3d9da3	-0.011573228
185	0x3d7efba3	0.0622517
186	0xbda75e4c	-0.081722826
187	0xbd85ee57	-0.065396
188	0x3cb8830b	0.022523424
189	0xbd2385be	-0.03992247
190	0xbc47515c	-0.012165394
191	0xbdbc29d0	-0.091876626
192	0x3bb05bef	0.005382053
193	0x3d136245	0.03598239
194	0xbd9ab723	-0.07554462
195	0x3adc0ceb	0.0016788518
196	0xbd9301ae	-0.07178055
197	0xbce4e6cb	-0.027942082
198	0xbd72b7a2	-0.059257157
199	0xbd571652	-0.05251152
200	0xbc9734ad	-0.018457735
201	0x3ce53726	0.027980398
202	0xbd6b9a6c	-0.057520315
203	0x3bad3b0e	0.005286581
204	0x3d9770d8	0.0739457
205	0xbca39b1b	-0.019971421
206	0x3a803b82	0.000978336
207	0x3c2991b7	0.0103496825
208	0xbd4aebfc	-0.04954146
209	0xbd22ac16	-0.039714895
210	0xb99914cf	-0.00029197938
211	0x3cbb5163	0.022865957
212	0x3bd80e6d	0.0065935166
213	0xbc017b2f	-0.007902904
214	0xbcfeec8f	-0.03111866
215	0xbc6f120d	-0.014591706
216	0x3d4afe15	0.049558718
217	0xbd693829	-0.056938324
218	0x3c7ea2da	0.0155417565
219	0x3c1631f2	0.009167181
220	0x3d287836	0.041130267
221	0x3dc2dc09	0.095146246
222	0x3d20ac31	0.039226715
223	0xbc113e4d	-0.008864951
224	0x3d24ac47	0.04020336
225	0xbcca2102	-0.024673942
226	0x3d14fdd0	0.036374867
227	0x3d1d8e84	0.03846599
228	0x3d017869	0.031608973
229	0x3d9bc9fe	0.07606886
230	0x3d17d186	0.03706505
231	0x3d0f14e5	0.034932036
232	0x3ccfd013	0.025367772
233	0x3d61ee0c	0.05515866
234	0x3b87e780	0.00414747
235	0xbd4da7be	-0.0502088
236	0x3d9d98b6	0.07695143
237	0xbd3afd9a	-0.04565201
238	0x3c469eb4	0.012122799
239	0xbd303a94	-0.043024614
240	0xbaa3bad6	-0.0012491595
241	0x3d500c86	0.050793193
242	0x3d7df141	0.061997656
243	0x3d80910c	0.062776655
244	0xbd3ad7f8	-0.04561612
245	0xbd08a7d6	-0.033363186
246	0x3c14de67	0.009086228
247	0xbcb502fd	-0.022096151
248	0x3d7d7d32	0.061886974
249	0x3d806f84	0.0627127
250	0x3d1aefe8	0.03782645
251	0xbd5361b8	-0.051606864
252	0xbcb5e458	-0.02220361
253	0x3d6be77e	0.057593815
254	0x3c9b7c1c	0.018980078
255	0x3ab5687c	0.0013840343

fc.bias f4 [2]
0	0x3d8f71dc	0.07004139
1	0x3cebe60e	0.028796222
