assets/pretrained_AST_TJ_RTL/model.pth (torch, 231552 bytes, 8 tensors)

layers.0.graph_conv.weight f4 [79, 200]
000000 fe bd 27 bd 78 fc d7 3b c0 e7 a9 3c 71 2c 78 3d
       -0.040952675 0.006591376 0.02074039 0.060589258
000010 dc 3b fd bc 3c f9 ce 3c f5 45 b4 3d 9f ec 16 3d
       -0.030912332 0.025265329 0.08802406 0.036846753
000020 f8 70 a0 3d 6b 12 f8 3c 47 f5 bb 3d 07 e6 f7 bc
       0.07834047 0.03028222 0.09177642 -0.030261053
000030 82 f1 cf bd cb 9f 5f bc e4 52 b1 bd 82 73 ea 3d
       -0.10153486 -0.013648937 -0.08658388 0.114478126
000040 dc 34 52 bd 73 79 02 3e f8 fb 22 bd 2d 82 1b bd
       -0.051319942 0.12741642 -0.039791077 -0.037965942
000050 e9 d7 44 bd d5 72 2c bc 0f 36 3b bd d1 5e 17 bd
       -0.04805747 -0.010525425 -0.04570585 -0.03695566
000060 1d d2 cc bd a8 d6 f2 3c 37 33 99 3d ed 56 e3 3a
       -0.100010134 0.029643372 0.074804716 0.0017344631
000070 69 a1 19 bb 1f 67 8b bd 0f a5 e0 3d a3 e7 08 3b
       -0.0023442155 -0.06806778 0.109689824 0.002089002
000080 96 e3 8d bd 0b 68 1c bc 6a a3 36 bc 23 de 9a 3d
       -0.06928174 -0.00954629 -0.011147359 0.075619005
000090 ea 9d fd bc 12 25 02 bd fd 27 c7 3d 8e e7 b6 3d
       -0.030959088 -0.031773634 0.09724424 0.08930884
0000a0 64 a9 69 3c ef e8 00 3e 39 0c 26 3d 13 7a 6b 3c
       0.014261577 0.12588857 0.040539 0.0143723665
0000b0 18 5f 91 3d a1 f2 2d bd f0 4e 94 3d 79 a1 92 3c
       0.07098216 -0.042467717 0.07241619 0.017899262
0000c0 96 21 86 bd 41 24 33 bd d1 d6 15 3d e1 3a 4a 3c
       -0.06549375 -0.043735746 0.036581818 0.012343139
0000d0 05 8e a5 bd 4c c9 2a bd 92 df 2d 3d 1a b6 6a bd
       -0.08083729 -0.041695878 0.04244954 -0.05730257
0000e0 c2 8a e4 3d 2e bc db bc 97 09 66 bd 62 6b 4d bc
       0.111592785 -0.02682313 -0.05616149 -0.012537809
0000f0 b1 87 27 3c f8 44 56 bd 40 3e 9d bd 6d a8 eb bc
       0.010225222 -0.052311867 -0.07677889 -0.028766835
000100 9a 64 f4 3b a2 06 72 3d 93 2c 5e bd 95 06 03 3c
       0.0074582817 0.059088357 -0.054241728 0.007997175
000110 d5 b0 ac 3b 02 9e 05 bd 1a cc c7 3d e6 98 08 3e
       0.0052701035 -0.03262139 0.09755726 0.13339576
000120 94 94 42 3d 6a 60 c6 3b ea 4a 93 3b ab d1 06 3d
       0.047504976 0.006053974 0.0044950144 0.0329148
000130 62 47 82 3d 0d 3f 13 bd 8f b4 b0 3d 21 63 03 3e
       0.063612714 -0.0359488 0.08628189 0.12830783
000140 b3 e2 0a bd 52 0a 4c bd 17 4c 99 bc ea c4 a0 bc
       -0.033907603 -0.04981453 -0.01871304 -0.019625146
000150 af d1 96 ba 3e 05 cb bc f5 ea 92 bd 70 3f f9 bc
       -0.0011506582 -0.024782773 -0.07173721 -0.030425757
000160 35 dc 30 bd 27 46 c5 3b 0e 60 73 3d 51 be 83 bc
       -0.043178756 0.0060203257 0.059417777 -0.01608196
000170 b2 a2 a3 bc 9c f0 02 3d 99 94 71 bb 6e 76 d8 3d
       -0.01997504 0.031967744 -0.0036862253 0.10569464
000180 fc 15 d9 bc e6 9c f4 bc f2 67 d3 3d c5 38 08 bd
       -0.02649974 -0.029859971 0.1032256 -0.033257265
000190 c2 16 cb 3d 1e 03 9e bd 4a 49 d8 ba 0d 0e ae bd
       0.0991645 -0.07715438 -0.0016501334 -0.08498774
0001a0 78 99 27 bd 6f 0e 90 bc c5 eb ae 3b 4d f2 0c 3d
       -0.040917844 -0.017585007 0.0053381645 0.034410764
0001b0 a6 d4 be bd e1 1f 80 3b 6d fa 78 bc 0e 75 d1 bd
       -0.09317903 0.0039100503 -0.015196425 -0.102274045
0001c0 a8 d4 61 bd 6a 5e 0c 3e c2 55 49 3d 7b 50 90 bd
       -0.055134445 0.13707891 0.04915405 -0.070466004
0001d0 2b ce ae bd 5b 1a f8 bc 19 4c 09 bd 59 06 9c bd
       -0.08535417 -0.030286005 -0.033519838 -0.07618398
0001e0 1e e2 2f 3b 1f 21 a8 bd f4 22 27 bd c4 e2 51 3d
       0.0026837657 -0.08209442 -0.04080482 0.05124165
0001f0 6f 14 12 bd f2 ad cc 3d 54 a7 04 3d de 66 7e bd
       -0.03566402 0.09994115 0.03238614 -0.06210982
000200 b1 25 9d 3d 00 94 dc 3d 29 db dc 3d 0c c3 83 3d
       0.07673205 0.10770416 0.10783989 0.064336866
000210 d0 de 0a bd 93 6c 09 bd 44 9e ea 3d 47 66 72 bc
       -0.033903897 -0.03355081 0.11455968 -0.014794893
000220 82 88 2f bd 44 76 65 bc 54 a0 29 bd 87 d1 76 ba
       -0.042854793 -0.0140052475 -0.041412666 -0.0009415377
000230 95 2d a0 bd f9 81 a7 3d 7a 93 72 bd 56 1a 1f bd
       -0.07821194 0.08179087 -0.059222676 -0.038843475
000240 9b df e0 3b 16 53 a9 bd 2c b5 c0 3d 01 4d 8b 3d
       0.0068625933 -0.082678005 0.09409556 0.06801797
000250 cc ef f4 3d ff b2 9e bd 3f 1c 6b bd 82 ab e8 bc
       0.119598 -0.077489845 -0.057399984 -0.028402094
000260 14 19 50 3d 42 8b b2 bd b6 10 90 bd 60 a8 22 bd
       0.050805166 -0.087179676 -0.07034437 -0.039711356
000270 44 81 98 3d 05 6e e1 bc b0 ca c8 bd f9 92 65 ba
       0.074465305 -0.027518282 -0.098042846 -0.00087575574
000280 5e 2b 80 3c 09 48 23 3d c4 5b 50 3d 98 37 97 bd
       0.01564568 0.03986362 0.050868765 -0.073836505
000290 f8 a6 b8 3d 10 98 05 3d 77 89 53 bd 52 f4 e3 bc
       0.09016222 0.03261572 -0.05164477 -0.027826462
0002a0 68 3d a1 3d a4 9c 76 3d 58 bc 0f 3d 7f 86 b5 bc
       0.078730404 0.060207978 0.035091728 -0.02215886
0002b0 c8 b1 74 3d 31 00 23 bd ad ce b4 3d c3 95 12 bd
       0.059739858 -0.039795104 0.08828483 -0.035787355
0002c0 6d 49 9d 3d 5a df 98 3d a7 9d cd bc 5f 73 d8 3b
       0.076800205 0.07464476 -0.025099589 0.00660555
0002d0 54 cf 80 bc 05 02 98 3d fd 98 57 bd 06 05 fa 3d
       -0.015723862 0.0742226 -0.052636135 0.122079894
0002e0 38 43 dc bd ca 86 01 3e 9f 71 64 3c d3 aa a6 3d
       -0.107550085 0.12649074 0.013943105 0.08138051
0002f0 68 81 8c bd 3d 62 8b 3d 5f e6 c3 3d 83 2e da 3d
       -0.0686062 0.06805847 0.09565424 0.10653403
000300 26 fa 00 bd 15 0b db 3d f8 cb bf bc 43 25 67 3d
       -0.03148856 0.10695473 -0.02341269 0.05643202
000310 7a 52 fe 3c 18 77 b9 3d 3c 28 82 3b 3e 2e db 3c
       0.031045187 0.090559185 0.0039720815 0.026755448
000320 7e 23 29 bd 27 14 93 ba e2 5d 23 bc 7f 88 90 3d
       -0.041293614 -0.0011221216 -0.009971114 0.070572846
000330 c4 88 27 bd d5 7e 85 b6 cf 2b 7d b6 20 54 62 3d
       -0.040901914 -3.978474e-06 -3.7725438e-06 0.05525601
000340 d2 fb 9d 3d 67 5f ac b8 aa 94 b2 3d 80 d2 81 bd
       0.077140465 -8.219369e-05 0.08719762 -0.06338978
000350 1c cb 8b 3d 2b ed c8 35 4f 02 ad 3d 7d a3 a4 3d
       0.068258494 1.4970186e-06 0.08447706 0.080389954
000360 75 59 52 38 94 7a 82 b8 5c a1 57 3c 00 1f 12 bd
       5.0151215e-05 -6.221715e-05 0.01316103 -0.035674095
000370 5f 4d 88 36 6f 5e b7 b6 7a ca 88 3d ed 9d b5 3b
       4.062123e-06 -5.4648185e-06 0.06679244 0.005542508
000380 f3 e3 2b bc e7 07 45 bc c0 44 a7 3d 7c a1 30 3d
       -0.010491359 -0.01202581 0.0816741 0.043122754
000390 a8 29 a9 bc 19 7d e0 bd 11 c9 d6 3c e0 ea de bd
       -0.020649746 -0.109613605 0.026218923 -0.108846426
0003a0 de a2 b3 3d 14 fb 00 3d 9f 65 20 36 25 a4 59 3c
       0.08771299 0.031489447 2.390101e-06 0.013283764
0003b0 b2 d6 c5 3c 34 6e ca 3d ea 44 a6 3c 24 8b 46 38
       0.024150226 0.09884301 0.020296533 4.7336463e-05
0003c0 db 77 d9 3c bb 49 28 b7 7e f4 ea bc a0 37 ca bc
       0.02654641 -1.0030747e-05 -0.028681036 -0.024684727
0003d0 62 3e 6d bd f8 6f ba 3d af 50 92 3a 5a ed 65 bb
       -0.05792082 0.091033876 0.0011162962 -0.00350841
0003e0 2a 83 6a 36 f3 22 f3 39 00 23 b4 bb 8b 51 a0 3d
       3.4945065e-06 0.0004637461 -0.0054973364 0.07828053
0003f0 5e 4b c4 3d 20 a4 4f 3a 66 a5 ad 3a 62 18 0d 3d
       0.09584688 0.000792088 0.0013248145 0.03444708

layers.0.graph_conv.bias f4 [200]
000000 c8 52 22 39 a6 fe 6e bc c6 07 14 3c b2 ef 92 3c
       0.00015480362 -0.01458708 0.009035056 0.017936561
000010 22 70 c6 ba 1f dc 91 b7 5f 8a dc ba bc 94 80 3c
       -0.0015139619 -1.7387849e-05 -0.0016825906 0.015695922
000020 6e 5d 6e bb c8 82 a4 3c 62 27 c2 3c 0c e5 3b ba
       -0.0036371606 0.020081893 0.02370042 -0.00071676145
000030 0f dd 12 ba 0c 0e 38 bc 53 a2 db bb 14 a5 89 bb
       -0.00056023983 -0.011233818 -0.0067027 -0.004200587
000040 fb f3 86 bb 33 0d ea 3c 91 bd 6d 3b c5 06 44 3c
       -0.00411844 0.028570747 0.003627632 0.011964505
000050 64 f5 40 bc 71 67 1f bc 9b dd b7 bc dd 11 dd bc
       -0.011777256 -0.009729252 -0.022444537 -0.026986057
000060 38 2d 43 3b 2c 30 aa 3c 50 27 1c 3c 25 7f 05 3c
       0.002978159 0.020774923 0.009530857 0.008147989
000070 e5 9b 2b bc 46 75 a0 3c dc cb 87 3b c6 2b 52 3b
       -0.01047418 0.01958717 0.004144175 0.0032069548
000080 fb 44 59 3b 40 5c 56 3c 94 82 7d bb aa 8e ef 3b
       0.0033152688 0.013083518 -0.0038682567 0.007310708
000090 98 15 c0 3c e6 39 f5 bb b7 48 d9 3b 7c c9 f8 3c
       0.023447797 -0.0074837087 0.0066309827 0.030369513
0000a0 2b eb 82 3b 14 b3 62 bb 56 16 db 3b 93 d5 d8 bb
       0.0039953194 -0.0034591602 0.0066860123 -0.006617257
0000b0 34 c7 fb 3b b5 05 f4 ba 41 c9 36 3a 18 67 95 bb
       0.007683659 -0.0018617423 0.0006972738 -0.004559409
0000c0 b6 65 04 bd c2 b5 9a 3b 0f 61 05 bc 21 3e 3e bc
       -0.03232356 0.0047213743 -0.008140816 -0.011611492
0000d0 3b a1 9b 3c a2 13 f4 3b eb a7 30 3d c8 67 0e 3d
       0.01899778 0.0074486295 0.04312889 0.034766942
0000e0 21 5c 25 39 b5 19 b6 bb 0e 7a 43 bb 62 4c fc 3b
       0.00015769947 -0.0055572637 -0.002982739 0.007699535
0000f0 ba c5 da bb 9d d1 27 3c 2a 8d 4a bb 18 6a 26 3b
       -0.006676403 0.010242847 -0.0030906894 0.0025392827
000100 7b c7 08 3b ef 31 97 bb 32 86 32 3c 95 74 98 3c
       0.0020870853 -0.004614107 0.0108962525 0.018610278
000110 c4 63 54 bc 16 d4 f7 b7 cf 4d 22 3b ce 22 c2 3c
       -0.012963239 -2.9543455e-05 0.0024765616 0.023698237
000120 09 0b 78 bc 19 2f c5 3b fd f7 07 bc 45 40 be 3c
       -0.01513935 0.0060175774 -0.008298871 0.023224005
000130 7a 0f 43 3c 63 44 38 bc b8 01 2d bc fc f3 83 bc
       0.011905545 -0.011246773 -0.010559492 -0.016107552
000140 41 c6 8f 3b 2f 25 81 3c 2e 5c 27 bc 08 db ae 3b
       0.0043876474 0.0157648 -0.010214848 0.005336169
000150 b6 b6 6f bc d6 cc 8f bc 28 94 b7 3b 2c e0 f4 3b
       -0.014630964 -0.017553728 0.0056023784 0.0074730124
000160 68 04 43 bc d3 3e 69 3c 64 5a 54 3b 3a 36 19 bb
       -0.011902906 0.01423617 0.003240251 -0.0023378269
000170 d7 08 da 3b 18 4d a6 3c 5f 37 38 3c b1 aa 89 3c
       0.006653886 0.020300433 0.01124367 0.016805025
000180 d1 70 2a bb 66 c3 2f 3c 7b 5b 79 bb 24 72 06 3c
       -0.0026007185 0.010727739 -0.0038048911 0.008205924
000190 8e 52 06 3b b5 ef e7 3b 90 15 03 3c 0b aa b0 3b
       0.0020495984 0.007078136 0.008000746 0.0053913645
0001a0 50 72 13 bc a5 d4 8a 3b 31 2f 0c b9 d1 ab f1 3c
       -0.008999422 0.004236775 -0.0001336902 0.029500874
0001b0 14 82 7b 3b c8 ae 92 bc 76 f7 09 bc 34 33 97 3b
       0.0038377093 -0.017905608 -0.008420816 0.004614258
0001c0 68 09 99 3c 29 cb b0 bb 2d 67 4a bc cd 93 81 3c
       0.018681243 -0.0053953123 -0.012353701 0.015817547
0001d0 f9 e3 63 bc 45 03 80 ba 33 25 9e b9 8e 81 27 bb
       -0.013909333 -0.0009766599 -0.00030163824 -0.0025559398
0001e0 50 04 0b bc 9d 69 ad 3c 8e 88 59 bc e4 f3 a9 3c
       -0.008484915 0.021168524 -0.013277186 0.020746179
0001f0 70 f9 99 bc 8f 23 de ba 95 e0 0a bc 11 80 17 3c
       -0.018795699 -0.0016947853 -0.008476396 0.009246842
000200 a8 df d6 3c ac 3d 5f 3c 00 48 dd 3b ae 46 20 bc
       0.026229694 0.013625544 0.006752968 -0.009782476
000210 a0 7c 76 3c 09 42 ad 3b d0 07 b2 3b 2c 82 41 3b
       0.015044361 0.005287413 0.00543306 0.0029527051
000220 48 6f 67 3b b7 44 c1 ba 79 7f ab 39 fd b0 c0 bc
       0.0035314132 -0.001474521 0.00032710636 -0.023521895
000230 73 71 31 3c 4a 00 c1 3c d8 de 1d 3b 9e f1 3a 3d
       0.010830271 0.023559708 0.0024089124 0.04564058
000240 8a d3 c8 bb a0 63 f8 3b b6 d2 8c bc 51 e0 e5 bc
       -0.006128733 0.0075802356 -0.017190319 -0.028061064
000250 55 b8 bc 3b 2a 8b 8d 3c 29 25 96 3c 07 e0 07 3a
       0.005759279 0.017278273 0.018328266 0.0005183224
000260 dd 8a 58 3c 9f 41 0f 3c 84 f7 2b 3b 10 db c4 bc
       0.013216701 0.008743673 0.002624006 -0.024030238
000270 22 45 0f 3c 4f 57 69 bb 38 5d ac 3b 69 5c c6 3b
       0.00874451 -0.0035605018 0.005260136 0.0060534966
000280 96 30 a7 bb bc 53 35 3c c0 9b ed 3a c0 d0 a2 bb
       -0.0051022274 0.011067327 0.0018128082 -0.0049687326
000290 06 bc 0d 3c 40 80 60 bc 9c 0d dc 3b f8 dc 25 bb
       0.008650785 -0.013702452 0.0067154896 -0.002530871
0002a0 25 97 32 3d a7 35 c2 3b c7 dd b3 3b 51 c4 19 3c
       0.043601174 0.005926806 0.0054890844 0.009385184
0002b0 a7 4e 39 3c 47 88 0d bb 86 04 4b bb 5e 6b a5 bc
       0.011310256 -0.002159612 -0.0030978038 -0.020192798
0002c0 e8 a5 af 3c e3 13 29 bc 47 06 aa 3b 67 02 9d bc
       0.021441415 -0.010319683 0.0051887366 -0.019166185
0002d0 04 a1 03 bc b4 ff af 3b ee b0 bf bb 96 51 55 bb
       -0.008033995 0.0053710584 -0.005849949 -0.003254985
0002e0 25 42 e0 39 7a 31 60 3b e0 40 90 bc d5 64 ec bb
       0.0004277389 0.0034209178 -0.01760906 -0.0072141686
0002f0 ec 8c 36 3c e9 cb 35 bc 0a 21 44 3c f9 fa d9 bb
       0.011141997 -0.011095979 0.011970768 -0.0066522327
000300 e9 f2 32 3c 8d a1 82 bc db 61 6c bc 6d 03 34 bc
       0.010922172 -0.015946174 -0.014427627 -0.010987145
000310 f6 c6 92 3c f9 a5 95 ba e2 59 a3 bc 3a b8 85 3c
       0.017917138 -0.0011417262 -0.01994032 0.016323198

layers.1.graph_conv.weight f4 [200, 200]
000000 e9 14 2f bd 95 4d 73 3d 2d 84 3c bd 8a 3c fa bd
       -0.04274455 0.05940016 -0.04602449 -0.12218578
000010 31 bc a8 bd aa da 81 3d 2b 02 3c 3c 96 40 f2 bc
       -0.0823902 0.06340535 0.011475126 -0.029571813
000020 65 0e 53 bd 4d d3 70 3b 4f b0 05 3d c9 5d d0 bd
       -0.0515274 0.0036747039 0.032638844 -0.10174138
000030 16 d8 8d bd 4c 0e c6 3d a4 b1 aa bb 18 fb 35 bd
       -0.06925981 0.09670696 -0.0052091647 -0.044428915
000040 0f c0 8e 3c 1e 94 eb 3c b2 1c 83 38 87 b6 d0 3d
       0.017425565 0.028757151 6.251912e-05 0.10191064
000050 33 ad a1 bd b3 ad d6 bc 78 a2 6b 3c 35 bf 3a 3c
       -0.07894363 -0.026205873 0.014381997 0.011398126
000060 e5 0a 6d 3c 56 aa 6c 3b 4a d6 98 bb 00 4b 14 bd
       0.0144679295 0.003611227 -0.004664217 -0.036204338
000070 47 e8 bb bc a7 be d2 bc 28 a9 97 bd 11 33 9e bd
       -0.022937907 -0.025725676 -0.07405311 -0.07724584
000080 f9 be d2 3a 09 98 cf bd c7 9d 3e bd 0e 09 1c 3d
       0.0016078643 -0.1013642 -0.046537187 0.038094573
000090 3a a7 4f bd 75 04 af 3c cd a6 d1 bb f6 e4 8e bd
       -0.05069659 0.02136443 -0.006398058 -0.069772646
0000a0 85 e0 ce 3b 17 8c 57 3d 82 0c bf bd 56 3f 84 bd
       0.006313386 0.052623834 -0.093285576 -0.06457393
0000b0 5a 6d 7b bd 5f 17 68 bc 45 30 43 bc b2 61 47 bd
       -0.061383583 -0.014165728 -0.011913364 -0.048677154
0000c0 41 93 1f 3c 8b 36 3e bc 3c c7 da 3c f3 07 23 bd
       0.009739698 -0.011609684 0.02670633 -0.039802503
0000d0 27 e2 a6 3d 1a 5c 8a 3c 92 05 d0 bd 1b 8f 15 bd
       0.08148604 0.01688962 -0.101573125 -0.03651343
0000e0 a8 55 c1 3d 14 5d 44 bc 79 18 a1 bb 86 0d 17 bd
       0.09440166 -0.011985082 -0.0049162474 -0.03687813
0000f0 54 a0 89 3c 10 17 2a 3d 06 e1 cd bd ab 97 f8 3c
       0.016800083 0.0415259 -0.100526854 0.030345758
000100 b1 f4 51 bd 64 5b 19 3c 59 8a 7e 3d 02 53 b2 bc
       -0.051258747 0.009360168 0.062143657 -0.021768097
000110 45 74 14 bd 3e 08 c8 bd 41 3b 85 3d e8 86 72 bd
       -0.036243696 -0.09767197 0.065054424 -0.059210688
000120 67 51 7a 3d f9 a5 c4 3d 78 fd ab ba 09 9b 26 bd
       0.061112788 0.09601969 -0.0013121804 -0.040675197
000130 0a eb a2 bc f4 97 b5 bc 67 77 94 bd b9 6b 67 3d
       -0.019887466 -0.022167183 -0.07249337 0.056499217
000140 2e 02 67 3d 5a 9b bf 3d b5 98 34 3d a3 71 24 3c
       0.056398563 0.09355803 0.044090945 0.010036859
000150 06 6b b6 bc 56 d6 25 bd b6 7e 13 bc fc 1f 3c bc
       -0.02226783 -0.04048761 -0.009002378 -0.011482235
000160 e2 7c 8d bd 67 03 af bc 6e 38 b9 bd 34 d5 dc 3d
       -0.06908585 -0.021363927 -0.09043966 0.10782853
000170 37 d6 f6 3c 4c b0 60 bb b7 af 57 3c ab e7 c2 bb
       0.030131442 -0.0034284769 0.013164452 -0.005948027
000180 44 e6 bb 3c c4 f7 b9 3d 47 26 af bd 7c 4e b9 3c
       0.022936948 0.09080461 -0.08552223 0.022620432
000190 78 9f 2c 3d ed 7a 2c bd 5a d2 68 bd cf aa 93 3d
       0.04214427 -0.04210942 -0.056841232 0.072103135
0001a0 38 01 30 3d 15 23 06 3d cf 57 fe bc d4 b3 40 3d
       0.042969912 0.0327483 -0.03104773 0.047046497
0001b0 bb 16 43 bd eb 86 e5 bc 65 09 48 3d e2 e3 5e bd
       -0.0476291 -0.028018435 0.048837084 -0.054416545
0001c0 f2 e5 db bd 0d 70 f0 3a 84 5c cb bd d7 71 69 3c
       -0.10737218 0.0018343941 -0.09929755 0.014248333
0001d0 cd 24 75 bd 15 45 0f bd 91 75 18 bd 89 7c f0 3c
       -0.05984955 -0.03497799 -0.037221495 0.029356258
0001e0 18 46 9d bc 24 56 a1 ba 68 2b 95 3d 28 5d 37 3d
       -0.019198462 -0.0012308997 0.0728367 0.044766575
0001f0 6a 1b 76 bc a5 52 c0 3c 57 93 c5 bc b3 0f da 3b
       -0.015021184 0.023476908 -0.024118109 0.0066547035
000200 4f b3 f3 3c bb f2 d4 3c f7 ef 26 bd 4e fb df ba
       0.029748587 0.02599465 -0.040756192 -0.0017088444
000210 eb 71 46 3d f9 2e 0a bd 93 60 ad bd 18 40 a4 3d
       0.048448484 -0.033736203 -0.08465686 0.080200374
000220 98 45 74 bd 4a 96 01 bd 9e 09 4b ba 95 b5 17 bd
       -0.059636682 -0.031637467 -0.00077452685 -0.037038404
000230 43 de 63 3c c1 ba fb bd c2 a4 12 bd 39 08 82 bd
       0.013907972 -0.1229148 -0.035801657 -0.063492246
000240 b8 4c 82 bc fc d7 8f bd ba b6 34 3c fd 5e 9d 3d
       -0.015905723 -0.070236176 0.0110298935 0.07684133
000250 71 07 cd 3b b6 72 9e 3c 8f 38 b8 3c 34 48 91 bc
       0.0062569906 0.019341808 0.022487907 -0.017734624
000260 73 0b 98 3d 20 57 98 3d c0 87 68 3d a5 14 b5 3c
       0.07424059 0.07438493 0.056770086 0.02210457
000270 be b5 3a 3d ff 9e ec 3d a8 d3 22 bb 34 ed 8e bd
       0.04558348 0.115537636 -0.0024845395 -0.06978837
000280 d1 e1 43 bd fd 8a 10 be 11 1d d8 3d eb 8b 37 bc
       -0.047822777 -0.1411552 0.10552419 -0.011202793
000290 e7 8c 81 bb 9e 92 7e bd c0 70 c4 bd d0 44 e9 3b
       -0.0039535644 -0.062151544 -0.09591818 0.007118799
0002a0 f9 7d 92 3d f1 50 ba 3d b6 78 7e bd f0 c4 87 bc
       0.071529336 0.090974696 -0.062126838 -0.0165734
0002b0 fc 67 43 3d ab ef 30 bd 14 f5 1e bd d3 07 3d bd
       0.04770659 -0.043197315 -0.038807943 -0.04615004
0002c0 32 2a ae 3c db 4e b7 bd 8d f2 26 3d 53 45 07 3d
       0.021260355 -0.08950587 0.04075866 0.033025097
0002d0 c3 94 a3 3d dc dc 4f 3d 63 ee 7f 3c 83 6c 46 3b
       0.079873584 0.050747737 0.015620801 0.003027708
0002e0 25 70 85 bd dc 93 03 3d ce 87 8f 3b 46 46 29 3d
       -0.065155305 0.03212343 0.004380203 0.041326784
0002f0 4a 75 0b 3d 95 87 8a bd 4e ee 17 3d 66 4a ec 3c
       0.034047402 -0.067641415 0.0370925 0.02884407
000300 2e 72 8b bc 19 a2 34 3b 83 7a 8e 3d 51 bd 7a bc
       -0.017022219 0.0027562438 0.06956961 -0.015303926
000310 aa e9 06 bd 56 ac 87 3d dc 31 8f bc d3 b4 58 b7
       -0.032937683 0.06624667 -0.01747983 -1.2916705e-05
000320 95 9d b9 3c c9 1c 4d 3d 59 49 09 3d 3f 47 e9 3c
       0.022658149 0.05007628 0.033517215 0.028476356
000330 8a 7a 4e bd ef b7 98 bc 8d fd 50 3d d6 cf a1 3c
       -0.05040983 -0.018642394 0.051023055 0.019752424
000340 c6 07 ad bc 02 05 ea bc 02 c9 20 3a a0 6e 38 3d
       -0.02112187 -0.028566841 0.0006133468 0.045027375
000350 a1 d2 85 3d 63 11 2d 3d 35 c8 74 bd 75 63 a7 bd
       0.06534315 0.04225291 -0.059761245 -0.08173267
000360 2c 0d 1b 3d 76 d4 2e bd 34 9b 92 3c 50 10 05 bd
       0.03785436 -0.042683087 0.017896272 -0.03248626
000370 db 56 8c 3d 15 80 1c bd ca 82 96 3d 57 37 86 3c
       0.06852504 -0.038208086 0.07349165 0.01638381
000380 5d cd b6 bd 14 d8 8d bd 36 e7 e4 3b b2 4a 0a 3d
       -0.08925889 -0.06925979 0.0069855703 0.03376264
000390 a2 93 0f bc 0b eb 98 3d 88 c9 b9 bd 14 49 75 bd
       -0.008763226 0.07466706 -0.09071642 -0.059884146
0003a0 9c b7 33 bd 92 58 8c 3d 98 5b b3 3d 5e 26 94 bc
       -0.043876275 0.06852831 0.087577045 -0.018084701
0003b0 9f 53 1f bd 00 0a c9 3a 7e b1 30 3d df 06 6b bd
       -0.038898107 0.0015338063 0.04313802 -0.0573796
0003c0 bc cc dc bc 51 de cc bd 4d c4 de bd b8 0f c9 3c
       -0.026953094 -0.10003341 -0.10877285 0.024543628
0003d0 80 92 5b bd 0a 5f 76 3d 10 3a b9 3d 6d 82 e3 3b
       -0.05360651 0.06014923 0.09044278 0.006943038
0003e0 ba 9e c5 3d f0 11 82 3d a6 e7 be bc 08 91 2f bc
       0.09649415 0.063510776 -0.023303818 -0.0107157305
0003f0 ec 6e 9d bd d9 1d 52 3b aa 3a 5f bd 31 50 ea bc
       -0.07687172 0.0032061248 -0.054499306 -0.028602691

layers.1.graph_conv.bias f4 [200]
000000 1c 0a 64 bc dc bf 0d 3b 0f d0 b6 bc e6 c0 45 3b
       -0.013918426 0.002162925 -0.022316007 0.003017479
000010 cd 67 68 bc e7 ba 64 3c 9a ea 65 3b 48 04 b0 bb
       -0.014184904 0.013960577 0.003508246 -0.005371604
000020 1f 4e 31 3d fa e7 92 bb bc 86 0d bc ac d5 4b 3c
       0.043287393 -0.00448322 -0.00863808 0.01244108
000030 bf 25 c8 bb ae ae 8c 3c c6 6b 8b bc a1 d0 82 bc
       -0.0061080153 0.017173138 -0.017019164 -0.015968623
000040 91 79 86 bc f6 14 a8 bb 3b 75 4e 3a 18 c4 de 3c
       -0.01641539 -0.005129452 0.0007875745 0.027193114
000050 61 5c 4f bc 26 88 26 bc ea d0 a3 3a 91 1f 19 bc
       -0.012656302 -0.010164296 0.0012498174 -0.009345905
000060 f7 80 38 3b cc b8 be bb 15 20 ad bc 0e b5 32 3c
       0.002815304 -0.0058203693 -0.021133462 0.010907425
000070 2b 90 16 bc 30 dc 8e 3c 54 b6 b4 ba 75 ae ec 3a
       -0.009189646 0.017438978 -0.0013787248 0.0018057363
000080 1c 39 39 bc 8e 27 5e 3b bb cf 82 ba f5 45 8e bb
       -0.01130512 0.0033898088 -0.0009980121 -0.0043418356
000090 09 bb 6b bb 5f 2c 4a 3c 32 a1 bd bb dc 55 1b 3c
       -0.0035969636 0.01233968 -0.0057870382 0.00948092
0000a0 44 f7 3b 3c 43 97 6a 3c 0d 0a aa 3c 5b f4 06 bc
       0.011472527 0.01431829 0.020756746 -0.00823697
0000b0 60 38 45 bb ab a3 60 bc 6b 65 1a bc a3 c4 17 3c
       -0.0030093417 -0.0137108965 -0.009423594 0.00926319
0000c0 95 c6 3e 3c 1e 08 8e bc 96 0f 35 3c f3 b2 4c 3b
       0.011644025 -0.017337855 0.011051079 0.0031234592
0000d0 e5 0f 17 bc 37 07 f1 ba f7 5d b1 3b 46 91 df 39
       -0.009220098 -0.0018388991 0.005412813 0.00042642112
0000e0 0a e2 14 3c af 0b 6e bc e1 6a 58 3b 20 b1 a0 bc
       0.009087095 -0.014529153 0.003302269 -0.01961571
0000f0 f9 7c 07 bc af 65 1e 3d 58 eb 03 3c 28 15 56 bb
       -0.008269542 0.03867119 0.008051716 -0.0032666419
000100 ef 7b 94 bc 03 e2 82 39 ea 43 d7 bb 35 63 2f 3c
       -0.018125502 0.00024963924 -0.0065693753 0.010704805
000110 18 fa 4e bc bc 0e 1b 3c bf 89 ad 3c 91 6d 35 3b
       -0.012632869 0.009463962 0.021183847 0.0027683715
000120 4e 2c 25 3c a5 cd 11 bc 31 14 8a 3c dc 19 f6 3c
       0.010081364 -0.008899127 0.016855331 0.030041628
000130 22 16 87 bc d4 1e a8 ba 58 43 1a bc 6c 87 6b 3b
       -0.016490046 -0.001282657 -0.00941547 0.0035938872
000140 b3 e0 94 bb 38 10 d6 bb 2f f6 3f bc 35 50 cc 3b
       -0.004543388 -0.006532695 -0.01171641 0.0062351474
000150 d6 cb a6 bb d9 ed 2b bc 03 0d 80 3b ef 56 37 bc
       -0.005090217 -0.010493719 0.003907801 -0.01119016
000160 18 ce ae bb 14 7c 4d 3c a6 15 b7 3a 05 da da bb
       -0.005334627 0.01254179 0.0013968244 -0.006678822
000170 ef b3 b9 3a da ed 65 bc b7 05 c1 3b 99 63 03 3b
       0.0014168004 -0.014033759 0.005890574 0.0020048379
000180 73 55 01 bb 16 51 25 bc 34 7b 08 3b 5f 32 eb ba
       -0.001973477 -0.010090133 0.0020825388 -0.0017944089
000190 17 aa f8 3b 24 07 49 3c a2 67 79 bc 1f 9e 1b bb
       0.0075886357 0.012269769 -0.015222462 -0.002374537
0001a0 6a 13 1d bb ec 44 7a ba e0 52 82 bc 10 2a 4d bc
       -0.002396787 -0.00095470133 -0.015908659 -0.0125222355
0001b0 de 7a da bb 3c eb f4 bb 9d bb a2 bb a7 a1 f8 3b
       -0.006667479 -0.007474331 -0.004966213 0.00758763
0001c0 ef 21 14 3b 7f e2 21 3c 15 1d 73 bb 69 37 2e bc
       0.0022603234 0.009880661 -0.0037096192 -0.010633328
0001d0 38 eb 21 3b 9e 74 cd bc c2 21 d7 3b b5 cb 93 bb
       0.0024706852 -0.025080021 0.0065653035 -0.0045103678
0001e0 f3 25 53 bc dd 00 c8 3b 39 b1 7c bc 30 1a c7 3b
       -0.012887466 0.0061036185 -0.015423113 0.00607612
0001f0 ed a9 82 bc 5b f4 c3 3c 4c 24 f6 ba 06 58 69 bc
       -0.015950168 0.023920229 -0.0018779128 -0.014242178
000200 8d bb a0 bc 77 69 67 bc 6a 56 52 bc 8b 91 6a bc
       -0.019620681 -0.014124266 -0.0128379855 -0.014316927
000210 ac 60 b8 3b 58 37 d4 3b 72 0c 77 ba 61 78 8d bc
       0.0056267586 0.006476324 -0.0009424157 -0.017269315
000220 be fb 53 3c 96 d6 d3 ba 22 0b 61 3c a3 57 c9 bc
       0.012938438 -0.0016161974 0.013735564 -0.024577921
000230 c2 44 d2 bb b2 b7 b7 3b f4 98 34 3a 85 09 13 bc
       -0.006416888 0.005606615 0.0006889247 -0.008974438
000240 f2 a4 57 bc de c0 21 bc 21 21 0b 3c 79 3e 06 3d
       -0.013161885 -0.009872643 0.008491785 0.032774422
000250 5b 09 37 bc 75 61 59 3b 27 05 b7 3c de 8c 83 3b
       -0.011171664 0.0033169661 0.022341324 0.0040145954
000260 c7 c1 2a 3c ce 39 30 3b 61 1a 14 3c 42 56 7e bc
       0.010422177 0.0026889923 0.009039492 -0.015523495
000270 c1 8d f0 bb 3e 0a ae ba 6c 6a f9 ba cf 74 d0 3b
       -0.007341117 -0.0013278199 -0.0019028909 0.006361581
000280 99 0e 6d bc f1 c0 32 3b 0f 73 95 ba 14 ef 48 bc
       -0.014468812 0.0027275647 -0.0011402088 -0.012264032
000290 99 df 0e bc 2f 32 cf ba 6a c0 29 3c 11 a6 df bb
       -0.008720302 -0.0015807803 0.0103608165 -0.0068252166
0002a0 ac b2 9e 3c a5 1a 80 39 b0 ae 9c 3b 49 2b 22 bc
       0.019372307 0.00024433914 0.0047815666 -0.009898015
0002b0 25 33 4d bc 4c 91 f3 3b 7e fe 6c bc 1f 83 4d 3c
       -0.012524401 0.007433092 -0.014464973 0.012543469
0002c0 93 27 db 3c e0 48 5b 3c ca 5e 42 3c e2 79 45 3c
       0.026752269 0.013384074 0.01186342 0.012052985
0002d0 36 3c 69 3c 7d c2 27 3b dc 8d d2 3a 28 5a 05 3c
       0.014235547 0.0025598102 0.0016064006 0.008139171
0002e0 02 cd 1b 3c e0 39 ac 3c c8 cf 9d bb f9 56 a4 bc
       0.009509327 0.02102369 -0.004816029 -0.020061003
0002f0 79 43 d7 bb 9d 27 63 bc 6a 6c 64 3c 45 af 36 3b
       -0.0065693227 -0.013864425 0.013941864 0.0027875465
000300 07 eb 53 bc bb 93 da bb 10 7c 55 bc 74 73 b7 3b
       -0.012934453 -0.006670443 -0.013030067 0.00559848
000310 37 e7 d9 3b 53 5c 8d 3b e3 ad 82 bc b8 b7 c0 bc
       0.0066498774 0.0043139844 -0.015952056 -0.023525104

pool1.graph_pool.gnn.lin_l.weight f4 [1, 200]
000000 bd 9b 57 bd 20 6a ea bb e1 46 d4 bc 27 e4 bb 3d
       -0.052638758 -0.0071537644 -0.025912704 0.09174376
000010 7c 42 eb 3a c8 4e 76 3d d0 dc 59 bc ae 8c 94 3d
       0.0017948891 0.060133725 -0.013297275 0.07253395
000020 56 12 81 bd cf 6e 86 3d 22 c4 8c 3c 0c 11 3d bd
       -0.063023254 0.06564104 0.017183367 -0.046158835
000030 c3 8a 7a bd b9 e8 7e bd 4c d3 ed bb fa 10 58 3c
       -0.06116749 -0.06223366 -0.0072578546 0.013187641
000040 fa f1 6c 3d bf 25 43 bd 7c 29 cb 3c fb 8b a9 bd
       0.057847954 -0.04764342 0.024800055 -0.08278652
000050 cb ad c1 3c be 42 56 3d 2e f6 68 3d 0b d0 52 3c
       0.023642441 0.052309744 0.0568754 0.012866984
000060 5b ea bd bc 67 ab f7 3c 80 06 1c bd 0d 8e 16 bd
       -0.023183038 0.030233098 -0.038092136 -0.036756564
000070 a5 b6 1b 3d e5 05 c9 bd 20 3e 90 3c ae fc 9b 3d
       0.03801598 -0.098155774 0.017607749 0.07616554
000080 6a 45 b3 bc 66 ea b4 bc e2 03 61 3d 28 7c 4b bc
       -0.021883685 -0.022084426 0.054935344 -0.012419738
000090 7e 24 8f bb f2 d9 c3 bd 58 29 d6 bc 73 a7 0e 3d
       -0.004368364 -0.09563054 -0.026142761 0.03482766
0000a0 b4 01 82 39 4f 3d 22 bd 67 55 a7 3d a8 31 29 3d
       0.000247968 -0.03960925 0.08170586 0.04130712
0000b0 ba 86 a4 3d c1 7f a8 3c c8 c1 a4 3c 48 ac 87 3d
       0.080335096 0.02056873 0.020111933 0.06624657
0000c0 ab 1f a1 3d 45 c7 16 bc ef c6 72 bd 92 64 85 bc
       0.07867368 -0.009202783 -0.05927175 -0.016283307
0000d0 f0 f6 83 3c 08 2e 3e bd 50 73 9b 3d 5b 43 a2 3d
       0.01610896 -0.046430618 0.075903535 0.07923003
0000e0 8c d9 5f 3c e6 cf b4 3d 20 1a 19 3d ea 09 c9 bc
       0.013662707 0.08828716 0.03737843 -0.02454086
0000f0 d0 38 51 bb a7 bb 51 bd cf a2 a3 3d 07 f8 85 bd
       -0.0031924732 -0.05120435 0.07990038 -0.06541448
000100 1a 08 c0 bc 58 a0 9e 3d a4 84 54 bd 25 dd 9c bd
       -0.023441363 0.07745427 -0.05188431 -0.076593675
000110 92 8c 79 3d 0e 73 31 3d a3 f9 00 bd fc 2b c9 3c
       0.060925074 0.043322615 -0.031488072 0.024557106
000120 60 cd 5c 3c 86 50 57 3d 0e 4c 6c bd c5 2b a5 bd
       0.0134767 0.052567028 -0.05768972 -0.08064989
000130 e5 8b 36 3d 4a f9 4d 3c 5e 90 23 bb 28 93 e2 bc
       0.044567008 0.012571642 -0.0024957876 -0.02765806
000140 90 7f 70 3c e3 93 92 3b a2 fa 6f bb a8 ab 06 bd
       0.014678851 0.004473196 -0.0036617895 -0.032878548
000150 9a 6a 4d 3d 23 dd 37 bc 95 19 06 3d 5a 98 2a 3d
       0.05015049 -0.011222157 0.03273924 0.0416492
000160 85 f8 11 bc 9b 4d 26 3d 64 57 66 bd 79 4f 5d bd
       -0.008909349 0.040601354 -0.056235686 -0.05403087
000170 88 4f f8 ba ba 10 47 bc 77 3d 0d bd e5 61 59 bd
       -0.0018944601 -0.012149984 -0.034482446 -0.053071875
000180 79 e2 e3 3c 31 23 c8 ba 09 9b d3 ba dd d5 23 bd
       0.027817952 -0.0015269277 -0.0016144227 -0.039998878
000190 97 76 0d bd ff f0 fb 3c 4a 63 13 bd f9 88 9a 3c
       -0.034536924 0.030754564 -0.03598336 0.018864142
0001a0 ff 32 78 3d df f2 de bc 64 e1 2e 3d d0 c3 f8 3c
       0.06059551 -0.02721542 0.042695418 0.030366808
0001b0 37 f0 73 3c 54 40 9a bc 94 2c c4 3c 7a 8b 2e 3d
       0.014888815 -0.018829502 0.023947038 0.042613484
0001c0 43 42 9b 3d 9b a0 ae 3d f3 91 28 3d 9b e3 69 ba
       0.07580998 0.08526727 0.041154813 -0.00089221605
0001d0 b1 4f ff bc 9c 56 21 bd 42 91 82 3d a5 e1 28 3d
       -0.03116593 -0.039389238 0.06375362 0.041230816
0001e0 16 30 de 3c 54 00 81 3d ca 13 4f bc e0 0a 8c 3c
       0.027122539 0.06298891 -0.012638995 0.01709503
0001f0 c9 27 45 bb ad 90 ab bd 7a e6 68 3d 13 9e ec b9
       -0.0030083528 -0.08377204 0.056860425 -0.00045131202
000200 55 8c 23 3d c7 19 69 bc 8b 1d f8 bc b9 2c 18 bd
       0.039928753 -0.014227337 -0.030287525 -0.037152026
000210 66 1f 04 bd 98 72 26 bd 4a e2 0b 3d ef 7f 02 3d
       -0.032256506 -0.04063663 0.034151353 0.03186029
000220 8c 25 8b bd 1c b5 61 bd e8 0f ee bc 99 fa 0b 3b
       -0.06794271 -0.05510436 -0.029060319 0.0021359085
000230 74 1e e2 bc 7a 02 12 bc 91 fe 47 3d 04 cb 03 bd
       -0.027602412 -0.008911723 0.048826758 -0.032176033
000240 95 c8 ca 3a c5 e9 5c bd 63 2f 1c 3c 5d 3a 67 bd
       0.0015471155 -0.053933877 0.009532782 -0.056452144
000250 ff 73 60 bd 65 63 93 bb e2 b9 8c bd 42 d1 00 bc
       -0.054798122 -0.0044979327 -0.06871392 -0.007862391
000260 61 a9 39 bd 04 d1 5c 3d 10 83 5e 3d 11 b1 cd bc
       -0.045327548 0.05391027 0.05432421 -0.025108846
000270 f8 2e 05 bd ac 26 77 bd c6 5a 76 bd e1 a1 10 3d
       -0.032515496 -0.060339615 -0.060145162 0.03531063
000280 16 c7 43 bd 6a 17 cd 3c 33 a4 4a 3d e5 76 29 bd
       -0.047797285 0.025035579 0.049473 -0.041373152
000290 7c 4b bd bc 9b f2 3a bd fc 03 27 3d f0 35 fa 3c
       -0.023107283 -0.045641523 0.040775284 0.030543298
0002a0 94 ba 8e bd 4b e5 7a 3d 3f 29 61 3d 16 5f e9 3a
       -0.06969181 0.061253827 0.054970976 0.0017804827
0002b0 1d 89 de bc c1 91 60 bb df bc c5 bc af ef 3a 3d
       -0.02716499 -0.0034266564 -0.024137912 0.045638736
0002c0 b4 9f 42 3c 4c d0 23 3d 33 a5 6d 3d fd 0b 26 bd
       0.0118788965 0.03999357 0.058018874 -0.040538777
0002d0 8d d5 82 bd 79 be 31 bb 52 05 8c 3b cd 88 34 bd
       -0.06388388 -0.0027121587 0.004273095 -0.044075776
0002e0 ea 0e 13 3d 34 fd 90 bd 03 a3 8b 3b 70 d9 b0 3c
       0.035902895 -0.07079545 0.004261376 0.021588057
0002f0 61 5a 8d bb 60 62 9a 3b 73 f9 10 bd 05 20 df bc
       -0.0043137525 0.0047114342 -0.035394143 -0.027236948
000300 44 ad 37 bd f1 37 43 3d ad 57 82 3c 03 bd 31 bc
       -0.044842973 0.04766077 0.015910948 -0.010848287
000310 d2 ac ed 3c 1d 7f 87 3d 91 9b 75 3c 22 40 68 3a
       0.029013071 0.06616042 0.014990703 0.0008859654

pool1.graph_pool.gnn.lin_r.weight f4 [1, 200]
000000 b9 d5 28 3c 91 e7 0d bd 75 5a 6d bc b9 38 00 3d
       0.010304862 -0.034644667 -0.014486899 0.031304095
000010 5c e4 49 bd 50 5a 52 3d 0c f7 05 bd 12 37 14 bd
       -0.049290046 0.05135566 -0.032706305 -0.03618533
000020 d7 ca 2e bd 50 96 f5 bb c5 22 82 3c 8d 92 4d 3d
       -0.042673912 -0.0074947253 0.01588572 0.05018859
000030 12 6c e8 3b 81 f3 92 bd 78 dc 4d ba 3e b4 49 bd
       0.007092961 -0.07175351 -0.0007852982 -0.049244158
000040 d2 75 3f 3d 41 fc 69 3b c7 cf 33 3d ab a5 c6 bd
       0.04674322 0.0035703334 0.043899324 -0.096995674
000050 74 7c 1f 3d 18 26 22 3d e5 8c 9d bc 9a d1 22 3b
       0.038937047 0.03958711 -0.019232223 0.002484417
000060 11 86 c7 3c de a2 1c b9 db 37 b2 3c 2e f0 2d 3d
       0.02435592 -0.00014937992 0.02175515 0.04246538
000070 f0 62 3e 3d d6 0a 94 bd ea b5 58 3d e8 d1 58 bd
       0.046481073 -0.07228629 0.05290786 -0.052934557
000080 c8 53 cb 3b ca 69 26 3d 68 ae bd 3c 95 7b 87 3d
       0.006205056 0.040628232 0.023154452 0.06615368
000090 25 09 28 bb d2 15 77 3c 49 3c 1e 3c 11 9e b2 3c
       -0.0025640216 0.015080886 0.009657928 0.021803888
0000a0 56 e0 0b 3d 13 b4 8d 3d 9e e4 34 bd 83 f0 11 3c
       0.03414949 0.06919112 -0.04416334 0.00890744
0000b0 fd 82 14 bd e9 96 d4 bc a9 70 5d 3b 48 26 60 bd
       -0.036257733 -0.025950866 0.0033789075 -0.054724008
0000c0 1d 3f 1e bd 10 c6 ba 3b 3c ef d8 3c 77 5e 5b bc
       -0.03863441 0.0056998804 0.026481263 -0.013389221
0000d0 f5 fd 01 3b 12 cf dd bc 13 dc ee bc 4f cb ae bb
       0.0019835208 -0.027076278 -0.029157674 -0.005334295
0000e0 8e bc ea 3c ec f1 28 bd fb fa 16 3d af 2b 1d bd
       0.028654363 -0.04124634 0.036860447 -0.038371738
0000f0 8c 01 be bb ba 4c 9e bd c8 4e 92 3c 68 11 2a 3d
       -0.0057985242 -0.07729478 0.017859831 0.041520506
000100 0a 9a 64 3d 12 29 07 3d d4 5d 1f 3b 76 ba da bc
       0.055810966 0.032998152 0.00243174 -0.02670024
000110 b4 8e 25 3d 15 8f 18 3b 4c 03 2f bd a1 9d 1c 3d
       0.040419295 0.0023278643 -0.042727754 0.038236264
000120 68 c5 00 3d 17 3c 9d 3c 95 50 a4 3b 06 9c 9f bd
       0.03143826 0.019193692 0.005014489 -0.07793431
000130 c9 cd a3 bb 51 7b d0 bc 85 6a 48 3c 1a 70 04 bd
       -0.0049988967 -0.025449427 0.0122324275 -0.03233347
000140 54 da 68 bd b6 67 3e bd c2 7f c6 3c 17 2d f4 3c
       -0.05684884 -0.046485625 0.024230842 0.029806657
000150 6b c2 66 bc 11 04 7c bc 99 f9 08 bd de cc 0e 3d
       -0.014084439 -0.015381829 -0.03344116 0.034863345
000160 a9 18 84 bc 89 73 35 3d 7e 04 6b 3d 9d 53 7b 3d
       -0.01612504 0.044299636 0.05737733 0.061359037
000170 51 b9 7c 3d 42 52 ee 3b b9 65 f6 3b cd c1 4b bc
       0.06170017 0.0072729895 0.0075194505 -0.012436342
000180 3e 58 93 bc 98 6c bf bc 45 bb f9 3c 8c 76 01 bd
       -0.017986413 -0.023367211 0.030484805 -0.031607196
000190 d1 6c c0 3a 70 e2 17 3d 20 5d f1 bc 97 01 62 bd
       0.0014680867 0.037081182 -0.02946335 -0.055177297
0001a0 78 68 92 3d 38 8d f3 ba 21 68 1c bd fe 9d 0d bd
       0.07148832 -0.0018581515 -0.038185243 -0.0345745
0001b0 62 06 03 3b b4 d7 1d 3d 50 26 06 bc 0d c3 78 3d
       0.0019992818 0.03853579 -0.008187845 0.06073289
0001c0 76 d4 62 3d 8c 99 56 3d df 06 03 3b e5 93 28 bd
       0.0553784 0.052392527 0.001999311 -0.04115667
0001d0 4a ef bb bd ff 8f 1d bc cd db 94 bd d1 d6 f5 bc
       -0.091765 -0.009616851 -0.07268486 -0.030009659
0001e0 52 f3 20 bd 24 7f 63 3d b6 01 0a bd 3c dc ac 3d
       -0.03929455 0.055541173 -0.033693038 0.08440444
0001f0 47 9e 15 bd 38 03 90 bd 29 0d 8d 3c ec 2d 7d bc
       -0.0365279 -0.07031864 0.01721819 -0.015452843
000200 11 a7 4d bb 1b 7d 0b bd f0 d2 71 ba d4 75 17 3d
       -0.0031380097 -0.034054857 -0.00092248525 0.036977604
000210 d4 31 8e 3d c7 d4 ac b9 44 1e f7 3c 17 50 2f 3d
       0.06943098 -0.00032964928 0.030165799 0.04280099
000220 ce 72 9f 3d 39 71 36 3d 1f 9d 5b bd 4a af f1 bc
       0.07785569 0.04454157 -0.05361664 -0.02950253
000230 84 3a 6d 3c 3b 40 b2 3d 2d ed ef 3c d5 f8 9c 3d
       0.014479283 0.08703657 0.029287899 0.076646484
000240 35 39 45 bd 43 64 12 3d 8c d9 82 3c e0 5a 62 bd
       -0.04815026 0.03574015 0.015972875 -0.055262446
000250 26 98 be 3c dc 37 63 3d 03 1b 7b bd a4 b9 88 bd
       0.02326591 0.055473194 -0.061305057 -0.06676033
000260 14 62 96 3c 7f f7 22 bd 5b 7f 20 bd c8 23 1c 3d
       0.018357314 -0.039786812 -0.039183956 0.03812006
000270 e4 89 15 3d 9a 8f 54 3b be fb 04 3d 8d f2 15 3d
       0.036508456 0.0032434226 0.032466643 0.036608268
000280 ba 2d 5a 3d bd 4f 92 3d 65 7d 3a 3d 4d f6 c2 3c
       0.053266264 0.07144115 0.04552974 0.023799086
000290 6d dd 97 bc 28 bd 60 bc 6d 9a 4a bd 1c d5 19 bd
       -0.018538201 -0.013716973 -0.04946368 -0.037556753
0002a0 e7 fa c9 bd 15 d2 22 bc fb f8 97 3d 58 05 fb 3c
       -0.09862309 -0.009937783 0.07420536 0.030642197
0002b0 d7 2c 0b 3d b7 cf 87 bd 08 39 b6 bc 93 56 db bc
       0.03397831 -0.06631415 -0.022243991 -0.02677468
0002c0 37 57 8a bd 08 4a 74 3d 36 50 42 bd 1c 85 20 3d
       -0.06754916 0.059640914 -0.047439776 0.039189443
0002d0 e1 60 dd bc 95 74 9a 3d 05 3b 74 bd 3a 84 9b 3d
       -0.027023735 0.075417675 -0.059626598 0.075935796
0002e0 5c 08 82 3d 69 55 45 bd b0 e8 7d 3d 7f da 39 bd
       0.06349251 -0.048177157 0.061989486 -0.04537439
0002f0 b1 e5 ea 3b 78 97 ba bb 28 81 12 bd c4 a8 6a bd
       0.0071684946 -0.005694326 -0.035767704 -0.057289854
000300 84 ae 24 bd 07 42 ad 3c 4d 83 c5 3c d4 80 32 bd
       -0.040205494 0.021149648 0.02411046 -0.04357989
000310 24 2b 29 b9 95 e7 36 3d ed 26 bf 3b f5 a0 58 3b
       -0.00016133167 0.044654448 0.0058334977 0.0033054922

fc.weight f4 [2, 200]
000000 c4 52 82 3c cb d7 0e bc b4 72 8b 3c 20 da 62 bc
       0.015908606 -0.008718441 0.017022468 -0.01384595
000010 33 2d 26 bd 06 53 7a bd a5 63 2f bd 53 34 5f 3c
       -0.04057045 -0.061114334 -0.042819638 0.013623315
000020 33 49 4c bc 32 48 7a bd 3b 8c ac 3c 65 dd 06 bd
       -0.012468624 -0.061104007 0.02106296 -0.032925982
000030 c4 91 7b 3d 36 56 82 bd e0 2d 2d 3d 81 d5 ae bb
       0.06141831 -0.063641 0.042280078 -0.0053355102
000040 27 a4 10 3d d6 46 4a 3d 46 a8 06 bd 9e 41 b3 bc
       0.035312798 0.04938396 -0.03287532 -0.021881875
000050 d3 2a 68 3d 7a 89 56 bc 74 0e 93 bd 67 21 ae 3c
       0.056681465 -0.0130943 -0.07180491 0.021256162
000060 6c 97 98 bd a4 9d c3 bc e9 f5 44 3c ab 21 76 bd
       -0.074507564 -0.02387888 0.01202152 -0.060090702
000070 23 46 2f 3d 1b ab 8a 3d 3b 00 d2 bc 03 39 c2 bb
       0.042791497 0.06770917 -0.025634876 -0.0059272065
000080 45 64 c5 3c 5f ef 03 3d fd 25 2d 3d b9 b8 52 3d
       0.024095664 0.032210704 0.042272557 0.051445697
000090 ce 7c 82 bc 01 50 ff ba 15 39 c6 3c 44 39 b8 3c
       -0.015928652 -0.0019478799 0.02419714 0.022488244
0000a0 f4 63 2d bd 53 6c 30 bc c2 37 32 bd fd 1c 33 bc
       -0.04233165 -0.010768014 -0.043510206 -0.010932204
0000b0 65 02 70 bd e4 2a 5a 3c c3 36 96 3d 21 14 6a bd
       -0.058596034 0.01331589 0.07334664 -0.057148103
0000c0 9a f1 66 bd 04 52 07 bd 56 bd c5 3b 34 b4 9b bd
       -0.056382753 -0.0330372 0.0060345335 -0.076027304
0000d0 c9 56 3a 3d 9a 07 e0 3c 44 87 59 bd 83 27 36 3d
       0.04549292 0.027347375 -0.053107515 0.044471275
0000e0 c5 58 ee bc fa 56 20 3d 21 79 9a bd b3 d2 3b bd
       -0.029095063 0.039145447 -0.07542635 -0.045855235
0000f0 44 80 0d bc a7 3d 91 bd f6 11 15 bd 77 6a c3 3c
       -0.008636538 -0.070918374 -0.036394082 0.023854477
000100 f7 7a 1a 3d 6a 8d b8 bd 93 82 19 bd a3 a7 7e bc
       0.037714925 -0.090113476 -0.03747804 -0.015542897
000110 d6 1f 86 3c 36 d5 41 bc 29 1f 22 bc 48 9a 2c 3d
       0.016372602 -0.011830619 -0.0098951245 0.04213932
000120 46 ee 74 bd 2b 0e cc 3c ab 0a e5 3b d9 85 93 bd
       -0.059797548 0.0249091 0.006989797 -0.07203264
000130 c9 6f c6 3c bd 24 7a bd b0 df 93 bd 6d 9b 46 bd
       0.024223225 -0.061070193 -0.072203994 -0.04848807
000140 52 2a b3 3c bc ec ed 3c a8 ca 39 3d 7e d0 2e bc
       0.021870766 0.029043548 0.045359284 -0.010669826
000150 72 47 24 3d 7e 50 91 bd fb c1 55 bd 36 37 38 3d
       0.040107198 -0.07095431 -0.052186947 0.04497453
000160 56 d2 a3 bd 7f 5e f4 bc 2c 64 8f bc a1 97 6b 3d
       -0.07999103 -0.029830215 -0.01750382 0.05751765
000170 94 6a 09 bd ea c0 d3 bc ea 71 ad bd c3 90 86 3c
       -0.033548906 -0.025848825 -0.08468993 0.01642645
000180 0c bd 03 3a 49 a4 5e 3d c2 be 10 3d 06 b7 e8 3c
       0.00050254236 0.054355893 0.03533817 0.028407585
000190 0d c5 83 bd ed 57 af bd e0 1b 13 bd 7e 4e d4 3c
       -0.06434069 -0.085616924 -0.035915256 0.025916334
0001a0 67 57 48 bd 30 d9 0f 3c 86 6d d6 bb cc 8c 0f 3d
       -0.04891148 0.008779809 -0.006543818 0.035046384
0001b0 15 af 8a 3a 6d 64 da 3c ad 6a 49 3d 84 c0 85 bc
       0.0010580743 0.026659215 0.049174 -0.01632715
0001c0 94 23 38 3d 9d ee 89 bd 39 f3 0c bd 64 18 ed 3c
       0.044955805 -0.06734965 -0.034411643 0.028942294
0001d0 2c 47 51 3d 3b e9 9d bc 09 f7 02 bd 8b 0f 77 bd
       0.051093265 -0.019276252 -0.031973872 -0.060317557
0001e0 5d a1 c8 bc 58 ed a3 bd de 2f ba bc 5a 00 0c bc
       -0.024491007 -0.08004254 -0.022727903 -0.008545006
0001f0 f9 ed 5f bd 72 f4 85 bd 94 d3 03 bd 24 69 3d 3c
       -0.054670308 -0.06540765 -0.0321842 0.011560712
000200 ee 61 78 bb 86 80 f8 3b c8 11 68 3d fc cd 21 3a
       -0.0037900168 0.0075836806 0.056657583 0.00061723567
000210 37 8c 7e bd 60 90 c5 bc 9b ec 7b 3c 8d 7a 4f 3d
       -0.062145438 -0.024116695 0.015376235 0.050653983
000220 97 11 85 bd 91 70 d2 3c 05 c6 38 3d 17 0b 2c 3d
       -0.064974956 0.025688441 0.04511072 0.042002764
000230 cc a4 89 3c 49 34 b5 bd b1 b7 98 bc e2 32 14 bc
       0.016802214 -0.08847863 -0.018642278 -0.0090453345
000240 16 df 44 3b 27 85 50 3c 99 99 a5 bc 9c 69 98 bb
       0.0030040196 0.0127270585 -0.020214843 -0.0046512615
000250 50 3b 22 bb 53 c5 64 bd 5f 86 43 3d 4c 57 19 3d
       -0.0024754591 -0.055852246 0.047735568 0.03743677
000260 2a c8 ad bd 34 e3 b4 bc bb d7 2b bc 25 ed d8 3c
       -0.08485444 -0.022080995 -0.010488446 0.026480267
000270 90 dd f0 3c 35 b1 b8 bb e3 d5 3f 3d fe 43 54 bd
       0.029402524 -0.005636359 0.046834838 -0.051822655
000280 f3 c2 b7 3c ba 0a 34 bd 1a f9 8e 3d d7 78 0d 3d
       0.022431826 -0.043955542 0.06981106 0.03453907
000290 d0 41 66 3a 57 0d 8a bd 3b 91 50 bd 4d f5 1a 3d
       0.00087836105 -0.067408256 -0.050919753 0.037831593
0002a0 46 6f 67 3d 2f c2 9d 3c 55 fc c1 39 be ab 3f bd
       0.056502603 0.019257633 0.0003699983 -0.046794645
0002b0 3d 3f b0 bb c1 15 1b 3d 14 35 88 bd 1b fd 06 bc
       -0.0053786323 0.037862543 -0.06650749 -0.008239056
0002c0 f2 64 72 bd d5 dd 99 bd ef ee 19 bc 87 cb e5 bc
       -0.0591783 -0.07513014 -0.009395345 -0.028051151
0002d0 78 be 4b 3d f6 64 df bc 45 ef 93 bc a1 bd 85 bd
       0.049742192 -0.027269822 -0.018058429 -0.065303095
0002e0 1a 5e d4 bc b4 c1 0b 3d 76 46 ab 3b b8 08 2b 3d
       -0.025923777 0.034120277 0.0052269055 0.04175636
0002f0 cd c1 14 bd bf 99 fd 3c ff cf 08 3d 6e c2 24 3d
       -0.036317635 0.0309571 0.033401486 0.040224485
000300 80 7c 87 bd 7c 6c 9e 3d 5b c4 c9 3c f3 4f 94 bd
       -0.06615543 0.077355355 0.024629762 -0.072418116
000310 d5 4f 2a bd 7f ac e4 bc 0d 90 a1 3c a2 79 b2 3c
       -0.04158004 -0.027914284 0.01972201 0.021786515
000320 29 9a 38 bd 8d 30 52 3d 2f c0 6f 3d b3 d8 3c ba
       -0.045068894 0.051315833 0.05853289 -0.00072039216
000330 50 d1 9d ba 5a f2 1f 3d 7a 9c 92 bd c8 68 b1 bc
       -0.0012040529 0.039049484 -0.07158752 -0.021656409
000340 c8 6f 52 3d 08 f3 2b bd 21 8b c6 3c 81 25 a6 3d
       0.051376134 -0.04197982 0.024236264 0.08112622
000350 20 d6 8c bd b6 43 12 3d f0 55 8d 3d d1 d0 49 3d
       -0.068767786 0.035709105 0.06901157 0.04927141
000360 6a 3e ff 3b b9 39 a1 3d 09 03 00 3d 8c f7 87 3c
       0.0077894228 0.07872338 0.031252895 0.016597532
000370 65 9e 38 3c 4b 91 ba bb 08 0c 34 bd 3a 1f 51 bc
       0.011268233 -0.00569359 -0.043956786 -0.012763793
000380 14 79 38 bd cb e0 18 3d 9f 7c 40 3c e2 c0 44 3d
       -0.045037344 0.037323754 0.011748462 0.04803551
000390 a6 ea 63 3b 2c 83 4e bc 50 c6 11 3d c7 6b 3e 3d
       0.0034777313 -0.012604516 0.035589516 0.046489503
0003a0 70 9a 3f bd 2a 75 67 3d 00 de da bc 9c 05 98 bd
       -0.046778142 0.05650822 -0.026717186 -0.07422945
0003b0 2b 38 30 3d 67 43 52 bd 93 17 6e bc 88 cc b1 3d
       0.043022316 -0.05133381 -0.014531988 0.08681589
0003c0 d1 7b 7e 3d 5b f8 a8 3c 83 f2 a1 3d 3a 6a c7 3c
       0.0621298 0.020626238 0.079075836 0.024342645
0003d0 ab 1a 50 bd bf f4 10 bd 88 c6 58 bc e3 7c 6e 3d
       -0.050806683 -0.035389658 -0.013230927 0.05822457
0003e0 1e e9 04 bd 37 c6 5e 3d 49 03 f8 3c 9a 71 d8 bb
       -0.03244888 0.05438825 0.030275004 -0.0066053392
0003f0 1e 7b 46 bc 3d 72 49 3c 6a 11 87 3d b8 a8 ad bb
       -0.012114314 0.012295303 0.06595118 -0.005299654

fc.bias f4 [2]
000000 35 57 d9 bc 60 62 7c ba
       -0.026530841 -0.0009627696
