assets/pretrained_DFG_IP_RTL/model.pth (torch, 8448 bytes, 8 tensors)

layers.0.graph_conv.weight f4 [37, 16]
-0.09551263 -0.040296696 -0.11820513 -0.013942663 -0.047046293 -0.10213086 -0.06221774 0.3503407
-0.123734705 -0.044691525 -0.10405139 0.053293955 0.0055189426 -0.08715324 0.035409883 0.13080472
0.04458186 -0.077794105 0.051324684 0.022562686 0.033119388 0.14133842 -0.027233753 -0.06065752
0.020097725 0.121347226 0.04864231 0.042492 -0.044489115 0.09829194 -0.046509024 -0.1379643
-0.012926452 -0.041755818 -0.0148765575 -0.013310201 0.034715373 -2.0099093e-16 -0.030041132 0.023774112
2.953379e-13 7.042393e-20 3.4090801e-06 0.010376895 0.019648861 1.9564389e-10 -0.012223986 -0.015737921
-0.014077369 -0.0034834403 0.0045662196 -0.023848983 -0.0021864888 -1.4673035e-14 -0.0038548752 -0.009341406
3.8615417e-07 -3.0323594e-08 9.095963e-10 0.0037966615 0.021368528 -1.365292e-06 -0.0014719672 -0.011423488
0.14871663 0.2644168 -0.047166664 0.20404023 -0.045506038 -0.0002800052 0.03270313 -0.1045612
-0.058047026 0.02020311 -0.037980247 0.13445376 0.26264358 -0.0067673116 -0.0023017614 -0.075666614
0.0573367 0.07291068 0.24143428 0.11572851 0.11463266 0.10626891 -0.18793698 0.07485686
0.047201883 -0.03385669 -0.08846638 0.008731299 0.046081785 -0.023800382 0.12640472 -0.1434407
-0.023056578 -0.06202395 -0.008411291 -0.030725863 -0.03379556 -3.9292812e-05 0.00073438085 -0.11907578
0.014941677 -0.00908038 0.00531387 0.04714755 -0.057355747 0.0012071052 0.046802483 -0.07884641
-0.13774489 -0.058472574 0.045147166 -0.082434766 0.27495354 -0.09969656 0.06506063 0.02309903
-0.07769685 -0.0005947052 -0.028054837 -0.042479545 -0.03611618 0.1418531 -0.07571216 -0.03872655
-1.7067649e-05 -2.74915e-08 -5.934336e-15 -7.16018e-14 3.192854e-12 1.4733534e-13 3.3230447e-16 1.956612e-08
-1.6037994e-08 -6.171164e-15 1.6317604e-06 -5.566897e-07 -3.7682585e-10 -2.0188358e-11 -1.2776356e-16 -1.3517649e-16
0.06401908 -0.00036863526 0.017159315 0.0041338326 -0.030063044 0.082140416 -0.00410123 0.00887905
0.065635234 -0.06602227 0.032928213 0.03705301 0.10319004 0.081455104 0.10468367 0.02341652
0.04971171 -0.012956831 -0.03894403 -0.18975402 -0.09632577 0.076998115 0.062478207 -0.20527251
0.086680755 0.123059936 0.120654546 -0.06132736 -0.13116288 -0.20753185 0.08954408 0.16413337
-0.08761492 -0.08879167 -0.069114916 0.062731 0.05642982 0.031490628 0.04782007 -0.019065408
-0.010745086 -0.052671235 -0.029083535 0.11979663 0.08697785 0.06498168 -0.094833545 0.13701399
0.004772248 -0.08241528 0.15854621 -0.061567716 0.116000846 -0.008529947 -0.017814916 -0.016670391
0.11076726 0.28019083 0.15474184 -0.15015917 -0.102778874 -0.041791834 -0.07785583 -0.12080097
0.024961079 -0.1247816 0.046115767 -0.1504604 0.05719474 -0.08819804 -0.22087944 0.034231868
0.11283137 0.05203651 0.04486902 -0.14411254 -0.09953964 0.12337045 -0.071115844 0.18101747
0.006344612 0.04585526 -0.082314365 0.10948737 0.047299173 0.0326303 -0.042324565 -0.002559351
-0.10475586 -0.14561695 -0.06515682 0.15660271 0.13531268 0.0870198 -0.11316738 0.13960667
0.18120223 0.40111592 -0.0010018074 0.06060096 -0.052298915 -0.018722327 -0.017762687 -0.014267015
-0.076557435 0.0885149 -0.014492866 -0.102901734 -0.09574133 -0.08070596 -0.06164453 -0.028525377
00000000: 209c c3bd 260e 25bd 8815 f2bd c46f 64bc
00000010: 9db3 40bd fc29 d1bd 07d8 7ebd db5f b33e
00000020: 9f68 fdbd 760e 37bd e518 d5bd c34a 5a3d
00000030: 3fd8 b43b 667d b2bd f409 113d acf1 053e
00000040: 789b 363d 8452 9fbd d539 523d 62d5 b83c
00000050: 32a8 073d 05bb 103e 5219 dfbc 0574 78bd
00000060: fca3 a43c e584 f83d 293d 473d 170c 2e3d
00000070: 383a 36bd 494d c93d 3f80 3ebd 8346 0dbe
00000080: 78c9 53bc 2608 2bbd cebc 73bc 0713 5abc
00000090: b531 0e3d 0dba 67a5 d218 f6bc edc1 c23c
000000a0: ad42 a62a a748 a61f 8dc7 6436 da03 2a3c
000000b0: a6f6 a03c dc1c 572f 1d47 48bc d0ec 80bc
000000c0: c4a4 66bc 6e4a 64bb 3aa0 953b f15e c3bc
000000d0: 324b 0fbb b729 84a8 13a2 7cbb b20c 19bc
000000e0: a050 cf34 253d 02b3 2607 7a30 69d1 783b
000000f0: 0d0d af3c 133f b7b5 06ef c0ba 9529 3bbc
00000100: 2c49 183e a461 873e d531 41bd ecef 503e
00000110: 8a64 3abd a9cd 92b9 b8f3 053d 2f24 d6bd
00000120: b8c2 6dbd fe80 a53c 2d91 1bbd 3fae 093e
00000130: 3879 863e 53c0 ddbb 26d9 16bb 19f7 9abd
00000140: e3d9 6a3d 3252 953d 8c3a 773e 1203 ed3d
00000150: 87c4 ea3d 84a3 d93d 8d72 40be 8e4e 993d
00000160: c356 413d 50ad 0abd dd2d b5bd b90d 0f3c
00000170: 41c0 3c3d 05f9 c2bc 3d70 013e 1ee2 12be
00000180: 26e1 bcbc d30c 7ebd 83cf 09bc ceb4 fbbc
00000190: 376d 0abd 56ce 24b8 7783 403a 01de f3bd
000001a0: f0cd 743c e0c5 14bc f91f ae3b ca1d 413d
000001b0: dced 6abd bb37 9e3a f6b3 3f3d 3a7a a1bd
000001c0: ff0c 0dbe f080 6fbd 3cec 383d 8fd3 a8bd
000001d0: b6c6 8c3e b62d ccbd 823e 853d 2d3a bd3c
000001e0: 871f 9fbd fee5 1bba 42d3 e5bc 08ff 2dbd
000001f0: 8fee 13bd f041 113e fa0e 9bbd bb9f 1ebd
00000200: 7f2c 8fb7 7326 ecb2 97ce d5a7 a13b a1a9
00000210: 58ad 602c 85e2 252a 7c8f bf25 5a12 a832
00000220: ecc3 89b2 f156 dea7 dc02 db35 6d6f 15b5
00000230: 8629 cfaf 2494 b1ad 264d 13a5 0fd9 1ba5
00000240: 6f1c 833d 6345 c1b9 b191 8c3c 1a75 873b
00000250: c646 f6bc 3c39 a83d 9c63 86bb 6f79 113c
00000260: c46b 863d af36 87bd bcdf 063d e6c4 173d
00000270: 4d55 d33d efd1 a63d 6464 d63d 00d4 bf3c
00000280: 829e 4b3d e348 54bc c683 1fbd e14e 42be
00000290: 7246 c5bd 30b1 9d3d 26e9 7f3d f532 52be
000002a0: ae85 b13d d906 fc3d bb19 f73d 6632 7bbd
000002b0: 904f 06be 3b83 54be e362 b73d 9412 283e
000002c0: 746f b3bd 68d8 b5bd 1f8c 8dbd 1c79 803d
000002d0: f422 673d 51fc 003d fade 433d 0f2f 9cbc
000002e0: 280c 30bc cbbd 57bd 9840 eebc f057 f53d
000002f0: 7121 b23d 1d15 853d 1738 c2bd 654d 0c3e
00000300: 8560 9c3b 58c9 a8bd f059 223e 6e2e 7cbd
00000310: da91 ed3d 31c1 0bbc 96f0 91bc 5890 88bc
00000320: f2d9 e23d 2c75 8f3e a574 1e3e 53c3 19be
00000330: bb7d d2bd ea2d 2bbd e172 9fbd 8066 f7bd
00000340: 2d7b cc3c 7f8d ffbd e3e3 3c3d 4b12 1abe
00000350: 0845 6a3d 2da1 b4bd 382e 62be b736 0c3d
00000360: 2214 e73d 3c24 553d 94c8 373d 3d92 13be
00000370: 70db cbbd a6a9 fc3d 2fa5 91bd a55c 393e
00000380: 77e6 cf3b bad2 3b3d 6f94 a8bd ea3a e03d
00000390: c7bc 413d 59a7 053d 865c 2dbd c9ba 27bb
000003a0: 3e8a d6bd 9c1c 15be f070 85bd 765c 203e
000003b0: 688f 0a3e 7037 b23d 4dc4 e7bd 0df5 0e3e
000003c0: 148d 393e 115f cd3e 144f 83ba b638 783d
000003d0: 6337 56bd 915f 99bc 0e83 91bc 33c0 69bc
000003e0: 25ca 9cbd 4d47 b53d 7c73 6dbc 25be d2bd
000003f0: 0814 c4bd 2b49 a5bd fa7e 7cbd 0dae e9bc

layers.0.graph_conv.bias f4 [16]
0.04692574 0.041460454 0.05215413 0.0050712894 0.008749122 0.015639076 0.042984173 -0.040736105
-0.00011616961 -0.0656313 -0.019937847 0.03514427 0.028014438 -0.028268207 0.0037772506 -0.031269055
00000000: 3435 403d 70d2 293d 929f 553d 0f2d a63b
00000010: 7a58 0f3c 851d 803c 2c10 303d e7da 26bd
00000020: 16a0 f3b8 b469 86bd b254 a3bc 70f3 0f3d
00000030: 897e e53c ba92 e7bc c08b 773b fb13 00bd

layers.1.graph_conv.weight f4 [16, 16]
-0.054546885 0.073780015 0.0072134617 0.034611274 0.2215831 0.23119809 -0.094257906 0.1444778
-4.885724e-10 -0.1652697 -0.11406163 0.1476144 0.020911494 -2.0188495e-12 -0.081447266 -0.09039056
-0.031810135 0.0811979 -0.021203395 0.03389537 0.45231175 0.14947572 0.08561795 -0.07452298
1.363759e-27 -0.0964803 0.09343626 0.034493286 0.082835324 -2.435198e-29 0.0036180103 0.100852676
-0.050738715 -0.08841539 -0.19519733 0.07438169 -0.062015787 0.18344226 -0.14029288 0.082763664
8.471071e-11 -0.12915853 -0.08327599 0.13372761 -0.080997385 2.0725608e-23 -0.10439127 0.0635216
-0.05524333 0.122475855 -0.10041824 0.13862474 0.18158174 0.048087347 -0.05695147 0.050284825
-4.6027667e-24 -0.09157548 -0.11824972 0.030853584 0.10301683 -1.3440486e-34 -0.010582412 -0.25488803
0.07888757 -0.021690292 -0.098488994 0.124267735 -0.12869291 0.06746401 -0.12435903 -0.08188691
-7.759887e-21 -0.13847513 -0.08897128 0.038737457 0.039187714 3.042805e-23 -0.05623305 0.15753937
-0.015900305 0.03174853 0.16791168 0.0020019226 0.01014533 -0.029291382 -0.13187611 0.23455504
4.1722497e-09 -0.0519738 -0.063045956 0.12932016 -0.030155407 9.380846e-22 -0.068820655 -0.0575348
0.008263933 -0.0076718247 0.09449621 -0.022843597 0.031965934 0.09768639 -0.06638766 -0.23286967
-5.1502295e-11 -0.058262266 0.23843484 -0.012399568 -0.06088354 -1.5101045e-24 -0.08175677 -0.08884523
-0.06430848 0.011741473 0.06476026 0.020445697 -0.067069724 0.02269964 0.05443576 -0.22864437
-2.629e-42 0.34406087 -0.14339224 -0.018688273 -0.018140676 -6.04316e-33 0.07047571 0.098091
0.072088994 -0.062010106 0.051547006 -0.09252188 -0.15214024 0.051775448 -0.010551647 0.08245591
6.2570455e-09 -0.14610294 -0.13181686 0.017184284 -0.028829822 4.2117897e-31 0.048684392 0.008325987
0.14976285 -0.14717482 0.008287549 -0.1181525 0.1447259 -0.06145624 -0.026587961 -0.00071961916
3.2067374e-10 -0.082106054 -0.080339625 0.20389557 -0.15997794 -1.5538116e-33 -0.0849793 0.06280018
0.04564093 -0.12845075 0.042931996 -0.20129316 -0.11546472 0.016907137 0.0038779217 0.030917445
-1.11850355e-07 -0.06982034 -0.042859536 0.009140644 -0.11631478 -9.984691e-33 0.09367356 -0.025783826
-0.06165262 0.14394636 0.14285411 0.021403419 0.004718013 0.11573635 -0.0720772 0.037724193
-2.2351389e-14 -0.043919366 -0.16892034 0.052649837 0.15083455 -6.3038198e-18 0.0026964727 -0.23930977
-0.0515886 0.3075862 -0.17818539 -0.019233247 -0.022172172 0.018549288 0.0025689655 0.0018862877
9.284782e-34 -0.083244264 0.08546011 -0.001920738 0.31085312 -6.9273263e-32 -0.041720785 -0.15915932
0.22318073 0.042890757 0.15930234 0.057767436 -0.09652495 -0.0013197737 -0.1603578 0.01894701
-1.2239772e-11 -0.11218468 -0.17589706 0.017763745 0.13229641 8.0912354e-33 -0.05102608 0.07882415
-0.011900276 0.006928003 -0.00690614 0.08206499 -0.09925769 0.15289812 -0.0008394873 0.115506664
2.6465277e-10 -0.12975305 0.08621148 0.109847516 0.006819829 2.2433203e-32 -0.024977464 -0.001529959
-0.07862861 -0.13518447 -0.0018178589 0.08606131 -0.03426367 0.21243125 0.026643716 0.061349332
-1.2966173e-12 0.039629295 -0.12699689 -0.27019936 -0.112534955 5.8194578e-33 0.015793674 -0.22376695
00000000: 8e6c 5fbd fa19 973d e75e ec3b 8dc4 0d3d
00000010: aee6 623e 31bf 6c3e 4a0a c1bd fdf1 133e
00000020: 3a4c 06b0 763c 29be 2599 e9bd 3b28 173e
00000030: 954e ab3c 5c10 0eac d3cd a6bd b01e b9bd
00000040: 584b 02bd 164b a63d beb2 adbc dfd5 0a3d
00000050: 6895 e73e 2a10 193e 7758 af3d 819f 98bd
00000060: a318 d812 7797 c5bd 835b bf3d d548 0d3d
00000070: 91a5 a93d 5bf5 f68f 241c 6d3b d98b ce3d
00000080: 66d3 4fbd 2113 b5bd cfe1 47be 6d55 983d
00000090: 4404 7ebd 4ad8 3b3e f0a8 0fbe ff7f a93d
000000a0: e447 ba2e 2242 04be 9a8c aabd e4ef 083e
000000b0: f5e1 a5bd 1f72 c819 17cb d5bd 9d17 823d
000000c0: d446 62bd 9fd4 fa3d 14a8 cdbd a5f3 0d3e
000000d0: 90f0 393e 3df7 443d f245 69bd 76f7 4d3d
000000e0: 980f b298 ed8b bbbd e92c f2bd a8c0 fc3c
000000f0: 7dfa d23d 9ba7 3287 da61 2dbc af80 82be
00000100: ce8f a13d d7af b1bc 99b4 c9bd 1580 fe3d
00000110: 13c8 03be 922a 8a3d f2af febd 53b4 a7bd
00000120: 8394 129e 6dcc 0dbe 9336 b6bd 2bab 1e3d
00000130: 4c83 203d 1a24 131a a054 66bd 0052 213e
00000140: 5b41 82bc bf0a 023d 0af1 2b3e b032 033b
00000150: 9938 263c 7bf4 efbc 880a 07be 322f 703e
00000160: 7f5b 8f31 7be2 54bd 3d1e 81bd 816c 043e
00000170: 7908 f7bc 64c2 8d1c d8f1 8cbd 9ca9 6bbd
00000180: 7265 073c ee63 fbbb 3b87 c13d 7f22 bbbc
00000190: b6ee 023d cd0f c83d 41f6 87bd 6375 6ebe
000001a0: 6e82 62ae 6aa4 6ebd 4328 743e 8f27 4bbc
000001b0: 0561 79bd 67ad e997 1870 a7bd 7df4 b5bd
000001c0: 2ab4 83bd 4f5f 403c 07a1 843d bc7d a73c
000001d0: da5b 89bd 98f4 b93c 08f8 5e3d c021 6abe
000001e0: 5407 0080 bf28 b03e 6ad5 12be 2618 99bc
000001f0: c19b 94bc e605 fb89 9255 903d efe3 c83d
00000200: 65a3 933d 4ffe 7dbd f422 533d 1d7c bdbd
00000210: a7ca 1bbe 7e12 543d d1e0 2cbc a5de a83d
00000220: 8efd d631 029c 15be 00fb 06be 0ec6 8c3c
00000230: 852c ecbc 2eae 080d 4969 473d b869 083c
00000240: 6f5b 193e ffb4 16be 80c8 073c f0f9 f1bd
00000250: 0733 143e 8ab9 7bbd ffce d9bc d3a4 3cba
00000260: d14a b02f 3827 a8bd 1a89 a4bd 00ca 503e
00000270: 42d1 23be eb15 0189 a109 aebd 619d 803d
00000280: fcf1 3a3d 9888 03be 76d9 2f3d cb1f 4ebe
00000290: c478 ecbd d680 8a3c bb24 7e3b 9546 fd3c
000002a0: 6232 f0b3 f7fd 8ebd 7b8d 2fbd a4c2 153c
000002b0: 7236 eebd b95f 4f8a ecd7 bf3d 9a38 d3bc
000002c0: 7587 7cbd ad66 133e 5948 123e 3956 af3c
000002d0: 9099 9a3b 2e07 ed3d 369d 93bd af84 1a3d
000002e0: cb52 c9a8 cbe4 33bd 74f9 2cbe 5ba7 573d
000002f0: 5f74 1a3e e591 e8a2 4eb7 303b 9f0d 75be
00000300: 914e 53bd f07b 9d3e 3b76 36be 0b8f 9dbc
00000310: 6aa2 b5bc adf4 973c 175c 283b 503d f73a
00000320: 1845 9a08 f87b aabd b605 af3d 46c1 fbba
00000330: 2428 9f3e fbd7 b38b 6ae3 2abd a9fa 22be
00000340: 7d89 643e 38ae 2f3d 2720 233e 8c9d 6c3d
00000350: dfae c5bd 42fc acba d634 24be c336 9b3c
00000360: 0853 57ad 15c1 e5bd 5c1e 34be 4685 913c
00000370: b678 073e 630c 280a b900 51bd 8e6e a13d
00000380: 60f9 42bc 4d04 e33b e74c e2bb b111 a83d
00000390: 9e47 cbbd 5391 1c3e 0a11 5cba c28e ec3d
000003a0: 917e 912f fcdd 04be a58f b03d bcf7 e03d
000003b0: df78 df3b aff5 e80a 8a9d ccbc e888 c8ba
000003c0: 0908 a1bd cc6d 0abe 3945 eeba e940 b03d
000003d0: 1058 0cbd 9487 593e ec43 da3c 7049 7b3d
000003e0: 907b b6ab 5452 223d 790b 02be 9257 8abe
000003f0: ba78 e6bd 17bb f109 bc61 813c 2a23 65be

layers.1.graph_conv.bias f4 [16]
0.008984677 0.05826062 0.104730144 0.0856195 0.012338732 -0.18559317 0.076662965 0.06816923
-0.0026527557 0.033100203 0.04859983 0.051702525 0.043732233 -0.00016296266 0.012271963 0.11490851
00000000: 7734 133c b0a2 6e3d c27c d63d 4759 af3d
00000010: 6528 4a3c 230c 3ebe 7901 9d3d 4f9c 8b3d
00000020: dbd9 2dbb 1494 073d 9e10 473d 07c6 533d
00000030: 9220 333d f5e0 2ab9 5810 493c 2755 eb3d

pool1.graph_pool.gnn.lin_l.weight f4 [1, 16]
0.14092074 0.16368115 0.2234173 0.21354139 0.11505569 -4.4524096e-09 0.020582158 0.20768166
-5.69e-43 -0.01235049 0.029140485 0.2722421 0.1552159 -6.188941e-30 -0.02860306 0.15035623
00000000: 874d 103e 089c 273e 81c7 643e 98aa 5a3e
00000010: 51a2 eb3d cffb 98b1 ea9b a83c 80aa 543e
00000020: 9601 0080 b659 4abc 07b8 ee3c 5163 8b3e
00000030: ebf0 1e3e a30d fb8e f750 eabc fcf6 193e

pool1.graph_pool.gnn.lin_r.weight f4 [1, 16]
0.005614455 -0.037240583 0.01074483 0.052461464 0.09867039 0.0011124809 0.006881871 -0.030850476
-3.245e-42 0.09459327 -0.0045205546 0.021770902 -0.092211194 3.1421662e-33 -0.016131278 0.0063584493
00000000: 76f9 b73b 9589 18bd 150b 303c d5e1 563d
00000010: b413 ca3d aad0 913a 5181 e13b 23ba fcbc
00000020: 0c09 0080 1eba c13d 2921 94bb e458 b23c
00000030: 39d9 bcbd 3e85 8209 be25 84bc 8a5a d03b

fc.weight f4 [16, 16]
-0.045857728 0.11352589 0.13734004 -0.15610829 0.08308382 -0.1577835 0.115888186 0.22001278
-5.777304e-12 -0.25388834 0.19868824 -0.018202225 0.11537921 -1.3539734e-07 0.068356104 0.14448899
-0.010166194 -0.00025277762 -0.0075760293 0.008616418 -0.022860516 0.0003956036 -0.023964796 0.031934164
6.672e-42 0.0029913655 0.027630044 -0.008818838 0.00045432022 4.6222477e-33 -0.0035310383 -0.011404745
0.06881 0.20998941 -0.15861787 0.20942816 -0.24265091 0.004433385 0.0031478168 -0.08161439
6.407502e-14 0.0049368334 0.14298773 -0.019414233 0.20908275 -2.0850491e-06 0.11576841 -0.026113158
0.21326147 -0.028041394 0.019245544 0.05699161 -0.02741419 0.012608038 -0.12857026 -0.12069518
4.528906e-20 0.056756847 -0.027550235 0.060187288 -0.028386146 3.747554e-10 -0.026431212 -0.13335103
0.12916276 -0.15329467 0.18062319 -0.107422374 0.07664539 0.1310566 -0.03533976 -0.14676587
-1.9513742e-13 0.06870208 -0.03094223 0.030980395 -0.15115207 4.1801293e-16 -0.07698533 0.029164253
-0.026728114 -0.025193918 -0.02896435 -0.018490588 0.11897335 0.09406874 0.12081351 -0.146212
4.6132114e-17 0.049266424 0.08987229 0.11336445 -0.030507058 -3.5790332e-08 0.00086242484 0.005178909
-0.029419059 0.009237021 0.017015077 -0.0030888924 0.010805072 -0.05004761 -0.00048842357 -0.028882425
4.042615e-36 -0.02312008 -0.023705225 -0.015233044 0.009454224 -6.245809e-32 -9.8801305e-05 0.099628404
-0.016441192 0.0016125427 0.0033143524 -0.034104917 -0.10956493 0.2906949 0.037631623 0.034054954
3.3986619e-15 0.10968216 0.03533517 0.09704811 0.0059760287 -9.268241e-06 0.029257035 -0.25473028
0.00026868406 -0.1813527 -0.11934721 0.088166505 0.09920365 0.11304043 -0.22406536 0.11612877
-8.953748e-14 -0.15035817 -0.16346261 -0.020951668 -0.18380281 2.0620073e-06 -0.099312484 0.28601208
-0.008708193 0.0068239192 -0.030504577 0.0645012 -0.024211854 0.070015706 -0.0061862967 0.012743717
-2.3016832e-28 -0.021538582 -0.08034723 -0.0818353 0.010202472 -5.0960257e-31 0.013851269 -0.00020412607
0.00469897 -0.20504764 0.047902346 -0.032146182 0.14800848 0.19629054 0.06887382 0.16342829
-2.140809e-12 -0.075060055 0.087479256 -0.26930204 -0.20038489 -5.885833e-11 -0.081943475 0.025186215
-0.000757222 0.001072605 -0.007402132 -0.008105431 0.034608457 -0.002300174 0.014199868 0.010111339
1.61e-43 -0.008593849 0.021745296 0.012856467 -0.0014565132 -9.737762e-30 0.0017934841 -0.022083683
0.096483745 -0.092270754 -0.19163355 0.06885019 0.18915112 -0.07233361 -0.037033264 0.109806456
6.3131304e-13 -0.031391937 0.23670289 0.103130974 -0.09681853 1.7652613e-07 -0.055236325 -0.19196346
0.018111764 -0.088385105 -0.15458927 0.041462503 -0.35943973 0.05809458 -0.06573411 -0.06590451
-2.234769e-11 0.3213703 0.24263458 0.076038934 -0.08154961 -1.2947426e-07 -0.04798315 -0.003390904
-0.07516697 0.092059 -0.026167376 0.05277059 -0.028712455 -0.028430386 0.07162814 0.028324222
-4.257816e-20 -0.052778922 -0.01542091 -0.09706934 0.09288482 -2.1617009e-13 0.05107731 0.02989765
-0.1112985 -0.0053019747 0.011905248 -0.05375541 0.011441479 0.08652384 0.05252345 -0.02042869
1.6187736e-29 0.014917994 -0.057074666 0.059744574 -0.005750477 -4.492274e-09 0.010023505 0.084018424
00000000: 50d5 3bbd 4380 e83d dea2 0c3e dada 1fbe
00000010: da27 aa3d ff91 21be c956 ed3d 084b 613e
00000020: 5445 cbac a7fd 81be ee74 4b3e d51c 95bc
00000030: ef4b ec3d bd61 11b4 49fe 8b3d ecf4 133e
00000040: 1c90 26bc 3d87 84b9 5740 f8bb e02b 0d3c
00000050: fa45 bbbc 0469 cf39 d251 c4bc 66cd 023d
00000060: 9912 0000 c90a 443b 6758 e23c e37c 10bc
00000070: d431 ee39 2b00 c009 fe68 67bb f8da 3abc
00000080: 42ec 8c3d 7707 573e b96c 22be 5674 563e
00000090: 7b79 78be ee45 913b 9a4b 4e3b 7225 a7bd
000000a0: bc48 9029 29c5 a13b 606b 123e 990a 9fbc
000000b0: ca19 563e dfec 0bb6 fd17 ed3d 43eb d5bc
000000c0: 3761 5a3e 11b7 e5bc d5a8 9d3c 0970 693d
000000d0: b993 e0bc f291 4e3c eca7 03be 092f f7bd
000000e0: 1ddf 551f de79 683d 08b1 e1bc f286 763d
000000f0: 108a e8bc 2206 ce2f 4586 d8bc 2c8d 08be
00000100: 3e43 043e 47f9 1cbe 49f5 383e 4300 dcbd
00000110: 42f8 9c3d b433 063e 6dc0 10bd cb49 16be
00000120: 88b4 5baa adb3 8c3d 8f7a fdbc 99ca fd3c
00000130: 9cc7 1abe d2f7 f025 7caa 9dbd dfe9 ee3c
00000140: ebf4 dabc 7a63 cebc a546 edbc 9379 97bc
00000150: 4da8 f33d 1da7 c03d 136d f73d 99b8 15be
00000160: 30bf 5424 97cb 493d f70e b83d 9f2b e83d
00000170: f0e9 f9bc e3b7 19b3 5a14 623a d6b3 a93b
00000180: 3d00 f1bc e056 173c 3463 8b3c 046f 4abb
00000190: c207 313c b9fe 4cbd 8d09 00ba d69a ecbc
000001a0: 2ef4 ab04 5266 bdbc 7631 c2bc 0494 79bc
000001b0: e4e5 1a3c 8526 a28b 8c33 cfb8 fa09 cc3d
000001c0: aeaf 86bc f45b d33a 9b35 593b 99b1 0bbd
000001d0: 9463 e0bd f6d5 943e 9e23 1a3d 357d 0b3d
000001e0: 3fe6 7427 0aa1 e03d 9cbb 103d 29c1 c63d
000001f0: 90d2 c33b cb7e 1bb7 73ac ef3c 026c 82be
00000200: 2ade 8c39 86b4 39be 4f6c f4bd a490 b43d
00000210: 492b cb3d be81 e73d 6471 65be ecd4 ed3d
00000220: d89e c9a9 7ef7 19be be62 27be d5a2 abbc
00000230: ce36 3cbe 0461 0a36 5864 cbbd 2d70 923e
00000240: cfac 0ebc 2f9b df3b bce4 f9bc 3519 843d
00000250: f057 c6bc 6564 8f3d 6bb6 cabb 06cb 503c
00000260: f2e2 9191 ae71 b0bc 178d a4bd 4499 a7bd
00000270: 4528 273c 2060 258d 6ff0 623c ad0a 56b9
00000280: d1f9 993b 02f8 51be 4035 443d b7ab 03bd
00000290: 898f 173e 6300 493e b80d 8d3d bf59 273e
000002a0: 63a5 16ac 16b9 99bd 5328 b33d f5e1 89be
000002b0: b231 4dbe 4b6e 81ae fbd1 a7bd 5253 ce3c
000002c0: 4f80 46ba a796 8c3a 958d f2bb a4cc 04bc
000002d0: 99c1 0d3d 84be 16bb 90a6 683c 08aa 253c
000002e0: 7300 0000 37cd 0cbc 3123 b23c eea3 523c
000002f0: 79e8 beba 5a81 458f 5713 eb3a d7e8 b4bc
00000300: 4599 c53d 73f8 bcbd 963b 44be 5401 8d3d
00000310: d5b0 413e a523 94bd 31b0 17bd 35e2 e03d
00000320: e6b2 312b d594 00bd 3e62 723e 5536 d33d
00000330: cb48 c6bd 228b 3d34 7c3f 62bd 1292 44be
00000340: 1f5f 943c 4003 b5bd a64c 1ebe 96d4 293d
00000350: 7c08 b8be 95f4 6d3d 9b9f 86bd f2f8 86bd
00000360: 8692 c4ad a68a a43e 3375 783e 4dba 9b3d
00000370: 7b03 a7bd 9d05 0bb4 fb89 44bd ee39 5ebb
00000380: 24f1 99bd 6e89 bc3d f75c d6bc f925 583d
00000390: 6236 ebbc d7e6 e8bc c6b1 923d 3308 e83c
000003a0: d611 499f b62e 58bd fca7 7cbc 4acc c6bd
000003b0: 663a be3d c962 73aa 7136 513d ebeb f43c
000003c0: 78f0 e3bd 30bc adbb 3b0e 433c a22e 5cbd
000003d0: 0b75 3b3c 6933 b13d d422 573d 115a a7bc
000003e0: c429 a40f 9a6a 743c 20c7 69bd bab6 743d
000003f0: 7f6e bcbb 765a 9ab1 a139 243c da11 ac3d

fc.bias f4 [16]
-0.054074153 0.000362564 -0.022973845 0.0117273815 0.016305303 0.0017670238 -0.0028445588 0.010050795
0.008952971 0.0068144016 0.02247612 -0.0029526805 0.01085226 0.024724366 -0.008941308 -0.0029865424
00000000: dc7c 5dbd 8416 be39 a533 bcbc 3424 403c
00000010: b392 853c 7b9b e73a c76b 3abb 17ac 243c
00000020: 7baf 123c 584b df3b d71f b83c c281 41bb
00000030: adcd 313c c18a ca3c 907e 12bc deb9 43bb
