assets/pretrained_AST_IP_RTL/model.pth (torch, 11136 bytes, 8 tensors)

layers.0.graph_conv.weight f4 [79, 16]
0.18811691 -0.011185386 0.000788296 -0.037060834 -0.040020958 -0.0033690508 -0.011648307 -0.00092516706
-0.1359759 -0.040822245 -0.034880105 -0.030151805 0.056469005 0.0018779407 -0.014441593 0.0064464095
1.389e-42 -0.008101007 -1.4385588e-05 0.072244704 -0.039974872 0.019720903 0.0023650145 0.003397118
-0.016821824 0.07979802 -0.007976842 -0.021480678 0.047914848 -0.007103655 -0.032908592 -0.0067335153
-0.05555258 0.03996874 0.019319477 0.06674526 0.069623716 0.06622213 0.064990975 0.021635432
0.045297246 0.05583452 0.12784547 0.005791306 0.038165443 0.07215673 0.041621115 0.02493025
-6.4555e-41 -0.009366815 -0.0024136396 -0.03871896 -0.044935107 -0.0052395756 0.009979913 -3.7736336e-10
0.006411997 0.11693331 0.0026504311 0.01037979 -0.022916932 -0.004226885 -0.02662819 -0.0054815584
-0.02075292 -0.01051444 -0.015601459 0.0605555 -0.029388368 -0.027036931 0.0037238363 -2.830036e-05
-0.014123424 0.09759149 -0.013313403 -0.016821323 0.049989622 -0.007761538 -0.0070974035 -0.005019463
0.2015518 -0.0102999825 0.012140589 0.00078436686 -0.038820423 0.021296348 -0.0063472344 -0.0014528574
-0.014295522 -0.037144247 -0.013737576 -0.010935101 -0.042041108 -0.0028279105 -0.03559396 -0.01022669
-2.1688e-41 0.048349816 -1.6034686e-05 -0.028359836 0.36634484 -0.01841152 -0.029796708 -0.012082617
-0.013860239 0.4340771 0.45489487 0.007904377 -0.038913533 -0.0042330977 0.009613866 0.051197432
-0.041090712 -0.0128481705 -0.016155323 0.11972073 -0.025245463 -0.0064640674 -0.015000018 -2.5021567e-13
-0.0127538815 0.0053550256 -0.019003619 0.0062150587 -0.10396611 -0.06520105 -0.031416766 -0.013348383
1.289e-42 -0.008587989 0.010136323 -0.034395427 -0.050212782 0.0048353476 -0.015022344 -0.0027472551
-0.019093713 -0.025374923 -0.02345228 -0.008926247 -0.02141712 -0.020506617 -0.034827385 -0.0113362055
0.1575375 -0.008701313 -0.01976113 -0.031168494 -0.04838619 -0.0074056806 -0.0026026764 -0.0013742064
-0.0094347065 -0.044184737 -0.012470631 -0.007479982 0.0754346 -0.0034604105 -0.041931923 -0.01056951
1.657e-41 -0.023507297 0.0036616519 -0.08422545 0.15640898 -0.016106894 -0.0048149726 -0.012294578
-0.02335793 -0.04920836 -0.009976838 -0.016139649 0.3688851 -0.0014559155 -0.032543093 -0.010046851
-4.067e-41 -0.010450125 -0.010605189 0.24729176 0.09326932 -0.006421912 -0.0033100774 -0.0023708998
-0.010234193 0.07298017 -0.01436484 0.055654254 0.068982825 -0.0033493575 -0.03978175 -0.0071054134
-0.026240852 -1.880619e-06 -1.8651113e-13 -5.89762e-15 -4.372193e-09 2.8644153e-16 1.6948197e-10 1.3957655e-14
-5.41e-43 -4.4313e-41 1.4444287e-15 -4.5707743e-06 0.039585784 3.737403e-16 -0.002128042 -1.4497249e-37
-7.9759e-41 -0.0055490737 0.0010154333 0.021588402 -0.0363217 -0.0012148428 -0.00026177266 -1.4840862e-05
-0.01075047 -0.04953985 -0.010955497 0.003350486 0.043647666 -0.0008876889 -0.038079336 -0.0072152326
-3.1199e-41 0.040835615 0.009550979 -0.023999508 -0.04310045 -0.005558704 -0.0011619901 -3.9592997e-17
-0.01030744 -0.014030595 0.08625612 -0.010210409 -0.01982619 -0.003995928 0.027561344 0.044400856
-3.9828e-41 0.01575607 0.0024119471 -0.0279473 -0.043048605 -0.027626652 2.2765973e-06 -0.007217668
-0.015531409 -0.047564823 0.12638766 0.024491185 0.054706953 0.0017676009 -0.03335027 -0.009132996
00000000: b8a1 403e e942 37bc a6a5 4e3a 1acd 17bd
00000010: 04ed 23bd 4bcb 5cbb 8ad8 3ebc e986 72ba
00000020: 443d 0bbe 3a35 27bd 71de 0ebd eb00 f7bc
00000030: 0b4c 673d 3c25 f63a 6e9c 6cbc 673c d33b
00000040: df03 0000 16ba 04bc a159 71b7 08f5 933d
00000050: b1bc 23bd bb8d a13c 5cfe 1a3b 2fa2 5e3b
00000060: eccd 89bc 256d a33d 4db1 02bc 3ff8 afbc
00000070: 5c42 443d c7c5 e8bb 29cb 06bd d2a4 dcbb
00000080: 1a8b 63bd 43b6 233d e143 9e3c bdb1 883d
00000090: e196 8e3d 789f 873d fd19 853d ca3c b13c
000000a0: 9b89 393d bdb2 643d ece9 023e ffc4 bd3b
000000b0: 5e53 1c3d e8c6 933d e77a 2a3d 863a cc3c
000000c0: f4b3 0080 4577 19bc 272e 1ebb c697 1ebd
000000d0: e00d 38bd bfb0 abbb ca82 233c 2c75 cfaf
000000e0: bb1b d23b bb7a ef3d dbb2 2d3b ff0f 2a3c
000000f0: 4abc bbbc ae81 8abb 5d23 dabc a59e b3bb
00000100: 0702 aabc c244 2cbc 439d 7fbc 0b09 783d
00000110: e0bf f0bc 8e7c ddbc 9b0b 743b 8f66 edb7
00000120: ef65 67bc 0cde c73d 7620 5abc dfcc 89bc
00000130: ebc1 4c3d 8054 febb 5691 e8bb 4f7a a4bb
00000140: 9863 4e3e 42c1 28bc 52e9 463c f89d 4d3a
00000150: 2a02 1fbd ae75 ae3c 76fc cfbb ce6d beba
00000160: c437 6abc 9124 18bd 9213 61bc 2329 33bc
00000170: 4c33 2cbd 7754 39bb f9ca 11bd d98d 27bc
00000180: 753c 0080 750a 463d 3a82 86b7 e352 e8bc
00000190: 8d91 bb3e c2d3 96bc 3a18 f4bc 2bf6 45bc
000001a0: 0e16 63bc 5b3f de3e fbe7 e83e 5c81 013c
000001b0: cc63 1fbd ccb5 8abb 7a83 1d3c 66b4 513d
000001c0: bc4e 28bd 2281 52bc 2b58 84bc 2430 f53d
000001d0: 93cf cebc 87d0 d3bb a3c2 75bc e1db 8caa
000001e0: a8f5 50bc 3679 af3b 7aad 9bbc b1a7 cb3b
000001f0: 2fec d4bd 2188 85bd deae 00bd 2db3 5abc
00000200: 9803 0000 a3b4 0cbc d212 263c 38e2 0cbd
00000210: ebab 4dbd d671 9e3b 4720 76bc 4b0b 34bb
00000220: 6b6a 9cbc 12df cfbc ff1e c0bc 653f 12bc
00000230: f572 afbc 7efd a7bc 29a7 0ebd 7ebb 39bc
00000240: 8351 213e f48f 0ebc 18e2 a1bc 1255 ffbc
00000250: 9930 46bd 5aab f2bb aa91 2abb b71e b4ba
00000260: 0794 1abc 0efb 34bd 9e51 4cbc a31a f5bb
00000270: 757d 9a3d 0ec8 62bb cfc0 2bbd bd2b 2dbc
00000280: 312e 0000 6092 c0bc 53f8 6f3b 657e acbd
00000290: ad29 203e 9bf2 83bc ebc6 9dbb 336f 49bc
000002a0: 2159 bfbc b58e 49bd e475 23bc 4c37 84bc
000002b0: 82de bc3e 6bd4 beba e84b 05bd 8c9b 24bc
000002c0: 5f71 0080 0037 2bbc 63c1 2dbc 0d3a 7d3e
000002d0: fc03 bf3d e76e d2bb e2ed 58bb 1961 1bbb
000002e0: 51ad 27bc a176 953d 825a 6bbc b7f5 633d
000002f0: de46 8d3d e580 5bbb 30f2 22bd 87d4 e8bb
00000300: 0ef7 d6bc 9469 fcb5 2cfe 51aa f27b d4a7
00000310: 373a 96b1 4f1f a525 ef58 3a2f 5370 7b28
00000320: 8201 0080 877b 0080 032a d026 a75e 99b6
00000330: b424 223d 5572 d725 9f76 0bbb 8a53 4582
00000340: 56de 0080 01d5 b5bb 4a18 853a 29da b03c
00000350: 10c6 14bd 5c3b 9fba 883e 89b9 04fd 78b7
00000360: bd22 30bc 4cea 4abd af7e 33bc d493 5b3b
00000370: e5c7 323d cbb3 68ba 14f9 1bbd c26d ecbb
00000380: f856 0080 3f43 273d b67b 1c3c 9e9a c4bc
00000390: 198a 30bd ca25 b6bb eb4d 98ba 2997 36a4
000003a0: 89e0 28bc 95e0 65bc 0ca7 b03d 8f49 27bc
000003b0: 896a a2bc 46f0 82bb 54c8 e13c acdd 353d
000003c0: 066f 0080 e012 813c c211 1e3b bcf1 e4bc
000003d0: bc53 30bd 4a51 e2bc a5c7 1836 3082 ecbb
000003e0: 7377 7ebc 55d3 42bd c46b 013e bda1 c83c
000003f0: 6614 603d d8ae e73a 4b9a 08bd 90a2 15bc

layers.0.graph_conv.bias f4 [16]
-0.05872737 -0.03615586 -0.024161298 -0.019943887 -0.027211986 -0.041144088 -0.041245636 -0.026893621
-0.022174323 -0.008818642 -0.063786246 -0.009024101 -0.01720757 -0.039748684 -0.0064031933 -0.011630743
00000000: 1c8c 70bd 2b18 14bd eaed c5bc 5d61 a3bc
00000010: aceb debc b486 28bd 2ff1 28bd 0350 dcbc
00000020: eda6 b5bc 117c 10bc 5da2 82bd d3d9 13bc
00000030: e4f6 8cbc 84cf 22bd e1d1 d1bb df8e 3ebc

layers.1.graph_conv.weight f4 [16, 16]
-0.03424483 0.3359947 -0.039825425 -0.015871722 -0.005045766 -0.026930943 0.0003402812 -0.0035988223
-0.03031947 0.0031438752 -0.006889797 -0.019999107 -0.006951001 -0.014750073 -0.0004966061 -0.011719101
-0.057691395 -0.03228338 0.09215646 -0.05707401 0.042649996 0.04976071 -0.085244685 0.09283761
-0.019705227 -0.058290005 0.03898099 -0.06316524 -0.013497491 -0.04546867 0.3217211 0.070501044
-0.014756268 -0.048048157 -0.013102252 0.2389895 -0.011626087 -0.021270892 -0.017408641 0.00775104
-0.03472825 0.2681104 -0.024057025 0.13743052 -0.065076515 0.017343251 -0.024431044 0.07936643
0.18878582 0.2751127 -0.05012905 -0.014471397 0.008899529 -0.0065208026 0.2479668 -0.007714457
0.031361077 -0.056026477 0.01643878 -0.026615752 -0.028844744 -0.015787298 -0.016952801 0.0031969403
-0.058857135 -0.039490413 -0.16179791 -0.012548163 -0.009269314 -0.005342236 -0.058086567 -0.063274294
-0.00805949 0.07211702 0.0299288 0.15077752 0.3162809 -0.06718049 -0.08402777 0.51196384
0.0056136297 0.0053931964 0.008735296 0.110073105 -0.011835352 -0.012643435 -0.016778208 0.018985914
-0.008074706 0.26131412 -0.019999556 0.26375443 -0.07182931 0.008659148 -0.04464436 -0.02075703
-0.016399305 -0.019136941 -0.029360529 0.21421552 -0.015765691 -0.03080224 -0.066228814 -0.019916346
-0.0073859543 0.26003578 0.07848699 0.25519553 -0.022463102 0.009906888 -0.0084437 -0.05699859
-0.0051425686 0.00063664623 -0.013690075 0.27503425 -1.0534121e-05 8.894853e-05 3.1888457e-11 -0.021386737
-0.00016841179 0.34035116 -0.0022485682 0.34205878 -0.0052158744 0.05465849 -0.00029275767 -0.03758452
-0.012576643 -0.016082484 -0.067624845 -0.028076041 -0.018332291 -0.03775901 0.015387848 0.042430855
0.4230686 -0.027809901 -0.040939745 -0.016708992 0.2962097 -0.025800087 -0.03945514 -0.0417756
-0.0045071016 0.017010596 -0.18442293 -0.053439654 0.0047076 -0.010513783 0.06594204 0.21669146
0.017194882 -0.035836946 0.38375664 -0.02649582 0.018202325 0.0004391037 -0.00069645373 -0.007536186
-0.02677391 -0.04879055 0.33460268 0.023455655 -0.025778368 0.0031467718 -0.0072717606 0.311091
-0.025359614 0.10843789 -0.24427356 0.050429597 0.13193777 -0.036232322 0.0032810254 -0.09113151
0.045193 0.003928954 0.099857494 -0.023267593 0.026368095 0.009272059 0.039403584 0.07830876
0.0062863096 -0.052874863 0.004917146 -0.039475445 -0.017459758 0.23049127 -0.0772181 0.016055694
0.39750588 -0.017786516 -0.009677893 0.019235265 -0.025819052 -0.01610417 -0.0036965727 -0.020278025
-0.04191369 -0.010729284 -0.043710217 -0.013644016 0.052245233 -0.05028204 -0.03704205 0.04070602
0.05996466 -0.0077992827 0.06720908 0.29275846 -0.010696631 -0.01415856 -0.021406127 0.030207697
-0.01341356 0.12244761 -0.016626777 0.207473 -0.09025934 -0.016033707 -0.024065703 -0.0008780198
-0.05274832 -0.055175856 0.010466609 -0.05500105 0.36710045 0.34764522 0.012494142 0.055040624
0.032780968 -0.046543084 -0.0049033063 -0.040906783 0.10181578 -0.03157595 0.08708045 0.18694754
-0.0024578972 -0.015479625 0.12985997 -0.026845085 0.03366098 0.04070899 -0.035036266 0.068969496
-0.017726095 -0.008544798 0.0026553667 -0.0246863 -0.0028423744 0.06597563 0.033884335 0.021392245
00000000: 4f44 0cbd 7f07 ac3e fc1f 23bd 6a05 82bc
00000010: f456 a5bb 489e dcbc c567 b239 38da 6bbb
00000020: 8a60 f8bc 7909 4e3b cec3 e1bb 2bd5 a3bc
00000030: 39c5 e3bb 4aaa 71bc ac2e 02ba 7901 40bc
00000040: d04d 6cbd 943b 04bd 87bc bc3d 70c6 69bd
00000050: c3b1 2e3d e3d1 4b3d c494 aebd a521 be3d
00000060: db6c a1bc 80c1 6ebd 88aa 1f3d c75c 81bd
00000070: 9524 5dbc 5b3d 3abd a1b8 a43e da62 903d
00000080: 46c4 71bc 25ce 44bd d4aa 56bc aab9 743e
00000090: 587b 3ebc 4b40 aebc 919c 8ebc 70fc fd3b
000000a0: 363f 0ebd c445 893e 3d13 c5bc 96ba 0c3e
000000b0: d646 85bd 6f13 8e3c 9d23 c8bc de8a a23d
000000c0: 1251 413e 92db 8c3e 1e54 4dbd 7019 6dbc
000000d0: 55cf 113c 75ac d5bb 02eb 7d3e 8ec9 fcbb
000000e0: 7974 003d 057c 65bd 9faa 863c 4709 dabc
000000f0: d04b ecbc 5d54 81bc 9ae0 8abc c283 513b
00000100: 2e14 71bd b3c0 21bd 5aae 25be cf96 4dbc
00000110: 52de 17bc ec0d afbb 2eec 6dbd f495 81bd
00000120: f30b 04bc 17b2 933d 3e2d f53c 6c65 1a3e
00000130: 92ef a13e ed95 89bd c016 acbd 1010 033f
00000140: 8af2 b73b 69b9 b03b 7d1e 0f3c 026e e13d
00000150: 10e9 41bc 6926 4fbc 7472 89bc 5988 9b3c
00000160: c64b 04bc f7ca 853e 1cd6 a3bc d20a 873e
00000170: 3f1b 93bd 19df 0d3c 01dd 36bd a60a aabc
00000180: d657 86bc 13c5 9cbc 7e85 f0bc 505b 5b3e
00000190: 0d27 81bc fb54 fcbc f9a2 87bd 9b27 a3bc
000001a0: e005 f2bb 6923 853e c9bd a03d fda8 823e
000001b0: 8a04 b8bc 8050 223c 7257 0abc 5a77 69bd
000001c0: fe82 a8bb 9be4 263a 564c 60bc 4ad1 8c3e
000001d0: b5bb 30b7 e189 ba38 363f 0c2e 3d33 afbc
000001e0: b297 30b9 8242 ae3e b75c 13bb 5422 af3e
000001f0: ede9 aabb 95e1 5f3d 457d 99b9 3af2 19bd
00000200: 440e 4ebc 6abf 83bc e57e 8abd baff e5bc
00000210: 9a2d 96bc 31a9 1abd 501d 7c3c facb 2d3d
00000220: 739c d83e 97d1 e3bc 6fb0 27bd 4ce1 88bc
00000230: cca8 973e b45a d3bc b69b 21bd e41c 2bbd
00000240: 4fb0 93bb ce59 8b3c 5dd9 3cbe 8ae3 5abd
00000250: 3642 9a3b 0142 2cbc 9f0c 873d 5ee4 5d3e
00000260: 48dc 8c3c c3c9 12bd c07b c43e c30d d9bc
00000270: 0b1d 953c 8037 e639 3892 36ba 1cf2 f6bb
00000280: f554 dbbc 9ad8 47bd 0b51 ab3e 1326 c03c
00000290: 282d d3bc 123a 4e3b f347 eebb 5247 9f3e
000002a0: f7be cfbc af14 de3d d922 7abe 448f 4e3d
000002b0: b21a 073e 5868 14bd 7906 573b 28a3 babd
000002c0: 4c1c 393d 74be 803b 1682 cc3d ae9b bebc
000002d0: e701 d83c d6e9 173c a765 213d 5860 a03d
000002e0: 63fd cd3b 5093 58bd 0320 a13b 01b1 21bd
000002f0: c407 8fbc e705 6c3e 8624 9ebd 3b87 833c
00000300: e485 cb3e 07b5 91bc 0690 1ebc 4693 9d3c
00000310: 7a82 d3bc e4ec 83bc 3342 72bb 1a1e a6bc
00000320: b0ad 2bbd e1c9 2fbc 7c09 33bd 278b 5fbc
00000330: 19ff 553d 8af4 4dbd 68b9 17bd 5bbb 263d
00000340: 819d 753d 2091 ffbb eaa4 893d 70e4 953e
00000350: ec40 2fbc 4ef9 67bc e75b afbc 2276 f73c
00000360: 8cc4 5bbc d0c5 fa3d e134 88bc cd73 543e
00000370: e4d9 b8bd 1f59 83bc 7025 c5bc e92a 66ba
00000380: 9f0e 58bd 1400 62bd 247c 2b3c c848 61bd
00000390: 97f4 bb3e 8efe b13e 3bb4 4c3c 4772 613d
000003a0: 5645 063d f6a3 3ebd eaab a0bb df8d 27bd
000003b0: cb84 d03d c955 01bd 3c57 b23d 2d6f 3f3e
000003c0: ac14 21bb 419e 7dbc 03fa 043e 39ea dbbc
000003d0: 19e0 093d 78be 263d 3082 0fbd e13f 8d3d
000003e0: 5136 91bc 7bff 0bbc a905 2e3b ec3a cabc
000003f0: 2147 3abb 3b1e 873d 4dca 0a3d ca3e af3c

layers.1.graph_conv.bias f4 [16]
0.0015276648 -0.0035379173 0.0013482037 -0.001847864 0.00081832666 -0.00041646563 -0.007007006 -0.0028171786
-0.0011086771 -0.004461655 -0.0019555811 -0.0030202118 -0.024725063 -0.0027949444 0.002784945 -0.0037816928
00000000: ed3b c83a 67dc 67bb 36b6 b03a 0734 f2ba
00000010: f984 563a 1259 dab9 079b e5bb 6aa0 38bb
00000020: 0851 91ba 1333 92bb 3529 00bb bfee 45bb
00000030: 378c cabc 632b 37bb a083 363b 47d6 77bb

pool1.graph_pool.gnn.lin_l.weight f4 [1, 16]
-0.041521702 -0.00090120017 -0.022269106 0.03147978 -0.011220073 -0.004919973 -0.003677723 -0.019331029
-0.028557466 0.040918693 -0.021485908 0.06935132 -0.0021300318 0.009708982 -0.008899404 -0.07058857
00000000: a912 2abd 853e 6cba b36d b6bc f1f0 003d
00000010: 66d4 37bc ba37 a1bb f405 71bb 1b5c 9ebc
00000020: 59f1 e9bc 5c9a 273d 3703 b0bc 1108 8e3d
00000030: 0198 0bbb 6c12 1f3c cece 11bc bd90 90bd

pool1.graph_pool.gnn.lin_r.weight f4 [1, 16]
-0.06157591 -0.01062598 0.0030815476 0.03128747 0.012873063 0.01522316 -0.012567095 -0.019599216
-0.014208399 0.042950153 0.014612789 0.055516444 0.0078483755 -0.01564726 -0.0086228065 0.06934976
00000000: 0537 7cbd 9718 2ebc caf3 493b 4a27 003d
00000010: 8ae9 523c 906a 793c 38e6 4dbc 898e a0bc
00000020: 58ca 68bc 80ec 2f3d 7b6a 6f3c 3665 633d
00000030: 7996 003c af2e 80bc ac46 0dbc 3f07 8e3d

fc.weight f4 [16, 16]
-0.17153333 -0.06119299 0.030368315 -0.14262526 -0.012763287 0.0018675477 -0.11675364 0.009051748
-0.07040936 -0.15535094 -0.152354 -0.15194385 0.01891238 -0.05883109 -0.041931257 0.2631215
-0.0029835554 0.19073245 -0.00091713347 0.012025519 0.0026784274 -0.0547434 0.029065844 0.029785788
-0.059114367 0.016000273 -0.12052489 0.015297231 0.07351938 0.004807989 -0.01864653 -0.03432005
-0.14296678 -2.2623968e-05 0.026247684 0.013984592 -0.08113536 -0.07910064 -0.046060033 -0.09867082
-0.0996086 0.020428685 0.14156538 0.019020759 -0.09220318 0.031900417 0.055291757 0.13409062
-0.025554525 0.1649398 -0.28662175 0.047850873 0.11424543 0.04610739 0.111533836 -0.03762043
0.004802469 0.05329911 0.23370208 0.055126335 -0.18154827 0.0042073526 0.03647235 0.06116253
-0.014792937 0.08355302 0.017486384 -0.20130312 0.03371365 0.016366007 -0.0669487 -0.006625741
-0.097853534 -0.22061332 -0.1830307 -0.21628974 0.09813419 -0.08283678 -0.13721296 0.24448264
0.022472296 0.011018895 -0.011907784 0.021344187 0.049852412 -0.054230798 0.016584272 -0.0027537649
-0.00074557605 0.023771714 -0.02237787 0.022089249 0.016459793 0.044036634 -0.0051890933 -0.027864827
0.2569939 0.0014534058 0.13299094 -0.011395395 -0.11711661 -0.10105443 -0.043542553 -0.001307612
-0.2599836 -0.015257198 -0.1117884 -0.015035459 -0.04328733 -0.09442454 -0.101612955 0.058362074
0.0010052697 -0.056215987 0.08540314 -0.03472339 -0.07263656 0.0645058 -0.005802487 0.024235828
0.10381585 -0.038448893 0.020940281 -0.037501816 -0.119529784 -0.10359869 -0.016129036 0.063648455
0.07721475 0.13608602 0.033214144 -0.07689728 0.092168346 0.05631562 0.04897835 -0.07636794
-0.008330934 -0.08400553 -0.037741028 -0.084784254 0.22985986 -0.0041469755 -0.08364801 -0.08608107
0.0056062965 0.09992142 -0.10274292 0.24807043 0.06310885 0.045104336 0.10426244 -0.19686224
0.14879815 0.275694 0.028482687 0.27191588 -0.14522529 0.09084479 0.078118324 -0.15897024
-0.19331153 0.048298527 0.13736543 0.19106655 0.12990938 0.11378297 0.033512678 -0.13569961
-0.10400204 0.20907527 -0.04607345 0.20704688 0.113410644 0.08084627 0.18145886 -0.19942805
-0.037397616 0.0063926843 0.14225177 0.009896143 -0.062178977 -0.07367286 -0.013368588 -0.21038143
-0.12880942 0.017876811 0.2137547 0.012212351 0.13017064 0.0538092 0.028119681 -0.054127067
-0.068520755 -0.01759022 -0.096361645 -0.10224162 -0.13042332 -0.12666547 0.06585681 0.013344741
-0.120481655 -0.10918498 0.05996472 -0.10982055 0.27441177 -0.07454273 -0.0089588035 -0.08560918
-0.005509867 -0.06979337 0.16103719 -0.023182811 -0.095095 0.0009572666 0.0333102 0.0027432365
0.14537196 -0.025537549 -0.017420305 -0.02635734 -0.08144751 0.015736893 -0.04385312 0.05439693
-0.013622069 0.044508435 -0.09692993 0.13010879 -0.08586663 -0.08301956 0.062625855 0.19336715
-0.0026067495 0.14144151 -0.13703874 0.14220737 -0.009533494 -0.016373102 0.09235254 -0.19355878
0.09945512 -0.22219993 -0.100047335 -0.01286006 0.14837328 0.1894578 -0.08285063 -0.08823566
-0.09332528 -0.016905768 0.07281549 -0.015673783 0.11438122 -0.0677941 0.019497281 -0.07637261
00000000: 6fa6 2fbe 80a5 7abd f9c6 f83c 5b0c 12be
00000010: 1b1d 51bc 81c8 f43a 881c efbd c84d 143c
00000020: c832 90bd 5114 1fbe b002 1cbe 2b97 1bbe
00000030: 23ee 9a3c def8 70bd 1cc0 2bbd dcb7 863e
00000040: c187 43bb 5e4f 433e c96b 70ba af06 453c
00000050: 8e88 2f3b 9e3a 60bd 7e1b ee3c 5301 f43c
00000060: e821 72bd 0113 833c c1d5 f6bd 3da1 7a3c
00000070: 5491 963d 568c 9d3b 9cc0 98bc 2e93 0cbd
00000080: e265 12be 9ac8 bdb7 6205 d73c a11f 653c
00000090: 4c2a a6bd 84ff a1bd 72a9 3cbd ed13 cabd
000000a0: 98ff cbbd 0f5a a73c 84f6 103e 6cd1 9b3c
000000b0: 05d5 bcbd 03aa 023d 9c79 623d 0d4f 093e
000000c0: b957 d1bc fbe5 283e 16c0 92be 47ff 433d
000000d0: 82f9 e93d 1adb 3c3d da6b e43d e117 1abd
000000e0: 085e 9d3b 2b50 5a3d 994f 6f3e 27cc 613d
000000f0: cae7 39be d5dd 893b 0864 153d 9085 7a3d
00000100: 135e 72bc d91d ab3d 9b3f 8f3c 6822 4ebe
00000110: 5317 0a3d 0112 863c 661c 89bd be1c d9bb
00000120: 6f67 c8bd 75e8 61be 666c 3bbe 0f7b 5dbe
00000130: 94fa c83d 54a6 a9bd 8e81 0cbe a859 7a3e
00000140: d217 b83c 9888 343c de18 43bc 01da ae3c
00000150: 0b32 4c3d 1d21 5ebd bddb 873c 8278 34bb
00000160: c372 43ba e6bc c23c cb51 b7bc 83f4 b43c
00000170: b0d6 863c c25f 343d 4509 aabb c744 e4bc
00000180: b494 833e 3580 be3a c72e 083e c0b3 3abc
00000190: d5da efbd a0f5 cebd ad59 32bd 2e64 abba
000001a0: 921c 85be 54f9 79bc 51f1 e4bd 4957 76bc
000001b0: 0e4e 31bd a761 c1bd 741a d0bd 120d 6f3d
000001c0: 41c3 833a bc42 66bd d7e7 ae3d 1d3a 0ebd
000001d0: 7ac2 94bd 9e1b 843d ca22 bebb 378a c63c
000001e0: 689d d43d 967c 1dbd f48a ab3c 819b 19bd
000001f0: 08cc f4bd 8d2b d4bd 0a21 84bc 1f5a 823d
00000200: c422 9e3d 225a 0b3e 8e0b 083d 527c 9dbd
00000210: c2c2 bc3d 35ab 663d 869d 483d cb66 9cbd
00000220: 787e 08bc 170b acbd 5696 1abd 5ea3 adbd
00000230: 6260 6b3e 5ae3 87bb a64f abbd 464b b0bd
00000240: 06b5 b73b 9aa3 cc3d e16a d2bd 2d06 7e3e
00000250: 363f 813d 53bf 383d 8c87 d53d 4196 49be
00000260: 8b5e 183e c427 8d3e 8654 e93c 8f38 8b3e
00000270: f0b5 14be d50c ba3d 80fc 9f3d 18c9 22be
00000280: 75f3 45be add4 453d 86a9 0c3e f3a6 433e
00000290: f706 053e 0c07 e93d 9744 093d d7f4 0abe
000002a0: 06ff d4bd d417 563e 84b7 3cbd 1904 543e
000002b0: d743 e83d bb92 a53d 5ad0 393e de36 4cbe
000002c0: 3e2e 19bd b979 d13b 73aa 113e 6f23 223c
000002d0: 62af 7ebd cce1 96bd ec07 5bbc 3b6e 57be
000002e0: 9ee6 03be 6472 923c 83e2 5a3e 5016 483c
000002f0: 744b 053e 0967 5c3d 3f5b e63c 58b4 5dbd
00000300: 9c54 8cbd 5d19 90bc 4159 c5bd 0e64 d1bd
00000310: b18d 05be 98b4 01be efdf 863d e7a3 5a3c
00000320: 16bf f6bd 609c dfbd 919d 753d 99e9 e0bd
00000330: b37f 8c3e dca9 98bd f2c7 12bc de53 afbd
00000340: 1d8c b4bb d4ef 8ebd efe6 243e e1e9 bdbc
00000350: 2bc1 c2bd 13f1 7a3a 4770 083d dfc7 333b
00000360: 63dc 143e 1f34 d1bc 07b5 8ebc 59eb d7bc
00000370: f4cd a6bd a8ea 803c 549f 33bd 51cf 5e3d
00000380: 192f 5fbc 7a4e 363d 3383 c6bd 3d3b 053e
00000390: d8da afbd 2906 aabd fc41 803d 0a02 463e
000003a0: 00d6 2abb 0bd6 103e e253 0cbe cf9e 113e
000003b0: 5f32 1cbc e220 86bc 5423 bd3d 4634 46be
000003c0: 20af cb3d 6188 63be 9ee5 ccbd 00b3 52bc
000003d0: 2aef 173e 3a01 423e 97ad a9bd e6b4 b4bd
000003e0: 5321 bfbd f77d 8abc 4a20 953d 4e66 80bc
000003f0: b340 ea3d a2d7 8abd c3b8 9f3c 3e69 9cbd

fc.bias f4 [16]
0.014156986 -0.0021093271 -0.0006948623 -0.022958389 0.006572248 0.00034849803 0.019995818 -0.0029442774
-0.00805566 -0.007398739 -0.0071174246 -0.0025733407 0.020855423 -0.0061492547 0.013013923 0.014275886
00000000: b4f2 673c a33c 0abb 6b27 36ba 3b13 bcbc
00000010: 035c d73b 9db6 b639 45ce a33c c7f4 40bb
00000020: e3fb 03bc 1f71 f2bb 4939 e9bb 7ea5 28bb
00000030: fed8 aa3c b07f c9bb 5938 553c 68e5 693c
